uniform/00_uniformtest/model_ep400.pth (torch, 61296 bytes, 10 tensors)

lstm.weight_ih_l0 f4 [80, 20]
-0.20614457 -0.06785561 0.11688185 0.1255432 -0.0737766 0.2141046 -0.01776844 -0.040199097
-0.19863111 0.09262312 0.058782015 0.18013927 -0.03602642 0.05333734 -0.19138293 0.1415894
0.07740518 -0.13869515 -0.0045479946 0.0822796 0.015166095 0.082069606 0.014990939 -0.18451646
0.09852252 -0.08498977 -0.17752124 -0.016614342 0.037245214 0.058196995 0.19158895 -0.20316409
0.17447655 -0.20997736 0.003486899 0.1332719 -0.10703106 -0.08154728 0.19037072 0.14225197
0.1884902 0.11228928 -0.027539201 0.050310895 0.08690871 0.121869534 0.07038911 0.02453115
-0.20391747 0.04890735 0.19429481 0.0042852196 -0.019529337 -0.21524246 0.08932948 -0.14754462
-0.17663251 0.16480894 -0.19459282 0.09336733 0.20111184 -0.079716414 0.09202013 -0.0920707
-0.13212162 0.19869262 -0.09904344 0.15633841 0.0930116 0.016990833 0.017910918 -0.12873873
0.125838 0.09093449 0.066850014 -0.16113836 -0.20480959 -0.10728888 -0.05479526 0.008238039
-0.08666377 -0.13830043 0.11170469 0.028615464 0.14832252 -0.08629227 0.050334726 -0.17964704
-0.17117392 -0.053905163 0.013058725 0.12551905 0.030418182 0.10736403 -0.13512868 -0.100934945
0.040908094 0.04014672 0.10274241 0.08717581 -0.05253499 0.029035429 -0.20491579 -0.12418362
0.22224331 -0.08322339 -0.18715662 -0.13669713 0.18209206 0.13345136 0.18711498 -0.06053134
-0.20565243 0.069456436 -0.12331682 0.04580896 0.056924865 0.08014782 -0.048936643 -0.034775212
0.042806216 0.104037754 0.18754344 -0.16325685 -0.173025 0.067286156 -0.18429555 0.14769702
0.030785982 -0.1301232 -0.16380414 0.11096605 -0.05275053 -0.19014943 -0.017402988 -0.17093071
0.2068974 0.082398914 -0.04228914 -0.1768218 0.057110097 -0.18900612 -0.2085602 0.12706348
0.19756225 -0.014667521 0.14400855 -0.20216286 -0.1771292 -0.12375211 0.09960334 0.15719709
-0.07035789 0.012144131 0.044654943 -0.15970372 0.16469905 0.115658686 -0.13189323 0.029125579
-0.10117018 -0.091773756 0.049210347 -0.11555827 0.126869 -0.024241932 -0.20803148 0.058489196
-0.16367486 0.21458517 0.053193342 0.16052823 -0.013994563 -0.0036962018 0.21640599 -0.039520357
-0.14615081 0.11239719 0.016156312 0.21954426 -0.11370437 0.12247665 0.21043772 0.1971627
-0.083819844 0.0035415704 -0.08638599 0.021600561 0.18464637 0.11657099 -0.090070836 -0.13727432
0.16697243 0.11825487 -0.12356448 -0.15949726 0.06928768 -0.083286 0.10585218 0.11400177
-0.15525408 0.15442838 -0.012657765 0.0929318 0.014212583 -0.04114653 -0.14883114 -0.14335352
0.14914687 0.18853524 -0.13777506 0.10505884 -0.18357228 0.1415476 0.0846433 -0.15004443
-0.16994649 -0.19383377 0.1518986 0.13936184 0.09901078 0.13803633 0.012620233 -0.07429536
-0.04928168 -0.12738116 -0.05495941 0.030976467 0.19584256 -0.10713407 -0.18333189 0.0029121954
-0.1037946 -0.1017395 0.14998414 0.11891914 -0.09529405 -0.031443585 -0.21550515 -0.012246543
-0.16039167 -0.1427386 0.08228571 0.19851345 0.14980042 0.10728395 -0.064382225 0.1143555
-0.040006775 -0.08416024 0.05133571 0.18509382 -0.06157391 -0.0019661204 0.10790184 -0.09716096
00000000: 9017 53be e2f7 8abd c05f ef3d 668e 003e
00000010: 3018 97bd 3c3e 5b3e 1f8f 91bc cfa7 24bd
00000020: f465 4bbe 31b1 bd3d 69c5 703d 6e76 383e
00000030: 7090 13bd 4178 5a3d e3f9 43be d0fc 103e
00000040: 9b86 9e3d 1a06 0ebe 5807 95bb 3582 a83d
00000050: 377b 783c 1c14 a83d 8e9c 753c e2f1 3cbe
00000060: 2dc6 c93d 1e0f aebd 21c8 35be cd1a 88bc
00000070: 708e 183d f95f 6e3d e52f 443e 3f0a 50be
00000080: fba9 323e 4e04 57be 7584 643b 6e78 083e
00000090: 1a33 dbbd 4302 a7bd 8bf0 423e 80aa 113e
000000a0: 9303 413e ecf7 e53d e499 e1bc cc12 4e3d
000000b0: 32fd b13d bc96 f93d 2a28 903d 8df5 c83c
000000c0: becf 50be 1353 483d 38f5 463e 076b 8c3b
000000d0: fdfb 9fbc 8568 5cbe 60f2 b63d f015 17be
000000e0: 27df 34be adc3 283e 5743 47be 5f37 bf3d
000000f0: 43f0 4d3e 5c42 a3bd 0d75 bc3d 908f bcbd
00000100: e44a 07be 1476 4b3e 49d7 cabd 2d17 203e
00000110: de7c be3d 5c30 8b3c ebb9 923c 16d4 03be
00000120: addb 003e dd3b ba3d a9e8 883d 7401 25be
00000130: 9bb9 51be 46ba dbbd ff70 60bd d7f8 063c
00000140: c67c b1bd a19e 0dbe 6ec5 e43d fa6a ea3c
00000150: dce1 173e 00ba b0bd c92b 4e3d 65f5 37be
00000160: 3748 2fbe a9cb 5cbd 43f4 553c 1188 003e
00000170: 8d2f f93c ace1 db3d 2c5f 0abe fbb6 cebd
00000180: 3f8f 273d e370 243d 9d6a d23d 3b89 b23d
00000190: ee2e 57bd b5db ed3c 72d5 51be fb53 febd
000001a0: c093 633e 0671 aabd fca5 3fbe 55fa 0bbe
000001b0: 5776 3a3e 79a7 083e 129b 3f3e b6ef 77bd
000001c0: 8d96 52be 2d3f 8e3d 878d fcbd 2da2 3b3d
000001d0: 0c2a 693d 8a24 a43d ca71 48bd 7470 0ebd
000001e0: 9255 2f3d bf11 d53d 630b 403e ce2c 27be
000001f0: 772d 31be 53cd 893d f9b7 3cbe e33d 173e
00000200: e232 fc3c 043f 05be 46bc 27be 2b42 e33d
00000210: f110 58bd 88b6 42be b690 8ebc 7608 2fbe
00000220: e9dc 533e c3c0 a83d 6137 2dbd c610 35be
00000230: 47ec 693d d28a 41be ce90 55be ee1c 023e
00000240: c24d 4a3e 0b50 70bc fa76 133e c803 4fbe
00000250: 5b61 35be bf71 fdbd d6fc cb3d 46f8 203e
00000260: cc17 90bd 2df8 463c 1ae8 363d 5f89 23be
00000270: dea6 283e 76de ec3d 050f 07be c498 ee3c
00000280: 5032 cfbd e1f3 bbbd ca90 493d d0a9 ecbd
00000290: f2e9 013e 0497 c6bc 3406 55be 5e92 6f3d
000002a0: 629a 27be 37bc 5b3e 43e1 593d 8361 243e
000002b0: 7449 65bc fa3b 72bb 8899 5d3e 19e0 21bd
000002c0: 8fa8 15be 7f30 e63d 3e5a 843c 36d0 603e
000002d0: d6dd e8bd 0ad5 fa3d fc7c 573e 05e5 493e
000002e0: bda9 abbd b119 683b 23eb b0bd a9f3 b03c
000002f0: f013 3d3e c5bc ee3d 0f77 b8bd a491 0cbe
00000300: d2fa 2a3e 9c2f f23d 600f fdbd 4053 23be
00000310: b3e6 8d3d da91 aabd 07c9 d83d c379 e93d
00000320: edfa 1ebe 7922 1e3e 8462 4fbc 0753 be3d
00000330: e5db 683c 4489 28bd 3167 18be 44cb 12be
00000340: f5b9 183e 620f 413e e814 0dbe 1729 d73d
00000350: 5ffa 3bbe dbf1 103e 7759 ad3d 3fa5 19be
00000360: 7406 2ebe 5c7c 46be 4e8b 1b3e dfb4 0e3e
00000370: 2ac6 ca3d 6559 0d3e 18c5 4e3c 2a28 98bd
00000380: 96db 49bd 3570 02be 1e1d 61bd 5cc2 fd3c
00000390: f48a 483e 1b69 dbbd 5bbb 3bbe 88da 3e3b
000003a0: 4392 d4bd cd5c d0bd 7195 193e e18b f33d
000003b0: 8729 c3bd fdca 00bd 62ad 5cbe b9a5 48bc
000003c0: b73d 24be 112a 12be 6985 a83d 1c47 4b3e
000003d0: 4865 193e b0b7 db3d d4da 83bd 3733 ea3d
000003e0: 25de 23bd 345c acbd 6545 523d 3c89 3d3e
000003f0: ed34 7cbd 07da 00bb a4fb dc3d 53fc c6bd

lstm.weight_hh_l0 f4 [80, 20]
-0.00033978414 0.14353172 -0.10843528 0.091226615 0.09833774 0.009787526 0.0002670932 -0.1458521
0.101901785 -0.079326466 -0.0012332401 -0.18426472 -0.014314649 -0.11285642 -0.15051405 0.13664046
-0.2126693 -0.1322719 -0.09151927 0.17099981 0.004499134 -0.1796018 -0.021548476 0.16580337
0.09959702 -0.014409144 -0.06050479 0.099795 0.07774891 -0.03331497 0.21799783 -0.04979438
0.21130532 0.11436203 -0.08146174 -0.21164542 -0.010139172 -0.113910474 -0.012300681 -0.09926753
-0.09828629 -0.11818818 -0.08072772 -0.21030481 0.07109669 -0.1957913 -0.13939421 0.11520172
-0.026680237 -0.20768474 -0.056517504 0.16114567 -0.17081083 0.13415469 0.090585776 0.06314208
-0.20938203 0.14300987 0.20866072 -0.17071189 -0.08034768 -0.0028218583 0.22249934 -0.20868975
-0.13680372 0.011168014 0.1260111 0.19596039 0.18969062 0.11770903 -0.1618971 -0.20958741
-0.14502504 -0.18035577 -0.031818822 -0.22230724 0.15773721 -0.08774006 -0.08093209 -0.15441118
-0.1472215 0.17762275 -0.054651693 -0.14059 -0.015252328 -0.08888579 0.15623564 0.05973246
0.1715997 0.07642829 0.08576959 0.19700733 0.036685597 0.18208961 0.11888198 -0.08288379
-0.1795252 0.18997808 -0.21498965 0.1509509 -0.07560857 -0.06419982 -0.123637095 -0.13730115
0.10840561 -0.023757087 0.017668001 -0.051182546 0.15986735 -0.10639892 0.16382107 -0.08225777
-0.09318466 -0.03621565 -0.084161386 0.01971081 -0.13789192 -0.04008 0.13267435 -0.040249903
-0.1434654 0.13764805 0.18994674 0.08549925 0.022597043 0.13845903 0.17919967 0.15633039
0.12737605 -0.17069104 0.062097754 -0.04858769 -0.13517605 0.023439772 0.21393485 0.20707586
0.13629574 0.17199023 0.03195922 -0.14135385 -0.13730085 0.09189056 0.07260283 0.16458637
-0.0042856196 0.18654726 -0.1214421 -0.1358139 0.08044788 0.21482241 -0.024775986 0.21869494
0.20213048 -0.18233898 -0.14923234 -0.13860571 -0.16535659 -0.16858222 -0.20627192 -0.09507547
0.15299004 -0.09167872 0.19853178 -0.20757134 -0.16064966 0.11227939 0.22293787 -0.17991045
0.06290866 0.16504717 0.13806705 -0.21930066 0.14572312 0.08695237 -0.007086153 -0.17968908
0.01206091 -0.06392969 0.20800045 -0.044451904 -0.1483362 0.11739089 -0.17878672 -0.2063216
0.16205022 0.0134039465 -0.034810852 0.09355813 0.14965533 -0.049793582 0.18057701 0.15457763
0.061151627 -0.103806034 0.14328721 -0.04542005 0.061936967 0.16104469 -0.08048184 0.20590225
-0.18072826 0.17996009 -0.047766604 0.11958578 -0.069737315 -0.006632548 -0.014408185 -0.11051647
0.08866617 0.022012264 0.10916744 -0.18895306 -0.020522114 0.17776452 -0.16014199 0.021956073
-0.22043844 0.1356002 -0.06739102 -0.084923536 -0.1330359 -0.091049455 0.15831313 0.12343589
0.031657662 0.035569217 -0.05265417 0.16160604 0.19941647 0.17864102 0.11931597 -0.12950304
-0.18565802 -0.08899374 0.094669126 -0.12632844 0.026769081 -0.057419438 -0.046225727 -0.15529625
-0.07580856 0.005403759 -0.16996288 0.00094204996 -0.01787296 -0.16403428 0.09959556 -0.084571324
-0.15473823 0.13546133 -0.15331307 -0.21721497 -0.17881103 -0.1469107 0.21073274 -0.18586932
00000000: 0e25 b2b9 fbf9 123e 5113 debd 05d5 ba3d
00000010: 4c65 c93d dc5b 203c a408 8c39 415a 15be
00000020: e2b1 d03d ea75 a2bd aca4 a1ba e4af 3cbe
00000030: fd87 6abc 4421 e7bd 5b20 1abe 7aeb 0b3e
00000040: fbc5 59be 4972 07be 746e bbbd 931a 2f3e
00000050: 796d 933b 89e9 37be 6e86 b0bc 5cc8 293e
00000060: 86f9 cb3d 5514 6cbc dfd3 77bd 5261 cc3d
00000070: d23a 9f3d 4775 08bd d33a 5f3e 31f5 4bbd
00000080: 6c60 583e a436 ea3d 6ad5 a6bd 94b9 58be
00000090: c51e 26bc e549 e9bd cc88 49bc c64c cbbd
000000a0: 534a c9bd a50c f2bd 9354 a5bd 255a 57be
000000b0: 249b 913d 847d 48be 5bbd 0ebe e1ee eb3d
000000c0: 8390 dabc 4fab 54be e67e 67bd 5f03 253e
000000d0: 09e9 2ebe d95f 093e 0985 b93d a350 813d
000000e0: 3e68 56be 2e71 123e 28ab 553e 19cf 2ebe
000000f0: 538d a4bd edee 38bb ded6 633e c4b2 55be
00000100: 4616 0cbe 0cfa 363c 0e09 013e d7a9 483e
00000110: 423e 423e 6f11 f13d 5ac8 25be 159e 56be
00000120: 7281 14be 2faf 38be 7454 02bd 82a4 63be
00000130: dd85 213e 10b1 b3bd b9bf a5bd f71d 1ebe
00000140: 3cc1 16be bde2 353e 74da 5fbd d3f6 0fbe
00000150: e6e4 79bc c109 b6bd 3cfc 1f3e 06aa 743d
00000160: d5b7 2f3e 6f86 9c3d f8a7 af3d 4abc 493e
00000170: a343 163d b375 3a3e 6578 f33d fabe a9bd
00000180: 74d5 37be 9d89 423e 3f26 5cbe df92 1a3e
00000190: aad8 9abd 327b 83bd 7235 fdbd ac98 0cbe
000001a0: c303 de3d 399e c2bc 7cbc 903c caa4 51bd
000001b0: 44b4 233e ade7 d9bd b6c0 273e c376 a8bd
000001c0: 99d7 bebd dd56 14bd ce5c acbd 9178 a13c
000001d0: 8a33 0dbe ed2a 24bd c9db 073e 15dd 24bd
000001e0: 98e8 12be 9cf3 0c3e 6681 423e 3b1a af3d
000001f0: 6f1d b93c 34c8 0d3e 1e80 373e 1315 203e
00000200: de6e 023e a2c9 2ebe 375a 7e3d e303 47bd
00000210: 976b 0abe c404 c03c bd11 5b3e b20b 543e
00000220: 1c91 0b3e 351e 303e ace7 023d 10bf 10be
00000230: 9898 0cbe 1e31 bc3d cbb0 943d 5489 283e
00000240: 626e 8cbb 3f06 3f3e a3b6 f8bd cd12 0bbe
00000250: dcc1 a43d 68fa 5b3e 02f7 cabc 91f1 5f3e
00000260: 4bfb 4e3e 12b7 3abe 5dd0 18be a8ee 0dbe
00000270: 3d53 29be d1a0 2cbe f238 53be eeb6 c2bd
00000280: 6ca9 1c3e 0ec2 bbbd ea4b 4b3e 958d 54be
00000290: 5881 24be bdf2 e53d d349 643e 723a 38be
000002a0: 41d6 803d 2002 293e 7361 0d3e 5a90 60be
000002b0: 7138 153e 1614 b23d f632 e8bb 6a00 38be
000002c0: 209b 453c 92ed 82bd 12fe 543e 3313 36bd
000002d0: 72e5 17be a36a f03d de13 37be f845 53be
000002e0: 7ef0 253e 3a9c 5b3c d395 0ebd 689b bf3d
000002f0: 3f3f 193e 5bf4 4bbd 2ee9 383e 9949 1e3e
00000300: 217a 7a3d 4298 d4bd e2b9 123e 600a 3abd
00000310: 9eb1 7d3d e6e8 243e aad3 a4bd 0ad8 523e
00000320: d410 39be 7547 383e eaa6 43bd 64e9 f43d
00000330: 70d2 8ebd d855 d9bb 4f10 6cbc 7656 e2bd
00000340: 9c96 b53d 1053 b43c 2e93 df3d e97c 41be
00000350: fe1d a8bc e707 363e 43fc 23be 39dd b33c
00000360: 9dba 61be c7da 0a3e 4e04 8abd 64ec adbd
00000370: 903a 08be 2378 babd d61c 223e f5cb fc3d
00000380: 77ab 013d 07b1 113d e6ab 57bd 0e7c 253e
00000390: d533 4c3e aced 363e ee5b f43d 729c 04be
000003a0: 231d 3ebe 5a42 b6bd e3e1 c13d 3e5c 01be
000003b0: d54a db3c a530 6bbd 3057 3dbd fb05 1fbe
000003c0: 8541 9bbd 0412 b13b c00a 2ebe e7f3 763a
000003d0: 506a 92bc 9af8 27be c2f8 cb3d bb33 adbd
000003e0: b373 1ebe 60b6 0a3e 1afe 1cbe 9a6d 5ebe
000003f0: 3d1a 37be c26f 16be 53ca 573e 8754 3ebe

lstm.bias_ih_l0 f4 [80]
-0.17588097 -0.153669 0.030111479 -0.1791123 0.20855689 0.10600561 -0.06002152 -0.08192518
-0.17863724 -0.16894625 -0.049807254 -0.10130386 -0.008697855 0.089176446 0.055877015 -0.2148443
0.086558424 -0.03304361 0.15521239 -0.15769102 -0.09099753 -0.14154918 -0.10796645 0.22039032
-0.12400332 -0.03663487 0.21103294 -0.09551668 -0.03957828 0.14449422 -0.19895391 -0.006017114
0.14095566 -0.09509029 -0.11130445 -0.18513429 0.119827524 -0.1944114 0.05719793 0.10340974
0.12715025 -0.21347612 0.08842629 0.00032507 -0.13582438 -0.12353103 -0.02753187 -0.072704636
0.083753146 -0.12743722 0.012066455 0.07303359 -0.029601896 -0.070078135 0.09152732 0.0020318008
0.056604166 -0.056994837 0.122829124 0.06294963 0.20849207 -0.04118777 -0.058991395 0.043640576
0.13852327 -0.10376834 0.1835121 0.053106524 0.0010082634 -0.13711387 0.09706796 -0.115286246
-0.016996216 0.02728874 -0.031828366 -0.121477686 -0.0010263629 0.0826023 0.166261 -0.005174464
00000000: 241a 34be 685b 1dbe 59ac f63c 3769 37be
00000010: f08f 553e 7819 d93d 20d9 75bd 64c8 a7bd
00000020: aeec 36be 3f00 2dbe b102 4cbd 6678 cfbd
00000030: 7381 0ebc 24a2 b63d 4cdf 643d 2500 5cbe
00000040: 8b45 b13d bd58 07bd ffef 1e3e c179 21be
00000050: ea5c babd 45f2 10be 841d ddbd 00ae 613e
00000060: 74f5 fdbd 720e 16bd 0519 583e 409e c3bd
00000070: d61c 22bd 4bf6 133e 93ba 4bbe 362b c5bb
00000080: ae56 103e b3be c2bd 96f3 e3bd d893 3dbe
00000090: 2268 f53d c813 47be 6048 6a3d 7cc8 d33d
000000a0: ad33 023e 7c99 5abe d818 b53d 286e aa39
000000b0: 8c15 0bbe d6fd fcbd 848a e1bc 2be6 94bd
000000c0: c586 ab3d e77e 02be 61b2 453c a392 953d
000000d0: ad7f f2bc 2085 8fbd ad72 bb3d f627 053b
000000e0: c5d9 673d 6b73 69bd d68d fb3d bceb 803d
000000f0: f27e 553e 82b4 28bd f6a0 71bd 76c0 323d
00000100: 0bd9 0d3e 7f84 d4bd 99ea 3b3e 3a86 593d
00000110: b527 843a 9467 0cbe 91cb c63d 321b ecbd
00000120: a63b 8bbc a38c df3c 765e 02bd 4bc9 f8bd
00000130: 0687 86ba 652b a93d 5340 2a3e 8d8e a9bb

lstm.bias_hh_l0 f4 [80]
0.07106878 0.1868352 -0.07595813 0.14877155 0.134329 -0.028663099 -0.01447216 -0.08461302
-0.052182864 -0.04096002 -0.045859102 -0.024473013 0.08750946 -0.12094342 -0.21595514 -0.069048814
-0.13645397 -0.077549204 0.07851703 -0.21526568 0.15353972 -0.18860316 0.061871313 -0.13659008
0.016529577 -0.2006714 0.055347253 0.009097668 -0.07612644 -0.018551862 0.1214964 0.20003374
-0.008289059 0.116354056 0.19829935 -0.012638813 0.173929 0.22101758 0.18584907 0.13307825
-0.08732428 -0.019713476 -0.07519977 0.16639714 -0.08924852 0.118562266 -0.18209445 0.20645314
0.17400812 -0.084404916 -0.020928564 -0.13861284 -0.19267377 0.1918167 0.014579663 -0.10337616
0.07001688 -0.10774126 -0.12534185 0.12134921 -0.014223299 -0.09042056 -0.036734562 0.12945709
-0.10028283 0.057667874 0.056852598 0.010681942 -0.035833724 0.12069211 -0.16078669 -0.1677115
0.10304682 0.040090874 -0.040695406 -0.1027327 0.048558395 -0.0012659471 -0.007150341 0.14882445
00000000: 828c 913d ba51 3f3e f08f 9bbd 9257 183e
00000010: 8b8d 093e e0ce eabc a31c 6dbc 9749 adbd
00000020: b3bd 55bd b2c5 27bd c1d6 3bbd a17b c8bc
00000030: 2938 b33d 2fb1 f7bd 5823 5dbe 7769 8dbd
00000040: 97ba 0bbe 1ed2 9ebd 89cd a03d 9b6e 5cbe
00000050: 8439 1d3e 3021 41be c66c 7d3d 45de 0bbe
00000060: 0969 873c ce7c 4dbe cdb3 623d 630e 153c
00000070: 2ee8 9bbd 13fa 97bc 1bd3 f83d a5d5 4c3e
00000080: d5ce 07bc 094b ee3d fc0e 4b3e 0613 4fbc
00000090: 721a 323e 6f52 623e 384f 3e3e aa45 083e
000000a0: 12d7 b2bd 287e a1bc 5602 9abd 0364 2a3e
000000b0: eec7 b6bd c6d0 f23d f876 3abe 7468 533e
000000c0: 2f2f 323e 7cdc acbd 6172 abbc 86f0 0dbe
000000d0: 464c 45be 996b 443e 8adf 6e3c e1b6 d3bd
000000e0: 0365 8f3d 73a7 dcbd 9d59 00be ef85 f83d
000000f0: d708 69bc 6a2e b9bd fb76 16bd 6690 043e
00000100: 1661 cdbd 2635 6c3d 45de 683d 5003 2f3c
00000110: 62c6 12bd 6d2d f73d 44a5 24be 90bc 2bbe
00000120: 360a d33d 5436 243d 3ab0 26bd 8665 d2bd
00000130: 2be5 463d 23ee a5ba 684d eabb 7065 183e

net.0.weight f4 [128, 20]
-0.037802655 -0.13422838 0.18268226 0.16714402 0.16677761 -0.14286216 0.17921174 0.20337577
-0.17756866 -0.14435752 0.10464214 -0.15161543 0.011006548 -0.15186821 0.17148279 0.17653295
0.12611444 -0.002243095 -0.18444756 0.026977861 -0.11996642 -0.14177068 -0.06428136 0.19585928
0.0066593224 0.21773541 -0.18256393 0.19974619 0.080538675 0.06283812 -0.13470155 0.17388296
0.16976479 -0.19266179 0.17370778 0.04001963 0.04486246 0.102222905 0.0061490573 0.05225186
-0.13750783 -0.1607616 -0.2190541 -0.13571206 -0.18674994 -0.15211362 -0.114623696 0.13092563
0.17007034 0.028622024 0.12515558 -0.08130109 0.1541722 -0.12043803 -0.012135308 0.20610785
0.1850176 0.19302407 0.14547786 0.20798874 0.04266438 -0.11217095 -0.17675567 -0.07937064
-0.13620381 0.13434666 0.0020800284 -0.023453092 -0.13003139 -0.15941973 0.1445918 0.22106421
0.003727819 -0.058534 0.007481628 0.1551857 0.18386362 0.10649295 -0.2134792 0.09598362
0.026599642 -0.1973671 -0.119762816 0.020490047 0.07519917 0.19710568 0.05416521 0.08313141
-0.103047684 0.020412205 0.1904212 -0.07150752 0.1818337 -0.118464455 0.046814308 -0.08339781
0.059249077 -0.10582191 0.09484156 0.16837561 0.13607797 0.019797254 -0.095916115 -0.14776115
0.11329831 0.063708715 0.12538676 -0.046507236 -0.113361806 -0.006508397 0.0806211 0.15455821
-0.20030278 0.14174388 0.045941476 0.19678795 -0.15455419 0.050281238 0.17710708 -0.07737395
-0.12145455 -0.11239017 -0.18653521 0.16472785 -0.16524261 -0.050406445 -0.0071178223 -0.0023591453
0.19307488 -0.1262792 -0.1822419 -0.19065674 -0.07775258 0.19282655 0.0845914 -0.13745113
-0.05861283 0.018913174 -0.19435352 0.066789664 0.0030515457 -0.173853 -0.059444968 -0.22155721
-0.058111526 -0.07888324 0.13474078 -0.21442701 0.01457223 -0.1791983 -0.15088539 0.04568446
0.04532094 -0.09266435 0.020450933 0.21216808 0.045728125 -0.18043931 0.064972945 -0.15571745
0.10540853 -0.054865602 -0.027249256 0.008228061 -0.105338685 0.10206511 -0.07539984 -0.051982556
0.16672659 -0.11168447 0.173464 -0.006221535 0.18937643 -0.10911437 0.16018966 -0.20883459
-0.04745579 -0.17734712 0.18839782 0.07796485 0.06641674 -0.19186921 -0.08043665 0.092722915
-0.14105813 -0.020073215 0.0710297 0.18532129 -0.07134253 0.058413472 -0.17800397 -0.01383517
-0.1264044 -0.19710566 -0.07410674 -0.2089342 0.13701984 0.0073106643 0.0046547255 0.0215573
0.055987462 -0.083372235 0.12792398 -0.19652756 -0.21647434 -0.08583223 0.09771109 -0.107977174
0.10678385 0.00440535 -0.10766741 -0.06288839 -0.036831208 0.19262467 0.20906277 0.11857798
0.01991443 -0.1300779 -0.06774048 0.0003546855 0.18343846 -0.046474606 0.0122468695 0.16554607
-0.019939234 -0.03581946 -0.113260016 -0.05793258 -0.057253838 -0.10333613 0.09999034 -0.218066
-0.21046926 0.09360313 -0.0645063 -0.19964124 -0.03833366 0.18676624 -0.04975144 0.042233806
-0.22137827 0.1433572 -0.19954875 -0.10525527 0.20074461 0.12040816 0.19534777 -0.13253854
0.12375428 0.20278198 -0.013081371 -0.029134441 0.10889799 0.21706486 -0.0042074057 0.09645785
00000000: f5d6 1abd 2a73 09be 0f11 3b3e cd27 2b3e
00000010: c0c7 2a3e 754a 12be 4883 373e bd41 503e
00000020: 8fd4 35be 75d2 13be 9e4e d63d 1341 1bbe
00000030: cf54 343c 5783 1bbe 2f99 2f3e 0ec5 343e
00000040: 2524 013e e400 13bb d2df 3cbe ad00 dd3c
00000050: f4b0 f5bd 552c 11be f2a5 83bd 568f 483e
00000060: 7236 da3b 08f6 5e3e 0af2 3abe 448a 4c3e
00000070: 76f1 a43d 46b1 803d 34ef 09be 600e 323e
00000080: d2d6 2d3e 2249 45be 74e0 313e a0eb 233d
00000090: b3c1 373d 3e5a d13d 087e c93b 0c06 563d
000000a0: dace 0cbe b09e 24be b84f 60be 1af8 0abe
000000b0: 603b 3fbe acc3 1bbe d4bf eabd 5e11 063e
000000c0: eb26 2e3e bc78 ea3c c928 003e 3081 a6bd
000000d0: 51df 1d3e 37a8 f6bd 2cd3 46bc f00d 533e
000000e0: 4175 3d3e 1aa8 453e 26f8 143e 00fb 543e
000000f0: d8c0 2e3d e2b9 e5bd 70ff 34be 138d a2bd
00000100: 0379 0bbe 2c92 093e 1651 083b b320 c0bc
00000110: f326 05be ed3e 23be df0f 143e a85e 623e
00000120: 6d4e 743b 59c1 6fbd 7228 f53b 00e9 1e3e
00000130: bf46 3c3e fa18 da3d 4b9a 5abe 0f93 c43d
00000140: 7ee7 d93c 9a1a 4abe 3546 f5bd beda a73c
00000150: 0602 9a3d 12d6 493e 57dc 5d3d cd40 aa3d
00000160: aa0a d3bd 7f37 a73c c6fd 423e 8972 92bd
00000170: 9d32 3a3e 7e9d f2bd 5cc0 3f3d 79cc aabd
00000180: 29af 723d 28b9 d8bd 4b3c c23d a86a 2c3e
00000190: 0658 0b3e da2d a23c ab6f c4bd b34e 17be
000001a0: f208 e83d b779 823d 6365 003e 5f7e 3ebd
000001b0: 3c2a e8bd 6444 d5bb ad1c a53d 8244 1e3e
000001c0: 2c1c 4dbe 4f25 113e 212d 3c3d c882 493e
000001d0: 7443 1ebe b3f3 4d3d 8f5b 353e 3c76 9ebd
000001e0: 2abd f8bd d12c e6bd 1603 3fbe 6bae 283e
000001f0: 5c35 29be fd76 4ebd 9f3c e9bb e49b 1abb
00000200: 6cb5 453e 564f 01be 9f9d 3abe 853b 43be
00000210: bf3c 9fbd 5374 453e 423e ad3d fdbf 0cbe
00000220: 0214 70bd cdef 9a3c 9c04 47be 05c9 883d
00000230: 71fc 473b 8506 32be 917c 73bd e5df 62be
00000240: 5a06 6ebd 898d a1bd 7df9 093e c192 5bbe
00000250: 5dc0 6e3c c27f 37be b381 1abe a11f 3b3d
00000260: 73a2 393d cfc6 bdbd b788 a73c 9742 593e
00000270: 6a4d 3b3d 15c5 38be 8910 853d 6574 1fbe
00000280: 6de0 d73d c1ba 60bd d539 dfbc fdce 063c
00000290: cfbb d7bd 8307 d13d 3b6b 9abd a9eb 54bd
000002a0: 60ba 2a3e d4ba e4bd 8ca0 313e 05de cbbb
000002b0: e5eb 413e 5b77 dfbd c208 243e bcd8 55be
000002c0: 0161 42bd 7c9a 35be 5ceb 403e 09ac 9f3d
000002d0: 8005 883d 5d79 44be f8bb a4bd 83e5 bd3d
000002e0: 8b71 10be 9570 a4bc 0578 913d ddc4 3d3e
000002f0: 081c 92bd f742 6f3d ac46 36be e9ac 62bc
00000300: 2870 01be 11d6 49be 46c5 97bd d9f2 55be
00000310: ee4e 0c3e 4c8e ef3b ab86 983b ef98 b03c
00000320: 1c53 653d 10bf aabd 81fe 023e 853e 49be
00000330: 73ab 5dbe cfc8 afbd c11c c83d 2323 ddbd
00000340: 7eb1 da3d c15a 903b bb80 dcbd a1cb 80bd
00000350: 52dc 16bd 673f 453e 8d14 563e 03d9 f23d
00000360: 9623 a33c 2433 05be 85bb 8abd 15f5 b939
00000370: 4bd7 3b3e 285c 3ebd 18a7 483c e984 293e
00000380: 9b57 a3bc 6db7 12bd def4 e7bd b74a 6dbd
00000390: 0083 6abd e5a1 d3bd bcc7 cc3d b24c 5fbe
000003a0: 4185 57be ffb2 bf3d e11b 84bd c16e 4cbe
000003b0: c203 1dbd a63f 3f3e 2ac8 4bbd 5bfd 2c3d
000003c0: fcb0 62be 3bcc 123e 8256 4cbe 1390 d7bd
000003d0: ff8f 4d3e 8e98 f63d 3f09 483e 2fb8 07be
000003e0: e272 fd3d 14a6 4f3e 3f53 56bc 5aab eebc
000003f0: e905 df3d 4046 5e3e 47de 89bb b18b c53d

net.0.bias f4 [128]
0.14822866 0.13808307 -0.22200124 0.095253505 -0.023500038 -0.14661466 -0.12716718 0.063904196
-0.21766089 0.11943945 -0.0016500559 -0.044728152 0.0031813656 -0.12678446 -0.14934213 0.15840386
-0.08482643 -0.13029954 -0.10273585 0.022476383 -0.100971445 -0.0050793136 0.16618459 -0.116337314
-0.1638228 -0.17528093 0.0024203407 -0.008265517 0.15481862 0.1690183 -0.17723724 0.030154204
0.004216333 0.12383267 -0.20578262 -0.017310025 0.008812278 0.19984862 0.100771435 -0.0358091
0.18848352 0.050614536 -0.0019518257 -0.021193502 0.18336225 -0.05339768 0.06707251 0.07121222
-0.16984801 0.16989394 -0.055269536 0.052521244 -0.10415887 -0.18774313 0.11847505 -0.2014314
-0.17435771 -0.09690442 -0.13350865 -0.13718358 0.18935792 -0.15385596 0.04803876 0.036722984
0.14936285 -0.18917058 0.067593925 -0.108090445 -0.13208695 -0.0039039673 -0.109431125 -0.13325407
0.16435173 0.08721163 0.10897073 -0.047582246 0.13185367 0.11296629 0.08070376 0.057097103
-0.087643184 -0.0011984067 0.1238347 -0.20019272 -0.02422522 0.10126659 0.12156426 -0.005379509
0.12081698 0.040224086 0.054953936 0.06569558 0.21953434 -0.19572751 -0.05946599 0.015124277
0.18008699 -0.10251932 -0.03228664 -0.20049515 -0.066757195 -0.1378736 0.15105666 -0.0686358
-0.033236895 -0.15050445 0.2141698 0.17003003 0.027583724 0.194086 -0.052498862 -0.02682912
-0.060557086 -0.1595032 0.0013343848 -0.0072038868 -0.061075076 -0.17706573 0.21075825 -0.19616577
-0.012265362 -0.042080153 -0.18276823 0.094137795 -0.06650904 -0.18193983 0.03733207 -0.07445826
00000000: 41c9 173e a665 0d3e 4b54 63be 4514 c33d
00000010: 2783 c0bc 2722 16be 1d38 02be 34e0 823d
00000020: 7fe2 5ebe ac9c f43d b046 d8ba de34 37bd
00000030: 757e 503b c9d3 01be 25ed 18be 9f34 223e
00000040: 7bb9 adbd 3e6d 05be 2c67 d2bd 6420 b83c
00000050: 1eca cebd 5f70 a6bb 4b2c 2a3e 4242 eebd
00000060: 2ac1 27be d87c 33be 949e 1e3b 176c 07bc
00000070: c688 1e3e 2213 2d3e ae7d 35be f305 f73c
00000080: 2a29 8a3b fc9b fd3d aeb8 52be c1cd 8dbc
00000090: 5f61 103c 1ea5 4c3e 4161 ce3d 90ac 12bd
000000a0: d301 413e 3051 4f3d 67d4 ffba ff9d adbc
000000b0: 50c3 3b3e 87b7 5abd 505d 893d b6d7 913d
000000c0: a3ec 2dbe adf8 2d3e 4f62 62bd 8420 573d
000000d0: 3f51 d5bd bc3f 40be 0ca3 f23d 0844 4ebe
000000e0: d48a 32be d375 c6bd 7eb6 08be da79 0cbe
000000f0: 0be7 413e 6b8c 1dbe 4ac4 443d d76a 163d
00000100: 93f2 183e efb5 41be af6e 8a3d 865e ddbd
00000110: cd41 07be b4d9 7fbb 6d1d e0bd c173 08be
00000120: d24b 283e 039c b23d 0c2c df3d 9ae5 42bd
00000130: a604 073e df5a e73d 0348 a53d a7de 693d
00000140: 457e b3bd db13 9dba 0c9d fd3d 52ff 4cbe
00000150: f873 c6bc dc64 cf3d aff6 f83d 9846 b0bb
00000160: e56e f73d 03c2 243d 6117 613d 678b 863d
00000170: 9ccd 603e cb6c 48be 9c92 73bd d1cb 773c
00000180: b968 383e a6f5 d1bd ff3e 04bd 9a4e 4dbe
00000190: ffb7 88bd bd2e 0dbe 99ae 1a3e ed90 8cbd
000001a0: 6923 08bd d71d 1abe 544f 5b3e 5a1c 2e3e
000001b0: 43f7 e13c 7bbe 463e 0c09 57bd bec8 dbbc
000001c0: b50a 78bd cf54 23be 86e6 ae3a 950e ecbb
000001d0: dc29 7abd b850 35be 03d1 573e aedf 48be
000001e0: a8f4 48bc 3d5c 2cbd 9827 3bbe 51cb c03d
000001f0: e435 88bd 6f4e 3abe 83e9 183d 927d 98bd

net.2.weight f4 [64, 128]
-0.077834785 -0.026854781 0.01795109 -0.023698498 -0.017164504 0.02172296 0.05504157 0.015971791
0.0067221695 -0.05676683 -0.07299485 -0.044156473 -0.005965802 -0.03377871 0.014320372 -0.020377347
-0.013173334 0.053644475 -0.0788704 0.04823551 -0.021143103 0.036093105 -0.019364137 -0.05944106
-0.0296849 -0.00057010987 -0.014234065 -0.045836173 0.014929161 0.010661446 -0.0195069 0.050677013
0.04450767 0.07955884 -0.071455166 -0.08765276 -0.0071107107 0.03526058 -0.053763058 -0.0728807
-0.030741384 0.038650777 0.07949962 -0.061663967 0.00014328875 -0.038604785 0.05242366 0.0022220134
-0.02759373 0.024112739 0.082724534 -0.0024026444 0.041111667 0.048477788 0.061103024 -0.028655242
-0.039178774 0.012045053 0.040307928 -0.040793978 0.029700883 0.06143925 -0.06407959 0.04189464
-0.04709039 0.08003401 -0.04190302 0.03149813 0.05325647 0.043387473 -0.039769944 0.03281009
0.015260804 -0.06341854 0.06746028 -0.014087626 -0.050500594 -0.06631746 -0.0376305 -0.0063485163
-0.061720517 0.036821067 0.08705408 0.02229406 0.045712598 0.0044620023 -0.045673758 0.007757043
0.08617629 0.0418363 -0.0301323 -0.009711751 0.0029552106 -0.0817486 0.07469631 0.063293375
0.076640606 -0.021709483 0.020922938 0.038159028 -0.03388008 0.027705304 -0.046296626 -0.08449684
0.03850146 -0.037480403 0.059151553 -0.0703441 -0.047316276 3.37807e-05 -0.021586645 -0.085135356
-0.061984863 0.01621797 -0.013873352 -0.05685795 -0.035685737 -0.07563551 -0.025171552 -0.0054748016
0.08568796 0.07610633 0.07183923 0.07180697 -0.024931535 -0.073710665 -0.06918442 -0.082705416
-0.06822917 -0.08179671 -0.00042502186 -0.026841503 0.031517167 0.06359169 -0.078090385 0.048221145
-0.046408672 -0.032355785 -0.07671437 -0.047115818 0.08118809 0.059284758 -0.06881664 0.021859575
0.003036986 -0.06124958 0.027117306 -0.08486626 0.067239225 -0.059560638 0.030804075 0.082089394
-0.011403044 0.05915322 0.042377107 -0.08034921 0.07638886 0.07134923 0.07649897 0.04408461
0.00010715632 0.069699235 0.060524456 -0.057134088 0.06798886 0.039304588 -0.047938712 -0.037689824
0.06392461 -0.05474769 0.076503664 -0.0521512 0.073543824 0.05541076 -0.033106208 -0.036729492
-0.021510448 0.07465677 -0.047284774 0.021099383 -0.043169647 -0.055590276 0.0035211646 0.07286251
0.05951934 -0.04934294 0.06542652 0.032414455 -0.015350089 -0.016459066 -0.07097363 0.028613988
0.0275664 0.028606102 -0.0073071285 0.006865037 -0.07191279 -0.049498025 -0.079141386 -0.05917791
-0.0049524102 -0.08712899 0.0070180073 0.010717997 -0.03204211 -0.028516136 -0.010712203 -0.014431904
0.009461529 -0.015407421 -0.07448358 0.058119096 0.07983906 -0.0049965964 -0.0017069792 -0.000118876764
-0.010481483 0.054040197 -0.039825354 0.029993325 0.06310636 0.057069108 -0.034326278 -0.025960593
0.069652244 0.08095798 0.060031068 -0.06300731 0.08116974 0.039815467 0.08883309 -0.07790207
-0.039652243 0.06712752 0.063952 -0.021897506 -0.065298714 -0.006865077 0.07575479 0.067195155
0.061476626 0.07626617 0.05071168 0.083960176 0.029219346 -0.048393928 -0.074811 -0.07375964
0.06470194 -0.072455704 0.06467546 0.046642065 -0.07283394 -0.08448207 -0.0072812247 0.05988698
00000000: d867 9fbd 8ffe dbbc 2a0e 933c 5a23 c2bc
00000010: 939c 8cbc 59f4 b13c 4573 613d 46d7 823c
00000020: a545 dc3b 5684 68bd 537e 95bd 6bdd 34bd
00000030: c67c c3bb 8b5b 0abd fe9f 6a3c 65ee a6bc
00000040: f8d4 57bc 4fba 5b3d ce86 a1bd 9992 453d
00000050: 4d34 adbc 5dd6 133d 8aa1 9ebc 7878 73bd
00000060: bf2d f3bc 6d73 15ba ff35 69bc b6be 3bbd
00000070: 7199 743c 58ad 2e3c efcc 9fbc b392 4f3d
00000080: ad4d 363d bfef a23d 1657 92bd 4a83 b3bd
00000090: f700 e9bb 666d 103d a736 5cbd 7a42 95bd
000000a0: 5bd5 fbbc 4750 1e3d b2d0 a23d 5b93 7cbd
000000b0: c83f 1639 0d20 1ebd 31ba 563d 339f 113b
000000c0: 3f0c e2bc 1488 c53c 7b6b a93d af75 1dbb
000000d0: b564 283d a590 463d 2a47 7a3d 66be eabc
000000e0: ec79 20bd 9d58 453c ed19 253d 9617 27bd
000000f0: 444f f33c b9a7 7b3d 293c 83bd b799 2b3d
00000100: dae1 40bd dfe8 a33d 80a2 2bbd 2f04 013d
00000110: 7523 5a3d 10b7 313d cfe5 22bd df63 063d
00000120: 7408 7a3c 94e1 81bd 9e28 8a3d c9cf 66bc
00000130: b6d9 4ebd 73d1 87bd 7022 1abd 3707 d0bb
00000140: a7ce 7cbd b0d1 163d 6949 b23d 08a2 b63c
00000150: 223d 3b3d fd35 923b 6814 3bbd cb2e fe3b
00000160: 327d b03d 8a5c 2b3d 03d8 f6bc 091e 1fbc
00000170: 35ac 413b cf6b a7bd 61fa 983d f59f 813d
00000180: c0f5 9c3d 16d8 b1bc 9566 ab3c a44c 1c3d
00000190: d7c5 0abd 3cf6 e23c 88a1 3dbd ae0c adbd
000001a0: b5b3 1d3d 0d85 19bd e648 723d 9110 90bd
000001b0: b6ce 41bd c0af 0d38 7ad6 b0bc 725b aebd
000001c0: d7e3 7dbd 8cdb 843c 0e4d 63bc e2e3 68bd
000001d0: 352b 12bd cae6 9abd 9234 cebc f765 b3bb
000001e0: 2b7d af3d a3dd 9b3d 7220 933d 880f 933d
000001f0: 383d ccbc 9ef5 96bd 90b0 8dbd 7561 a9bd
00000200: bcbb 8bbd 0985 a7bd 78d5 deb9 b6e2 dbbc
00000210: 2518 013d 5c3c 823d daed 9fbd 8983 453d
00000220: 0517 3ebd 8087 04bd 6c1c 9dbd 84fc 40bd
00000230: f145 a63d 93d4 723d bdef 8cbd da12 b33c
00000240: 2c08 473b d7e0 7abd 1d25 de3c 5dce adbd
00000250: b8b4 893d dbf5 73bd d458 fc3c 7c1e a83d
00000260: d5d3 3abc a64a 723d 9e93 2d3d 208e a4bd
00000270: c371 9c3d 8c1f 923d 7eab 9c3d 1092 343d
00000280: 1cb9 e038 79be 8e3d 7ee8 773d 6f05 6abd
00000290: be3d 8b3d d9fd 203d 625b 44bd a560 1abd
000002a0: e8ea 823d 1d3f 60bd f4ad 9c3d 7f9c 55bd
000002b0: 259e 963d 65f6 623d 609a 07bd aa71 16bd
000002c0: ae36 b0bc a6e5 983d aead 41bd 9dd8 ac3c
000002d0: a8d2 30bd a1b2 63bd 57c3 663b f138 953d
000002e0: 8dca 733d d31b 4abd 57fe 853d 05c5 043d
000002f0: f17e 7bbc 2ad5 86bc 9f5a 91bd e267 ea3c
00000300: eed2 e13c 5857 ea3c a370 efbb 1bf4 e03b
00000310: 0347 93bd 71be 4abd e114 a2bd 8964 72bd
00000320: d447 a2bb af70 b2bd 50f7 e53b 8a9a 2f3c
00000330: 963e 03bd ac9a e9bc 3c82 2fbc cb73 6cbc
00000340: 8704 1b3c 686f 7cbc d98a 98bd 4a0e 6e3d
00000350: a982 a33d 7dba a3bb b8bc dfba 7a4d f9b8
00000360: 87ba 2bbc 4159 5d3d e91f 23bd 90b4 f53c
00000370: e83d 813d 4cc1 693d b699 0cbd 4fab d4bc
00000380: d6a5 8e3d 4ccd a53d 23e3 753d fa09 81bd
00000390: 523c a63d 8b15 233d 20ee b53d 1f8b 9fbd
000003a0: 646a 22bd 277a 893d 44f9 823d 6662 b3bc
000003b0: 55bb 85bd 71f4 e0bb 5425 9b3d 9d9d 893d
000003c0: eace 7b3d 7031 9c3d 0db7 4f3d 50f3 ab3d
000003d0: 695d ef3c b638 46bd 8236 99bd 4b0f 97bd
000003e0: 7382 843d a863 94bd 9174 843d c00b 3f3d
000003f0: f629 95bd ef04 adbd 5797 eebb 0d4c 753d

net.2.bias f4 [64]
-0.07428151 -0.027560303 0.023631271 -0.002526735 -0.021214873 -0.048186373 -0.008657617 0.05724058
-0.041092716 -0.033601213 0.07862015 -0.06294194 -0.06532802 -0.049806572 -0.012500163 0.07616225
0.01933035 -0.04678334 -0.044997204 0.027967025 -0.008135422 -0.034748707 -0.024416002 0.029932922
-0.06611162 0.022506852 0.027007379 -0.048380915 -0.0658722 -0.07734873 -0.040011812 -0.040601507
0.055219777 -0.054018296 -0.038262874 -0.05968598 -0.07062635 0.036399845 -0.010288862 0.05239782
0.058388162 0.046928685 0.07718783 -0.0680738 -0.045431104 0.043786213 -0.03877134 -0.00796225
0.067998625 0.047635138 -0.036166627 0.018803595 -0.04875674 0.01502133 0.06913877 -0.071996555
-0.0143987695 0.08057592 -0.06471761 0.038317803 0.017996887 -0.043155413 -0.07136747 0.06961644
00000000: e820 98bd 25c6 e1bc 5e96 c13c 9497 25bb
00000010: d0ca adbc 135f 45bd add8 0dbc 1975 6a3d
00000020: d650 28bd 6da1 09bd 9a03 a13d b4e7 80bd
00000030: b2ca 85bd fa01 4cbd 7ccd 4cbc f4fa 9b3d
00000040: af5a 9e3c e39f 3fbd fd4e 38bd 1a1b e53c
00000050: 6f4a 05bc a954 0ebd 1104 c8bc e335 f53c
00000060: 8765 87bd 4a60 b83c 943e dd3c 112b 46bd
00000070: 01e8 86bd 0369 9ebd 6de3 23bd c44d 26bd
00000080: 222e 623d 4a42 5dbd 88b9 1cbd 4979 74bd
00000090: 8ca4 90bd 0118 153d 9d92 28bc 199f 563d
000000a0: 6d28 6f3d 4b38 403d a714 9e3d 476a 8bbd
000000b0: f715 3abd 2c59 333d b2ce 1ebd 1974 02bc
000000c0: dd42 8b3d 101d 433d 7523 14bd ff09 9a3c
000000d0: 26b5 47bd 061c 763c a198 8d3d ee72 93bd
000000e0: d1e8 6bbc fd04 a53d ab8a 84bd 21f3 1c3d
000000f0: 356e 933c bbc3 30bd 1c29 92bd 1093 8e3d

net.4.weight f4 [3, 64]
-0.12426761 0.058279376 -0.00062997313 0.040733684 -0.12035642 0.056116533 0.07823039 0.02025084
-0.07605257 0.0892765 0.062875785 -0.018712483 0.050326083 0.011966794 0.0371286 -0.08456294
-0.08631298 -0.09284872 0.05173027 -0.033999175 0.073740035 -0.0153343575 -0.0028601973 0.09276185
0.009631952 -0.108753525 -0.04616693 0.08610727 -0.026715888 0.014446474 0.100037634 -0.0029066224
-0.0941804 -0.02243705 -0.023178332 -0.05619504 -0.054440673 -0.06206854 0.017356088 0.049058817
0.033524632 0.011267885 0.04849781 -0.08171204 -0.048026055 -0.06751988 -0.10660996 0.10080668
0.1124502 0.1121886 -0.06403156 0.0070357104 -0.08281034 0.04863309 -0.024112312 0.054518558
0.11349092 0.02599405 -0.05665558 0.038547345 -0.013946845 0.08156593 -0.022214206 -0.08106734
-0.107917786 0.024684787 -0.016468927 0.07071829 0.023049116 -0.044585183 -0.019913986 -0.08480373
0.0036580265 -0.027842745 -0.12003307 0.037042946 -0.01126647 -0.09914431 -0.048440278 -0.018140838
0.059841707 -0.011206135 -0.06578517 0.050012663 0.12411949 0.10786179 0.01791294 -0.07881026
0.0031528026 -0.096953824 -0.09746261 -0.1130739 -0.014792621 -0.02958022 0.099566475 0.018155903
-0.042731687 -0.06383577 -0.0151375085 -0.11364317 -0.02989319 -0.115851894 -0.086408004 0.07183759
0.08226 -0.008941948 -0.07164168 0.047861665 -0.04985276 -0.026684478 0.06750856 0.047891006
-0.020868108 0.046489283 -0.08914395 -0.07374793 -0.076491416 -0.057982042 -0.11651021 0.121874556
-0.11024514 0.07984127 0.03588274 -0.0926138 -0.09887409 -0.04988578 -0.10249603 -0.06537674
-0.016121358 0.014233566 0.03777028 0.012038256 -0.08620776 -0.0010670832 0.018712824 -0.090722784
0.10978164 -0.1086597 -0.018323302 -0.117012314 0.04022477 0.008227528 -0.05545813 -0.046994656
0.008623944 0.09179846 -0.00655385 0.09172061 -0.0021613766 0.08007898 0.015901417 0.10768709
-0.0912817 0.087808356 0.04025068 0.017062426 0.040110495 -0.045948308 0.10039052 -0.05988266
0.021790106 -0.04148264 0.06036599 -0.009235766 -0.09599807 -0.0005028217 -0.08062401 0.09148037
0.12131579 0.00907782 0.10681613 -0.052579366 0.0491258 -0.08527273 0.0043325517 0.1179698
-0.047213115 -0.09134932 -0.0071313106 -0.053319078 -0.066517584 0.03606001 0.06368915 0.107588165
0.035603695 -0.058441646 -0.118208714 0.00030102878 -0.10155223 -0.07033841 0.060968976 -0.0006574277
00000000: 0480 febd 5bb6 6e3d c824 25ba 5dd8 263d
00000010: 6d7d f6bd 73da 653d 4137 a03d 17e5 a53c
00000020: 73c1 9bbd 99d6 b63d 05c5 803d ec4a 99bc
00000030: b922 4e3d 5f10 443c 2914 183d 562f adbd
00000040: dcc4 b0bd 7827 bebd 1fe3 533d b842 0bbd
00000050: 0405 973d f53c 7bbc 2672 3bbb edf9 bd3d
00000060: 56cf 1d3c 2bba debd 8919 3dbd 0259 b03d
00000070: 47db dabc e7b0 6c3c 88e0 cc3d 087d 3ebb
00000080: a7e1 c0bd e7cd b7bc 7ce0 bdbc c52c 66bd
00000090: 2ffd 5ebd 953b 7ebd 5b2e 8e3c e6f1 483d
000000a0: 2051 093d ef9c 383c a4a5 463d a458 a7bd
000000b0: f8b6 44bd dd47 8abd 5356 dabd bc73 ce3d
000000c0: 4a4c e63d 23c3 e53d fb22 83bd d18b e63b
000000d0: 7898 a9bd 7e33 473d 2f87 c5bc da4e 5f3d
000000e0: ed6d e83d 79f1 d43c ae0f 68bd d2e3 1d3d
000000f0: 4f81 64bc 0a0c a73d 91fa b5bc a206 a6bd
00000100: 0004 ddbd c037 ca3c d8e9 86bc c0d4 903d
00000110: 80d1 bc3c f49e 36bd a822 a3bc 94ad adbd
00000120: 80bb 6f3b 7816 e4bc e6d3 f5bd 58ba 173d
00000130: 0097 38bc 2c0c cbbd 5069 46bd 189c 94bc
00000140: 941c 753d f099 37bc 60ba 86bd 14da 4c3d
00000150: 5c32 fe3d a4e6 dc3d 28be 923c 4667 a1bd
00000160: 409f 4e3b ba8f c6bd 7a9a c7bd 4a93 e7bd
00000170: c05c 72bc 3852 f2bc 82e9 cb3d b0bb 943c
00000180: 6c07 2fbd 54bc 82bd 5003 78bc c0bd e8bd
00000190: 90e2 f4bc c243 edbd aef6 b0bd 961f 933d
000001a0: ee77 a83d 4081 12bc e0b8 92bd 980a 443d
000001b0: 6832 4cbd 6899 dabc ee41 8a3d 5c29 443d
000001c0: 98f3 aabc 8c6b 3e3d 1a91 b6bd 2809 97bd
000001d0: 88a7 9cbd 947e 6dbd e89c eebd 5e99 f93d
000001e0: 34c8 e1bd d283 a33d c8f9 123d 4eac bdbd
000001f0: 807e cabd 0855 4cbd 70e9 d1bd 3ee4 85bd
00000200: f010 84bc e733 693c 02b5 1a3d 1b3c 453c
00000210: b28d b0bd 5fdd 8bba a34b 993c decc b9bd
00000220: 32d5 e03d fa88 debd c01a 96bc 27a4 efbd
00000230: bac2 243d c1cc 063c 1028 63bd 787d 40bd
00000240: 714b 0d3c d500 bc3d aec1 d6bb 04d8 bb3d
00000250: e2a5 0dbb 7300 a43d b043 823c 0d8b dc3d
00000260: e6f1 babd ded4 b33d e6dd 243d 80c6 8b3c
00000270: e74a 243d 4b34 3cbd 8c99 cd3d 8547 75bd
00000280: 2a81 b23c b3e9 29bd 5442 773d 9c51 17bc
00000290: a39a c4bd cbcf 03ba 331e a5bd 0f5a bb3d
000002a0: 6a74 f83d 23bb 143c 6ac2 da3d 765d 57bd
000002b0: 2338 493d 78a3 aebd 14f8 8d3b 279a f13d
000002c0: 8a62 41bd 5a15 bbbd c5ad e9bb 1b65 5abd
000002d0: 5f3a 88bd a9b3 133d 756f 823d 2f57 dc3d
000002e0: 2ed5 113d 8260 6fbd 6917 f2bd 66d3 9d39
000002f0: 9efa cfbd 960d 90bd 9bba 793d 3a57 2cba

net.4.bias f4 [3]
0.10565951 -0.110727265 -0.035495255
00000000: 0364 d83d fac4 e2bd 7963 11bd
