uniform/00_uniformtest/model_ep0.pth (torch, 61274 bytes, 10 tensors)

lstm.weight_ih_l0 f4 [80, 20]
000000 90 17 53 be e2 f7 8a bd c0 5f ef 3d 66 8e 00 3e
       -0.20614457 -0.06785561 0.11688185 0.1255432
000010 30 18 97 bd 3c 3e 5b 3e 1f 8f 91 bc cf a7 24 bd
       -0.0737766 0.2141046 -0.01776844 -0.040199097
000020 f4 65 4b be 31 b1 bd 3d 69 c5 70 3d 6e 76 38 3e
       -0.19863111 0.09262312 0.058782015 0.18013927
000030 70 90 13 bd 41 78 5a 3d e3 f9 43 be d0 fc 10 3e
       -0.03602642 0.05333734 -0.19138293 0.1415894
000040 9b 86 9e 3d 1a 06 0e be 58 07 95 bb 35 82 a8 3d
       0.07740518 -0.13869515 -0.0045479946 0.0822796
000050 37 7b 78 3c 1c 14 a8 3d 8e 9c 75 3c e2 f1 3c be
       0.015166095 0.082069606 0.014990939 -0.18451646
000060 2d c6 c9 3d 1e 0f ae bd 21 c8 35 be cd 1a 88 bc
       0.09852252 -0.08498977 -0.17752124 -0.016614342
000070 70 8e 18 3d f9 5f 6e 3d e5 2f 44 3e 3f 0a 50 be
       0.037245214 0.058196995 0.19158895 -0.20316409
000080 fb a9 32 3e 4e 04 57 be 75 84 64 3b 6e 78 08 3e
       0.17447655 -0.20997736 0.003486899 0.1332719
000090 1a 33 db bd 43 02 a7 bd 8b f0 42 3e 80 aa 11 3e
       -0.10703106 -0.08154728 0.19037072 0.14225197
0000a0 93 03 41 3e ec f7 e5 3d e4 99 e1 bc cc 12 4e 3d
       0.1884902 0.11228928 -0.027539201 0.050310895
0000b0 32 fd b1 3d bc 96 f9 3d 2a 28 90 3d 8d f5 c8 3c
       0.08690871 0.121869534 0.07038911 0.02453115
0000c0 be cf 50 be 13 53 48 3d 38 f5 46 3e 07 6b 8c 3b
       -0.20391747 0.04890735 0.19429481 0.0042852196
0000d0 fd fb 9f bc 85 68 5c be 60 f2 b6 3d f0 15 17 be
       -0.019529337 -0.21524246 0.08932948 -0.14754462
0000e0 27 df 34 be ad c3 28 3e 57 43 47 be 5f 37 bf 3d
       -0.17663251 0.16480894 -0.19459282 0.09336733
0000f0 43 f0 4d 3e 5c 42 a3 bd 0d 75 bc 3d 90 8f bc bd
       0.20111184 -0.079716414 0.09202013 -0.0920707
000100 e4 4a 07 be 14 76 4b 3e 49 d7 ca bd 2d 17 20 3e
       -0.13212162 0.19869262 -0.09904344 0.15633841
000110 de 7c be 3d 5c 30 8b 3c eb b9 92 3c 16 d4 03 be
       0.0930116 0.016990833 0.017910918 -0.12873873
000120 ad db 00 3e dd 3b ba 3d a9 e8 88 3d 74 01 25 be
       0.125838 0.09093449 0.066850014 -0.16113836
000130 9b b9 51 be 46 ba db bd ff 70 60 bd d7 f8 06 3c
       -0.20480959 -0.10728888 -0.05479526 0.008238039
000140 c6 7c b1 bd a1 9e 0d be 6e c5 e4 3d fa 6a ea 3c
       -0.08666377 -0.13830043 0.11170469 0.028615464
000150 dc e1 17 3e 00 ba b0 bd c9 2b 4e 3d 65 f5 37 be
       0.14832252 -0.08629227 0.050334726 -0.17964704
000160 37 48 2f be a9 cb 5c bd 43 f4 55 3c 11 88 00 3e
       -0.17117392 -0.053905163 0.013058725 0.12551905
000170 8d 2f f9 3c ac e1 db 3d 2c 5f 0a be fb b6 ce bd
       0.030418182 0.10736403 -0.13512868 -0.100934945
000180 3f 8f 27 3d e3 70 24 3d 9d 6a d2 3d 3b 89 b2 3d
       0.040908094 0.04014672 0.10274241 0.08717581
000190 ee 2e 57 bd b5 db ed 3c 72 d5 51 be fb 53 fe bd
       -0.05253499 0.029035429 -0.20491579 -0.12418362
0001a0 c0 93 63 3e 06 71 aa bd fc a5 3f be 55 fa 0b be
       0.22224331 -0.08322339 -0.18715662 -0.13669713
0001b0 57 76 3a 3e 79 a7 08 3e 12 9b 3f 3e b6 ef 77 bd
       0.18209206 0.13345136 0.18711498 -0.06053134
0001c0 8d 96 52 be 2d 3f 8e 3d 87 8d fc bd 2d a2 3b 3d
       -0.20565243 0.069456436 -0.12331682 0.04580896
0001d0 0c 2a 69 3d 8a 24 a4 3d ca 71 48 bd 74 70 0e bd
       0.056924865 0.08014782 -0.048936643 -0.034775212
0001e0 92 55 2f 3d bf 11 d5 3d 63 0b 40 3e ce 2c 27 be
       0.042806216 0.104037754 0.18754344 -0.16325685
0001f0 77 2d 31 be 53 cd 89 3d f9 b7 3c be e3 3d 17 3e
       -0.173025 0.067286156 -0.18429555 0.14769702
000200 e2 32 fc 3c 04 3f 05 be 46 bc 27 be 2b 42 e3 3d
       0.030785982 -0.1301232 -0.16380414 0.11096605
000210 f1 10 58 bd 88 b6 42 be b6 90 8e bc 76 08 2f be
       -0.05275053 -0.19014943 -0.017402988 -0.17093071
000220 e9 dc 53 3e c3 c0 a8 3d 61 37 2d bd c6 10 35 be
       0.2068974 0.082398914 -0.04228914 -0.1768218
000230 47 ec 69 3d d2 8a 41 be ce 90 55 be ee 1c 02 3e
       0.057110097 -0.18900612 -0.2085602 0.12706348
000240 c2 4d 4a 3e 0b 50 70 bc fa 76 13 3e c8 03 4f be
       0.19756225 -0.014667521 0.14400855 -0.20216286
000250 5b 61 35 be bf 71 fd bd d6 fc cb 3d 46 f8 20 3e
       -0.1771292 -0.12375211 0.09960334 0.15719709
000260 cc 17 90 bd 2d f8 46 3c 1a e8 36 3d 5f 89 23 be
       -0.07035789 0.012144131 0.044654943 -0.15970372
000270 de a6 28 3e 76 de ec 3d 05 0f 07 be c4 98 ee 3c
       0.16469905 0.115658686 -0.13189323 0.029125579
000280 50 32 cf bd e1 f3 bb bd ca 90 49 3d d0 a9 ec bd
       -0.10117018 -0.091773756 0.049210347 -0.11555827
000290 f2 e9 01 3e 04 97 c6 bc 34 06 55 be 5e 92 6f 3d
       0.126869 -0.024241932 -0.20803148 0.058489196
0002a0 62 9a 27 be 37 bc 5b 3e 43 e1 59 3d 83 61 24 3e
       -0.16367486 0.21458517 0.053193342 0.16052823
0002b0 74 49 65 bc fa 3b 72 bb 88 99 5d 3e 19 e0 21 bd
       -0.013994563 -0.0036962018 0.21640599 -0.039520357
0002c0 8f a8 15 be 7f 30 e6 3d 3e 5a 84 3c 36 d0 60 3e
       -0.14615081 0.11239719 0.016156312 0.21954426
0002d0 d6 dd e8 bd 0a d5 fa 3d fc 7c 57 3e 05 e5 49 3e
       -0.11370437 0.12247665 0.21043772 0.1971627
0002e0 bd a9 ab bd b1 19 68 3b 23 eb b0 bd a9 f3 b0 3c
       -0.083819844 0.0035415704 -0.08638599 0.021600561
0002f0 f0 13 3d 3e c5 bc ee 3d 0f 77 b8 bd a4 91 0c be
       0.18464637 0.11657099 -0.090070836 -0.13727432
000300 d2 fa 2a 3e 9c 2f f2 3d 60 0f fd bd 40 53 23 be
       0.16697243 0.11825487 -0.12356448 -0.15949726
000310 b3 e6 8d 3d da 91 aa bd 07 c9 d8 3d c3 79 e9 3d
       0.06928768 -0.083286 0.10585218 0.11400177
000320 ed fa 1e be 79 22 1e 3e 84 62 4f bc 07 53 be 3d
       -0.15525408 0.15442838 -0.012657765 0.0929318
000330 e5 db 68 3c 44 89 28 bd 31 67 18 be 44 cb 12 be
       0.014212583 -0.04114653 -0.14883114 -0.14335352
000340 f5 b9 18 3e 62 0f 41 3e e8 14 0d be 17 29 d7 3d
       0.14914687 0.18853524 -0.13777506 0.10505884
000350 5f fa 3b be db f1 10 3e 77 59 ad 3d 3f a5 19 be
       -0.18357228 0.1415476 0.0846433 -0.15004443
000360 74 06 2e be 5c 7c 46 be 4e 8b 1b 3e df b4 0e 3e
       -0.16994649 -0.19383377 0.1518986 0.13936184
000370 2a c6 ca 3d 65 59 0d 3e 18 c5 4e 3c 2a 28 98 bd
       0.09901078 0.13803633 0.012620233 -0.07429536
000380 96 db 49 bd 35 70 02 be 1e 1d 61 bd 5c c2 fd 3c
       -0.04928168 -0.12738116 -0.05495941 0.030976467
000390 f4 8a 48 3e 1b 69 db bd 5b bb 3b be 88 da 3e 3b
       0.19584256 -0.10713407 -0.18333189 0.0029121954
0003a0 43 92 d4 bd cd 5c d0 bd 71 95 19 3e e1 8b f3 3d
       -0.1037946 -0.1017395 0.14998414 0.11891914
0003b0 87 29 c3 bd fd ca 00 bd 62 ad 5c be b9 a5 48 bc
       -0.09529405 -0.031443585 -0.21550515 -0.012246543
0003c0 b7 3d 24 be 11 2a 12 be 69 85 a8 3d 1c 47 4b 3e
       -0.16039167 -0.1427386 0.08228571 0.19851345
0003d0 48 65 19 3e b0 b7 db 3d d4 da 83 bd 37 33 ea 3d
       0.14980042 0.10728395 -0.064382225 0.1143555
0003e0 25 de 23 bd 34 5c ac bd 65 45 52 3d 3c 89 3d 3e
       -0.040006775 -0.08416024 0.05133571 0.18509382
0003f0 ed 34 7c bd 07 da 00 bb a4 fb dc 3d 53 fc c6 bd
       -0.06157391 -0.0019661204 0.10790184 -0.09716096

lstm.weight_hh_l0 f4 [80, 20]
000000 0e 25 b2 b9 fb f9 12 3e 51 13 de bd 05 d5 ba 3d
       -0.00033978414 0.14353172 -0.10843528 0.091226615
000010 4c 65 c9 3d dc 5b 20 3c a4 08 8c 39 41 5a 15 be
       0.09833774 0.009787526 0.0002670932 -0.1458521
000020 e2 b1 d0 3d ea 75 a2 bd ac a4 a1 ba e4 af 3c be
       0.101901785 -0.079326466 -0.0012332401 -0.18426472
000030 fd 87 6a bc 44 21 e7 bd 5b 20 1a be 7a eb 0b 3e
       -0.014314649 -0.11285642 -0.15051405 0.13664046
000040 fb c5 59 be 49 72 07 be 74 6e bb bd 93 1a 2f 3e
       -0.2126693 -0.1322719 -0.09151927 0.17099981
000050 79 6d 93 3b 89 e9 37 be 6e 86 b0 bc 5c c8 29 3e
       0.004499134 -0.1796018 -0.021548476 0.16580337
000060 86 f9 cb 3d 55 14 6c bc df d3 77 bd 52 61 cc 3d
       0.09959702 -0.014409144 -0.06050479 0.099795
000070 d2 3a 9f 3d 47 75 08 bd d3 3a 5f 3e 31 f5 4b bd
       0.07774891 -0.03331497 0.21799783 -0.04979438
000080 6c 60 58 3e a4 36 ea 3d 6a d5 a6 bd 94 b9 58 be
       0.21130532 0.11436203 -0.08146174 -0.21164542
000090 c5 1e 26 bc e5 49 e9 bd cc 88 49 bc c6 4c cb bd
       -0.010139172 -0.113910474 -0.012300681 -0.09926753
0000a0 53 4a c9 bd a5 0c f2 bd 93 54 a5 bd 25 5a 57 be
       -0.09828629 -0.11818818 -0.08072772 -0.21030481
0000b0 24 9b 91 3d 84 7d 48 be 5b bd 0e be e1 ee eb 3d
       0.07109669 -0.1957913 -0.13939421 0.11520172
0000c0 83 90 da bc 4f ab 54 be e6 7e 67 bd 5f 03 25 3e
       -0.026680237 -0.20768474 -0.056517504 0.16114567
0000d0 09 e9 2e be d9 5f 09 3e 09 85 b9 3d a3 50 81 3d
       -0.17081083 0.13415469 0.090585776 0.06314208
0000e0 3e 68 56 be 2e 71 12 3e 28 ab 55 3e 19 cf 2e be
       -0.20938203 0.14300987 0.20866072 -0.17071189
0000f0 53 8d a4 bd ed ee 38 bb de d6 63 3e c4 b2 55 be
       -0.08034768 -0.0028218583 0.22249934 -0.20868975
000100 46 16 0c be 0c fa 36 3c 0e 09 01 3e d7 a9 48 3e
       -0.13680372 0.011168014 0.1260111 0.19596039
000110 42 3e 42 3e 6f 11 f1 3d 5a c8 25 be 15 9e 56 be
       0.18969062 0.11770903 -0.1618971 -0.20958741
000120 72 81 14 be 2f af 38 be 74 54 02 bd 82 a4 63 be
       -0.14502504 -0.18035577 -0.031818822 -0.22230724
000130 dd 85 21 3e 10 b1 b3 bd b9 bf a5 bd f7 1d 1e be
       0.15773721 -0.08774006 -0.08093209 -0.15441118
000140 3c c1 16 be bd e2 35 3e 74 da 5f bd d3 f6 0f be
       -0.1472215 0.17762275 -0.054651693 -0.14059
000150 e6 e4 79 bc c1 09 b6 bd 3c fc 1f 3e 06 aa 74 3d
       -0.015252328 -0.08888579 0.15623564 0.05973246
000160 d5 b7 2f 3e 6f 86 9c 3d f8 a7 af 3d 4a bc 49 3e
       0.1715997 0.07642829 0.08576959 0.19700733
000170 a3 43 16 3d b3 75 3a 3e 65 78 f3 3d fa be a9 bd
       0.036685597 0.18208961 0.11888198 -0.08288379
000180 74 d5 37 be 9d 89 42 3e 3f 26 5c be df 92 1a 3e
       -0.1795252 0.18997808 -0.21498965 0.1509509
000190 aa d8 9a bd 32 7b 83 bd 72 35 fd bd ac 98 0c be
       -0.07560857 -0.06419982 -0.123637095 -0.13730115
0001a0 c3 03 de 3d 39 9e c2 bc 7c bc 90 3c ca a4 51 bd
       0.10840561 -0.023757087 0.017668001 -0.051182546
0001b0 44 b4 23 3e ad e7 d9 bd b6 c0 27 3e c3 76 a8 bd
       0.15986735 -0.10639892 0.16382107 -0.08225777
0001c0 99 d7 be bd dd 56 14 bd ce 5c ac bd 91 78 a1 3c
       -0.09318466 -0.03621565 -0.084161386 0.01971081
0001d0 8a 33 0d be ed 2a 24 bd c9 db 07 3e 15 dd 24 bd
       -0.13789192 -0.04008 0.13267435 -0.040249903
0001e0 98 e8 12 be 9c f3 0c 3e 66 81 42 3e 3b 1a af 3d
       -0.1434654 0.13764805 0.18994674 0.08549925
0001f0 6f 1d b9 3c 34 c8 0d 3e 1e 80 37 3e 13 15 20 3e
       0.022597043 0.13845903 0.17919967 0.15633039
000200 de 6e 02 3e a2 c9 2e be 37 5a 7e 3d e3 03 47 bd
       0.12737605 -0.17069104 0.062097754 -0.04858769
000210 97 6b 0a be c4 04 c0 3c bd 11 5b 3e b2 0b 54 3e
       -0.13517605 0.023439772 0.21393485 0.20707586
000220 1c 91 0b 3e 35 1e 30 3e ac e7 02 3d 10 bf 10 be
       0.13629574 0.17199023 0.03195922 -0.14135385
000230 98 98 0c be 1e 31 bc 3d cb b0 94 3d 54 89 28 3e
       -0.13730085 0.09189056 0.07260283 0.16458637
000240 62 6e 8c bb 3f 06 3f 3e a3 b6 f8 bd cd 12 0b be
       -0.0042856196 0.18654726 -0.1214421 -0.1358139
000250 dc c1 a4 3d 68 fa 5b 3e 02 f7 ca bc 91 f1 5f 3e
       0.08044788 0.21482241 -0.024775986 0.21869494
000260 4b fb 4e 3e 12 b7 3a be 5d d0 18 be a8 ee 0d be
       0.20213048 -0.18233898 -0.14923234 -0.13860571
000270 3d 53 29 be d1 a0 2c be f2 38 53 be ee b6 c2 bd
       -0.16535659 -0.16858222 -0.20627192 -0.09507547
000280 6c a9 1c 3e 0e c2 bb bd ea 4b 4b 3e 95 8d 54 be
       0.15299004 -0.09167872 0.19853178 -0.20757134
000290 58 81 24 be bd f2 e5 3d d3 49 64 3e 72 3a 38 be
       -0.16064966 0.11227939 0.22293787 -0.17991045
0002a0 41 d6 80 3d 20 02 29 3e 73 61 0d 3e 5a 90 60 be
       0.06290866 0.16504717 0.13806705 -0.21930066
0002b0 71 38 15 3e 16 14 b2 3d f6 32 e8 bb 6a 00 38 be
       0.14572312 0.08695237 -0.007086153 -0.17968908
0002c0 20 9b 45 3c 92 ed 82 bd 12 fe 54 3e 33 13 36 bd
       0.01206091 -0.06392969 0.20800045 -0.044451904
0002d0 72 e5 17 be a3 6a f0 3d de 13 37 be f8 45 53 be
       -0.1483362 0.11739089 -0.17878672 -0.2063216
0002e0 7e f0 25 3e 3a 9c 5b 3c d3 95 0e bd 68 9b bf 3d
       0.16205022 0.0134039465 -0.034810852 0.09355813
0002f0 3f 3f 19 3e 5b f4 4b bd 2e e9 38 3e 99 49 1e 3e
       0.14965533 -0.049793582 0.18057701 0.15457763
000300 21 7a 7a 3d 42 98 d4 bd e2 b9 12 3e 60 0a 3a bd
       0.061151627 -0.103806034 0.14328721 -0.04542005
000310 9e b1 7d 3d e6 e8 24 3e aa d3 a4 bd 0a d8 52 3e
       0.061936967 0.16104469 -0.08048184 0.20590225
000320 d4 10 39 be 75 47 38 3e ea a6 43 bd 64 e9 f4 3d
       -0.18072826 0.17996009 -0.047766604 0.11958578
000330 70 d2 8e bd d8 55 d9 bb 4f 10 6c bc 76 56 e2 bd
       -0.069737315 -0.006632548 -0.014408185 -0.11051647
000340 9c 96 b5 3d 10 53 b4 3c 2e 93 df 3d e9 7c 41 be
       0.08866617 0.022012264 0.10916744 -0.18895306
000350 fe 1d a8 bc e7 07 36 3e 43 fc 23 be 39 dd b3 3c
       -0.020522114 0.17776452 -0.16014199 0.021956073
000360 9d ba 61 be c7 da 0a 3e 4e 04 8a bd 64 ec ad bd
       -0.22043844 0.1356002 -0.06739102 -0.084923536
000370 90 3a 08 be 23 78 ba bd d6 1c 22 3e f5 cb fc 3d
       -0.1330359 -0.091049455 0.15831313 0.12343589
000380 77 ab 01 3d 07 b1 11 3d e6 ab 57 bd 0e 7c 25 3e
       0.031657662 0.035569217 -0.05265417 0.16160604
000390 d5 33 4c 3e ac ed 36 3e ee 5b f4 3d 72 9c 04 be
       0.19941647 0.17864102 0.11931597 -0.12950304
0003a0 23 1d 3e be 5a 42 b6 bd e3 e1 c1 3d 3e 5c 01 be
       -0.18565802 -0.08899374 0.094669126 -0.12632844
0003b0 d5 4a db 3c a5 30 6b bd 30 57 3d bd fb 05 1f be
       0.026769081 -0.057419438 -0.046225727 -0.15529625
0003c0 85 41 9b bd 04 12 b1 3b c0 0a 2e be e7 f3 76 3a
       -0.07580856 0.005403759 -0.16996288 0.00094204996
0003d0 50 6a 92 bc 9a f8 27 be c2 f8 cb 3d bb 33 ad bd
       -0.01787296 -0.16403428 0.09959556 -0.084571324
0003e0 b3 73 1e be 60 b6 0a 3e 1a fe 1c be 9a 6d 5e be
       -0.15473823 0.13546133 -0.15331307 -0.21721497
0003f0 3d 1a 37 be c2 6f 16 be 53 ca 57 3e 87 54 3e be
       -0.17881103 -0.1469107 0.21073274 -0.18586932

lstm.bias_ih_l0 f4 [80]
000000 24 1a 34 be 68 5b 1d be 59 ac f6 3c 37 69 37 be
       -0.17588097 -0.153669 0.030111479 -0.1791123
000010 f0 8f 55 3e 78 19 d9 3d 20 d9 75 bd 64 c8 a7 bd
       0.20855689 0.10600561 -0.06002152 -0.08192518
000020 ae ec 36 be 3f 00 2d be b1 02 4c bd 66 78 cf bd
       -0.17863724 -0.16894625 -0.049807254 -0.10130386
000030 73 81 0e bc 24 a2 b6 3d 4c df 64 3d 25 00 5c be
       -0.008697855 0.089176446 0.055877015 -0.2148443
000040 8b 45 b1 3d bd 58 07 bd ff ef 1e 3e c1 79 21 be
       0.086558424 -0.03304361 0.15521239 -0.15769102
000050 ea 5c ba bd 45 f2 10 be 84 1d dd bd 00 ae 61 3e
       -0.09099753 -0.14154918 -0.10796645 0.22039032
000060 74 f5 fd bd 72 0e 16 bd 05 19 58 3e 40 9e c3 bd
       -0.12400332 -0.03663487 0.21103294 -0.09551668
000070 d6 1c 22 bd 4b f6 13 3e 93 ba 4b be 36 2b c5 bb
       -0.03957828 0.14449422 -0.19895391 -0.006017114
000080 ae 56 10 3e b3 be c2 bd 96 f3 e3 bd d8 93 3d be
       0.14095566 -0.09509029 -0.11130445 -0.18513429
000090 22 68 f5 3d c8 13 47 be 60 48 6a 3d 7c c8 d3 3d
       0.119827524 -0.1944114 0.05719793 0.10340974
0000a0 ad 33 02 3e 7c 99 5a be d8 18 b5 3d 28 6e aa 39
       0.12715025 -0.21347612 0.08842629 0.00032507
0000b0 8c 15 0b be d6 fd fc bd 84 8a e1 bc 2b e6 94 bd
       -0.13582438 -0.12353103 -0.02753187 -0.072704636
0000c0 c5 86 ab 3d e7 7e 02 be 61 b2 45 3c a3 92 95 3d
       0.083753146 -0.12743722 0.012066455 0.07303359
0000d0 ad 7f f2 bc 20 85 8f bd ad 72 bb 3d f6 27 05 3b
       -0.029601896 -0.070078135 0.09152732 0.0020318008
0000e0 c5 d9 67 3d 6b 73 69 bd d6 8d fb 3d bc eb 80 3d
       0.056604166 -0.056994837 0.122829124 0.06294963
0000f0 f2 7e 55 3e 82 b4 28 bd f6 a0 71 bd 76 c0 32 3d
       0.20849207 -0.04118777 -0.058991395 0.043640576
000100 0b d9 0d 3e 7f 84 d4 bd 99 ea 3b 3e 3a 86 59 3d
       0.13852327 -0.10376834 0.1835121 0.053106524
000110 b5 27 84 3a 94 67 0c be 91 cb c6 3d 32 1b ec bd
       0.0010082634 -0.13711387 0.09706796 -0.115286246
000120 a6 3b 8b bc a3 8c df 3c 76 5e 02 bd 4b c9 f8 bd
       -0.016996216 0.02728874 -0.031828366 -0.121477686
000130 06 87 86 ba 65 2b a9 3d 53 40 2a 3e 8d 8e a9 bb
       -0.0010263629 0.0826023 0.166261 -0.005174464

lstm.bias_hh_l0 f4 [80]
000000 82 8c 91 3d ba 51 3f 3e f0 8f 9b bd 92 57 18 3e
       0.07106878 0.1868352 -0.07595813 0.14877155
000010 8b 8d 09 3e e0 ce ea bc a3 1c 6d bc 97 49 ad bd
       0.134329 -0.028663099 -0.01447216 -0.08461302
000020 b3 bd 55 bd b2 c5 27 bd c1 d6 3b bd a1 7b c8 bc
       -0.052182864 -0.04096002 -0.045859102 -0.024473013
000030 29 38 b3 3d 2f b1 f7 bd 58 23 5d be 77 69 8d bd
       0.08750946 -0.12094342 -0.21595514 -0.069048814
000040 97 ba 0b be 1e d2 9e bd 89 cd a0 3d 9b 6e 5c be
       -0.13645397 -0.077549204 0.07851703 -0.21526568
000050 84 39 1d 3e 30 21 41 be c6 6c 7d 3d 45 de 0b be
       0.15353972 -0.18860316 0.061871313 -0.13659008
000060 09 69 87 3c ce 7c 4d be cd b3 62 3d 63 0e 15 3c
       0.016529577 -0.2006714 0.055347253 0.009097668
000070 2e e8 9b bd 13 fa 97 bc 1b d3 f8 3d a5 d5 4c 3e
       -0.07612644 -0.018551862 0.1214964 0.20003374
000080 d5 ce 07 bc 09 4b ee 3d fc 0e 4b 3e 06 13 4f bc
       -0.008289059 0.116354056 0.19829935 -0.012638813
000090 72 1a 32 3e 6f 52 62 3e 38 4f 3e 3e aa 45 08 3e
       0.173929 0.22101758 0.18584907 0.13307825
0000a0 12 d7 b2 bd 28 7e a1 bc 56 02 9a bd 03 64 2a 3e
       -0.08732428 -0.019713476 -0.07519977 0.16639714
0000b0 ee c7 b6 bd c6 d0 f2 3d f8 76 3a be 74 68 53 3e
       -0.08924852 0.118562266 -0.18209445 0.20645314
0000c0 2f 2f 32 3e 7c dc ac bd 61 72 ab bc 86 f0 0d be
       0.17400812 -0.084404916 -0.020928564 -0.13861284
0000d0 46 4c 45 be 99 6b 44 3e 8a df 6e 3c e1 b6 d3 bd
       -0.19267377 0.1918167 0.014579663 -0.10337616
0000e0 03 65 8f 3d 73 a7 dc bd 9d 59 00 be ef 85 f8 3d
       0.07001688 -0.10774126 -0.12534185 0.12134921
0000f0 d7 08 69 bc 6a 2e b9 bd fb 76 16 bd 66 90 04 3e
       -0.014223299 -0.09042056 -0.036734562 0.12945709
000100 16 61 cd bd 26 35 6c 3d 45 de 68 3d 50 03 2f 3c
       -0.10028283 0.057667874 0.056852598 0.010681942
000110 62 c6 12 bd 6d 2d f7 3d 44 a5 24 be 90 bc 2b be
       -0.035833724 0.12069211 -0.16078669 -0.1677115
000120 36 0a d3 3d 54 36 24 3d 3a b0 26 bd 86 65 d2 bd
       0.10304682 0.040090874 -0.040695406 -0.1027327
000130 2b e5 46 3d 23 ee a5 ba 68 4d ea bb 70 65 18 3e
       0.048558395 -0.0012659471 -0.007150341 0.14882445

net.0.weight f4 [128, 20]
000000 3f d3 25 bd b3 b0 09 be 0b 10 3b 3e 90 0b 2b 3e
       -0.040484663 -0.13446312 0.18267839 0.1670363
000010 1e c8 2a 3e cf 3a 11 be 8d c6 31 3e 1f 47 4b 3e
       0.16677901 -0.1418259 0.17360897 0.1985135
000020 93 d5 35 be 44 e1 13 be c6 4f d6 3d d0 a4 1c be
       -0.17757253 -0.14441401 0.10464434 -0.15297246
000030 fa b4 06 3c 3c 93 1b be 47 5b 31 3e 0e c6 34 3e
       0.008221859 -0.15192884 0.17319976 0.17653677
000040 e9 22 fb 3d fa 3e b9 bb 07 b7 3e be e3 dd dc 3c
       0.12262518 -0.0056532593 -0.18624507 0.026961273
000050 21 4c ef bd 4a 23 0e be 4a a5 83 bd 86 97 48 3e
       -0.11684442 -0.13880649 -0.06428011 0.19589052
000060 94 38 da 3b 2b 84 5f 3e e0 0e 36 be 27 4d 53 3e
       0.0066595767 0.21827762 -0.17779112 0.206349
000070 1e f2 a4 3d 6d ce 80 3d 34 ef 09 be bc 96 31 3e
       0.08053993 0.062893726 -0.13470155 0.17342657
000080 9a 54 30 3e 31 ce 42 be 5a cd 31 3e 3e ee 23 3d
       0.17219773 -0.19023968 0.17363492 0.040022127
000090 e4 c0 48 3d 44 38 dd 3d d2 08 bf 3b ac 09 56 3d
       0.04901208 0.108017474 0.005829909 0.052255318
0000a0 ad 2d 1a be b7 f7 33 be f3 51 60 be fb e3 0a be
       -0.15056486 -0.17574964 -0.21906261 -0.1356353
0000b0 ea 3b 3f be d8 b4 16 be 96 e8 ff bd be dc fc 3d
       -0.18675199 -0.14717424 -0.12495534 0.12346791
0000c0 b0 24 2e 3e a4 97 ea 3c 7c 27 00 3e 8e 55 a6 bd
       0.17006183 0.028636761 0.12515062 -0.08121787
0000d0 c1 4c 15 3e 7a 29 08 be a1 a9 17 bc e9 0a 53 3e
       0.1458006 -0.13297072 -0.009256751 0.2060963
0000e0 e1 a8 33 3e 3b e2 3d 3e 9b 33 15 3e 59 f7 54 3e
       0.17544891 0.18543331 0.14570467 0.2079748
0000f0 83 68 1a 3d d4 74 ea bd 4a ff 34 be 08 5a a2 bd
       0.037697326 -0.114480644 -0.1767551 -0.07927328
000100 66 79 0b be 2d 75 09 3e 69 33 bb 39 8d 7e d0 bc
       -0.13620529 0.13423605 0.00035705723 -0.02545097
000110 cd 26 05 be f6 37 23 be aa 0f 14 3e 91 a9 63 3e
       -0.13003083 -0.15939316 0.144591 0.22232653
000120 d6 b0 d1 3a 49 08 81 bd 40 45 ee 3b 48 e7 1e 3e
       0.0015998136 -0.063004084 0.007271439 0.15517914
000130 f2 90 37 3e 16 87 d5 3d 5d dd 59 be 3f 96 c4 3d
       0.17926386 0.10426156 -0.2127585 0.0959897
000140 d6 ef c0 3c 4d 82 4a be bf 46 f5 bd d5 74 a7 3c
       0.023551863 -0.19776268 -0.11976384 0.020441452
000150 28 02 9a 3d ca e8 4a 3e 34 88 55 3d 30 99 a2 3d
       0.075199425 0.19815364 0.052131847 0.079393744
000160 34 0b d3 bd 01 e6 a6 3c d9 fd 42 3e b2 e2 92 bd
       -0.10304871 0.020373346 0.19042148 -0.07172145
000170 bd 6a 38 3e 40 22 f2 bd 3c 19 44 3d 21 cc aa bd
       0.18009467 -0.11822939 0.047875628 -0.08339716
000180 30 a7 6d 3d f5 88 dc bd 98 bd c1 3d c9 6a 2c 3e
       0.05802077 -0.1076831 0.0945999 0.1683761
000190 20 aa 0f 3e 1b 2b 9c 3c 05 7d c4 bd cf 75 17 be
       0.14029741 0.019063523 -0.09594158 -0.14791034
0001a0 8d 09 e8 3d f5 40 74 3d 50 84 ff 3d cf 5c 3e bd
       0.11329947 0.05963226 0.124764085 -0.046475228
0001b0 96 37 e8 bd d9 d8 d8 bb 4d 1f a5 3d 1f df 1e 3e
       -0.11338727 -0.006617647 0.08062611 0.15514801
0001c0 04 f7 4b be f3 21 12 3e 8b 53 37 3d b7 83 49 3e
       -0.19918448 0.14270763 0.044757407 0.19679151
0001d0 51 f2 1a be 0f af 57 3d e8 a2 34 3e 32 7a 9e bd
       -0.15131499 0.052657183 0.17640269 -0.07738151
0001e0 7a 9b f5 bd a2 f0 e0 bd aa 02 3f be ae c1 28 3e
       -0.119925454 -0.10983397 -0.1865336 0.16480133
0001f0 5c 35 29 be 14 e6 4f bd 51 27 60 bb de 42 1e 3b
       -0.16524261 -0.05075653 -0.0034203122 0.0024148743
000200 d8 b5 45 3e 95 45 01 be 9f 9d 3a be 0c 8f 43 be
       0.19307649 -0.126242 -0.1822419 -0.19097537
000210 8e 6a 9c bd ed 27 4a 3e 48 f1 ad 3d 9c bf 0c be
       -0.07637511 0.19741793 0.08493286 -0.13744968
000220 2f 87 5d bd 24 15 cd 3c 45 60 47 be 80 cc 88 3d
       -0.054084 0.025034495 -0.19470318 0.0667963
000230 b9 87 61 3b 74 c7 31 be b7 7c 73 bd 54 df 62 be
       0.0034413172 -0.17361242 -0.05944511 -0.22155505
000240 0e 06 6e bd 4c 9e a7 bd ca 1d 0a 3e 45 23 5b be
       -0.058111243 -0.081844896 0.13487926 -0.21400173
000250 eb c2 6e 3c 63 7d 37 be b2 81 1a be 67 22 43 3d
       0.014572839 -0.17918925 -0.15088537 0.04764023
000260 83 d8 39 3d 19 78 bc bd 0a dd 9a 3c 8f 42 59 3e
       0.045372497 -0.09202594 0.018904228 0.21216796
000270 b7 4e 3a 3d 91 ba 38 be 5c 82 88 3d 71 74 1f be
       0.045485225 -0.1803992 0.06665489 -0.15571763
000280 fb d4 da 3d fd a9 60 bd fd 35 df bc 43 07 07 3c
       0.10685154 -0.054849613 -0.027247423 0.008241477
000290 bf bb d7 bd d6 9c d0 3d b3 e9 9a bd 1f 77 52 bd
       -0.105338566 0.10186164 -0.07564106 -0.051383134
0002a0 68 ba 2a 3e d0 b2 e4 bd 8c a0 31 3e 24 3e ca bb
       0.16672671 -0.11166918 0.173464 -0.0061719585
0002b0 df a0 42 3e 00 86 df bd 75 df 23 3e bc d8 55 be
       0.1900668 -0.1091423 0.16003211 -0.20883459
0002c0 32 eb 40 bd 6a ee 34 be a7 0b 41 3e 17 ac 9f 3d
       -0.0470993 -0.17669073 0.18852101 0.077964954
0002d0 c1 1b 90 3d 0b 09 3f be 6f d2 a4 bd 50 5b bd 3d
       0.07036544 -0.18655793 -0.080479495 0.09245932
0002e0 e8 70 10 be ba 54 bb bc 2a a6 87 3d 53 eb 37 3e
       -0.1410557 -0.02286755 0.0662349 0.17960863
0002f0 7f 32 92 bd 76 86 6e 3d 8e 45 36 be 83 6c 9c bc
       -0.071385376 0.0582337 -0.1779997 -0.019094711
000300 59 1c 09 be de 55 4c be 58 22 94 bd de f4 55 be
       -0.1338972 -0.1995463 -0.07233113 -0.2089419
000310 8c b4 02 3e 66 da 41 ba 79 0c ab ba d8 4b b0 3c
       0.12764186 -0.00073949096 -0.0013049982 0.02152054
000320 18 3f 6a 3d c4 c9 a9 bd df fe 02 3e 84 3f 49 be
       0.057189077 -0.08290437 0.12792538 -0.19653136
000330 89 ab 5d be 2e 11 ab bd 30 1c c7 3d 5a 80 de bd
       -0.21647467 -0.08352886 0.09722173 -0.10864325
000340 19 b2 da 3d 22 e6 90 3b e8 80 dc bd 70 07 83 bd
       0.10678501 0.004421965 -0.107667744 -0.06397903
000350 fb 97 10 bd 68 17 46 3e 18 b5 55 3e b8 d9 f2 3d
       -0.03530119 0.19344866 0.20869863 0.11857933
000360 db 4d 9f 3c e7 c7 05 be 7d 45 8b bd 43 49 b9 39
       0.019446304 -0.13064538 -0.06800363 0.00035340534
000370 ed da 38 3e 43 74 3e bd 27 91 48 3c b3 82 29 3e
       0.18052264 -0.046497595 0.012241638 0.16553764
000380 52 59 a3 bc 51 69 36 bd 8a 7e e8 bd b5 eb 73 bd
       -0.019940052 -0.04453403 -0.113522604 -0.05955096
000390 fe 83 6a bd 88 b0 d3 bd dc c7 cc 3d 6a 83 5c be
       -0.057254784 -0.10336405 0.09999058 -0.21534505
0003a0 86 e6 58 be 80 e4 c0 3d 3e 2a 96 bd 33 6e 4c be
       -0.21181688 0.09418583 -0.07332276 -0.19963913
0003b0 85 4a 1b bd ac af 3f 3e 6d a4 41 bd d0 ff 2c 3d
       -0.037912864 0.18719357 -0.04727595 0.04223615
0003c0 1a 90 5b be c3 a0 16 3e 2d 57 4c be f0 ca d7 bd
       -0.21441689 0.14709763 -0.1995513 -0.10536754
0003d0 58 90 4d 3e 22 3b f6 3d c0 a7 45 3e 8a 45 04 be
       0.20074594 0.120229974 0.19302273 -0.12917152
0003e0 d2 6b fd 3d dc 95 4f 3e d7 3f 56 bc 12 fd f6 bc
       0.12374081 0.2027201 -0.013076744 -0.03014997
0003f0 2f da e4 3d 33 1c 5f 3e b7 2f 8a bb be 85 c5 3d
       0.11174428 0.21788101 -0.004217114 0.0964465

net.0.bias f4 [128]
000000 3d c8 17 3e 9c 65 0d 3e 86 56 63 be 34 19 c3 3d
       0.14822479 0.13808292 -0.22200975 0.095262915
000010 48 96 c0 bc 2d 25 16 be b1 37 02 be 32 e0 82 3d
       -0.02350916 -0.14662619 -0.12716557 0.06390418
000020 77 e2 5e be 35 86 f4 3d ad 3f d8 ba dc 35 37 bd
       -0.21766077 0.119396605 -0.0016498469 -0.0447291
000030 27 4c 4f 3b e8 d3 01 be 5f ec 18 be 37 36 22 3e
       0.0031631084 -0.12678492 -0.14933918 0.15840994
000040 c4 b6 ad bd db 6b 05 be 99 68 d2 bd d3 bf b7 3c
       -0.084821254 -0.13029425 -0.10273857 0.022430336
000050 aa c9 ce bd 3d 6a a6 bb ff 2c 2a 3e 42 42 ee bd
       -0.10097058 -0.0050785826 0.16618727 -0.116337314
000060 0e c1 27 be 9e 7b 33 be 7a 5c 22 3b 4e d3 07 bc
       -0.16382238 -0.17527625 0.0024774359 -0.008290125
000070 c2 88 1e 3e f9 13 2d 3e e5 7d 35 be b0 84 f7 3c
       0.15481856 0.1690215 -0.17723806 0.030214638
000080 67 45 8a 3b 09 9e fd 3d 71 b8 52 be be d9 8d bc
       0.004219699 0.123836584 -0.20578171 -0.017315742
000090 ab 65 10 3c 75 a5 4c 3e 6e 62 ce 3d e3 8c 12 bd
       0.008813302 0.19984992 0.10077368 -0.03577889
0000a0 23 02 41 3e d3 55 4f 3d 70 24 ff ba fe b0 ad bc
       0.18848471 0.050618958 -0.0019465815 -0.02120256
0000b0 4d c3 3b 3e 0a b4 5a bd 86 52 89 3d 85 da 91 3d
       0.1833622 -0.053394355 0.06705193 0.071217574
0000c0 1c ed 2d be 5a f9 2d 3e 27 54 62 bd 94 58 57 3d
       -0.16984981 0.16989651 -0.055256035 0.05257471
0000d0 7a 51 d5 bd 77 3f 40 be 47 ad f2 3d a2 42 4e be
       -0.10415931 -0.1877421 0.11849456 -0.20142606
0000e0 1e 87 32 be 26 74 c6 bd 29 b4 08 be 5e 79 0c be
       -0.17434356 -0.09690122 -0.13349976 -0.13718173
0000f0 da e6 41 3e 27 8c 1d be 45 c9 44 3d 44 78 16 3d
       0.18935719 -0.15385495 0.048043508 0.036735788
000100 53 f2 18 3e f0 b5 41 be f9 6f 8a 3d 5e 5f dd bd
       0.1493619 -0.1891706 0.06759638 -0.108092055
000110 28 42 07 be 64 97 80 bb 98 24 e0 bd c0 73 08 be
       -0.1320883 -0.003924297 -0.1094448 -0.13325405
000120 d1 4b 28 3e 79 9c b2 3d 47 2a df 3d 42 d5 42 bd
       0.16435172 0.08721251 0.10896736 -0.04756666
000130 5c 06 07 3e 6f 59 e7 3d 06 48 a5 3d 98 e5 69 3d
       0.1318602 0.11296355 0.08070378 0.057103723
000140 b4 8f b3 bd b6 dc 9e ba 90 92 fd 3d 52 ff 4c be
       -0.087676436 -0.001212022 0.1238147 -0.20019272
000150 3f 74 c6 bc 34 4b cf 3d 74 fb f8 3d 95 9a af bb
       -0.024225352 0.10121766 0.12157336 -0.005359004
000160 e1 6f f7 3d c7 c1 24 3d 95 17 61 3d 3b 8d 86 3d
       0.12081886 0.040223863 0.05495413 0.06569906
000170 9c cd 60 3e cb 6c 48 be 2c 95 73 bd 81 f6 77 3c
       0.21953434 -0.19572751 -0.059468433 0.015134455
000180 7d 6a 38 3e 71 f5 d1 bd e4 40 04 bd b5 4e 4d be
       0.18009372 -0.10251892 -0.032288447 -0.20049556
000190 fb b9 88 bd 1b 2e 0d be 8b ae 1a 3e e1 91 8c bd
       -0.06676098 -0.13787119 0.15105645 -0.06863762
0001a0 df 25 08 bd fb 1d 1a be 4d 4e 5b 3e 52 1b 2e 3e
       -0.03323924 -0.15050499 0.21416588 0.1700261
0001b0 70 ce e1 3c de be 46 3e 66 01 57 bd ad ae db bc
       0.027564257 0.19408748 -0.052491568 -0.02681669
0001c0 df fb 77 bd 82 54 23 be ca 9c ae 3a c5 48 ec bb
       -0.060542937 -0.15950206 0.0013321873 -0.0072108232
0001d0 e0 1f 7a bd 74 4f 35 be 92 d0 57 3e de df 48 be
       -0.061065555 -0.1770609 0.21075657 -0.19616649
0001e0 a8 f4 48 bc 41 62 2c bd de 26 3b be a4 d0 c0 3d
       -0.012265362 -0.04208589 -0.18276545 0.09414795
0001f0 55 36 88 bd 3a 4d 3a be 76 da 18 3d 31 7d 98 bd
       -0.06650988 -0.18193522 0.037317716 -0.07445753

net.2.weight f4 [64, 128]
000000 d8 67 9f bd 8f fe db bc 2a 0e 93 3c 5a 23 c2 bc
       -0.077834785 -0.026854781 0.01795109 -0.023698498
000010 93 9c 8c bc 59 f4 b1 3c 45 73 61 3d 46 d7 82 3c
       -0.017164504 0.02172296 0.05504157 0.015971791
000020 a5 45 dc 3b 56 84 68 bd 53 7e 95 bd 6b dd 34 bd
       0.0067221695 -0.05676683 -0.07299485 -0.044156473
000030 c6 7c c3 bb 8b 5b 0a bd fe 9f 6a 3c 65 ee a6 bc
       -0.005965802 -0.03377871 0.014320372 -0.020377347
000040 f8 d4 57 bc 4f ba 5b 3d ce 86 a1 bd 99 92 45 3d
       -0.013173334 0.053644475 -0.0788704 0.04823551
000050 4d 34 ad bc 5d d6 13 3d 8a a1 9e bc 78 78 73 bd
       -0.021143103 0.036093105 -0.019364137 -0.05944106
000060 bf 2d f3 bc 6d 73 15 ba ff 35 69 bc b6 be 3b bd
       -0.0296849 -0.00057010987 -0.014234065 -0.045836173
000070 71 99 74 3c 58 ad 2e 3c ef cc 9f bc b3 92 4f 3d
       0.014929161 0.010661446 -0.0195069 0.050677013
000080 ad 4d 36 3d bf ef a2 3d 16 57 92 bd 4a 83 b3 bd
       0.04450767 0.07955884 -0.071455166 -0.08765276
000090 f7 00 e9 bb 66 6d 10 3d a7 36 5c bd 7a 42 95 bd
       -0.0071107107 0.03526058 -0.053763058 -0.0728807
0000a0 5b d5 fb bc 47 50 1e 3d b2 d0 a2 3d 5b 93 7c bd
       -0.030741384 0.038650777 0.07949962 -0.061663967
0000b0 c8 3f 16 39 0d 20 1e bd 31 ba 56 3d 33 9f 11 3b
       0.00014328875 -0.038604785 0.05242366 0.0022220134
0000c0 3f 0c e2 bc 14 88 c5 3c 7b 6b a9 3d af 75 1d bb
       -0.02759373 0.024112739 0.082724534 -0.0024026444
0000d0 b5 64 28 3d a5 90 46 3d 2a 47 7a 3d 66 be ea bc
       0.041111667 0.048477788 0.061103024 -0.028655242
0000e0 ec 79 20 bd 9d 58 45 3c ed 19 25 3d 96 17 27 bd
       -0.039178774 0.012045053 0.040307928 -0.040793978
0000f0 44 4f f3 3c b9 a7 7b 3d 29 3c 83 bd b7 99 2b 3d
       0.029700883 0.06143925 -0.06407959 0.04189464
000100 da e1 40 bd df e8 a3 3d 80 a2 2b bd 2f 04 01 3d
       -0.04709039 0.08003401 -0.04190302 0.03149813
000110 75 23 5a 3d 10 b7 31 3d cf e5 22 bd df 63 06 3d
       0.05325647 0.043387473 -0.039769944 0.03281009
000120 74 08 7a 3c 94 e1 81 bd 9e 28 8a 3d c9 cf 66 bc
       0.015260804 -0.06341854 0.06746028 -0.014087626
000130 b6 d9 4e bd 73 d1 87 bd 70 22 1a bd 37 07 d0 bb
       -0.050500594 -0.06631746 -0.0376305 -0.0063485163
000140 a7 ce 7c bd b0 d1 16 3d 69 49 b2 3d 08 a2 b6 3c
       -0.061720517 0.036821067 0.08705408 0.02229406
000150 22 3d 3b 3d fd 35 92 3b 68 14 3b bd cb 2e fe 3b
       0.045712598 0.0044620023 -0.045673758 0.007757043
000160 32 7d b0 3d 8a 5c 2b 3d 03 d8 f6 bc 09 1e 1f bc
       0.08617629 0.0418363 -0.0301323 -0.009711751
000170 35 ac 41 3b cf 6b a7 bd 61 fa 98 3d f5 9f 81 3d
       0.0029552106 -0.0817486 0.07469631 0.063293375
000180 c0 f5 9c 3d 16 d8 b1 bc 95 66 ab 3c a4 4c 1c 3d
       0.076640606 -0.021709483 0.020922938 0.038159028
000190 d7 c5 0a bd 3c f6 e2 3c 88 a1 3d bd ae 0c ad bd
       -0.03388008 0.027705304 -0.046296626 -0.08449684
0001a0 b5 b3 1d 3d 0d 85 19 bd e6 48 72 3d 91 10 90 bd
       0.03850146 -0.037480403 0.059151553 -0.0703441
0001b0 b6 ce 41 bd c0 af 0d 38 7a d6 b0 bc 72 5b ae bd
       -0.047316276 3.37807e-05 -0.021586645 -0.085135356
0001c0 d7 e3 7d bd 8c db 84 3c 0e 4d 63 bc e2 e3 68 bd
       -0.061984863 0.01621797 -0.013873352 -0.05685795
0001d0 35 2b 12 bd ca e6 9a bd 92 34 ce bc f7 65 b3 bb
       -0.035685737 -0.07563551 -0.025171552 -0.0054748016
0001e0 2b 7d af 3d a3 dd 9b 3d 72 20 93 3d 88 0f 93 3d
       0.08568796 0.07610633 0.07183923 0.07180697
0001f0 38 3d cc bc 9e f5 96 bd 90 b0 8d bd 75 61 a9 bd
       -0.024931535 -0.073710665 -0.06918442 -0.082705416
000200 76 05 88 bd 81 85 a3 bd 67 28 1e 3b dc 0d cd bc
       -0.066416666 -0.07984448 0.0024132968 -0.025031023
000210 26 c5 05 3d 4a 6e 86 3d 2f 54 9e bd 67 d4 4b 3d
       0.03265872 0.06564005 -0.077309005 0.04976311
000220 a5 1a 3e bd fb 54 f1 bc 29 f9 9c bd 32 81 45 bd
       -0.04641213 -0.029459467 -0.07664711 -0.048218913
000230 2c f4 ad 3d be 6f 77 3d 6f 5e 86 bd 45 9f b6 3c
       0.08493838 0.0604093 -0.065609805 0.022292743
000240 50 c5 9a 3b 48 15 78 bd 3b 52 f3 3c 25 c7 b3 bd
       0.0047232285 -0.06056717 0.029702296 -0.08778218
000250 9f b4 89 3d e9 ac 76 bd da de ef 3c e4 25 a8 3d
       0.06723904 -0.060223494 0.029281069 0.08210352
000260 65 77 1f bc 42 da 75 3d 0b c0 31 3d 75 d7 a6 bd
       -0.009733056 0.0600226 0.043396037 -0.08146564
000270 e8 05 a6 3d 9d b7 95 3d 5d 9c 9a 3d 1c 9b 40 3d
       0.08106595 0.07310412 0.07549355 0.047022924
000280 dc b0 32 3a 2c 91 8f 3d 3e 77 82 3d be 12 6b bd
       0.0006816515 0.07010111 0.063704 -0.05739092
000290 2f 19 8d 3d e8 65 21 3d c9 1e 41 bd 9f 6a 11 bd
       0.06889569 0.039403826 -0.0471485 -0.035502072
0002a0 0a cf 82 3d 08 fe 6b bd a9 8d 9a 3d 65 5f 54 bd
       0.06387146 -0.05761531 0.07546551 -0.051848788
0002b0 3d d2 99 3d 68 bd 5f 3d aa c0 f0 bc 6f 38 14 bd
       0.07510803 0.05462399 -0.029388744 -0.03618663
0002c0 9f 31 9d bc fe 5d 94 3d 5d 5c 2d bd 42 36 c4 3c
       -0.0191887 0.0724449 -0.042324413 0.023951653
0002d0 d9 9b 1a bd 90 32 6f bd dd ef 9c 3b f7 03 97 3d
       -0.037746284 -0.05839783 0.004789336 0.07373803
0002e0 0d 4d 7d 3d d0 ef 47 bd 2d 15 8c 3d 78 8d 06 3d
       0.06184106 -0.048812687 0.068399765 0.03284976
0002f0 f8 46 69 bc a4 39 72 bc ef 37 8b bd e0 ad 02 3d
       -0.014238112 -0.01478425 -0.06797778 0.0319041
000300 7d 20 fb 3c 28 eb e3 3c cb f1 16 bc 8e 53 0a 3c
       0.03065514 0.027822092 -0.009212921 0.008442773
000310 a6 e4 8c bd ed 9f 4a bd b2 0a 9e bd 74 02 74 bd
       -0.06879549 -0.049468923 -0.07716884 -0.059572652
000320 21 9e 9b bb 6d 1a af bd 8e a9 de 3b 1c 07 25 3c
       -0.004749075 -0.08549962 0.006795115 0.010072496
000330 50 d4 d6 bc 8a b3 db bc b1 0b 2c bc a5 cd 33 bc
       -0.026224285 -0.02681901 -0.010500834 -0.010974322
000340 ba a6 34 3c 72 dc 38 bc a8 ca 99 bd af 60 6e 3d
       0.011026079 -0.011283027 -0.07509357 0.058197673
000350 79 b2 a0 3d df d9 25 bb 1f 9b 5f ba 55 ae 7b 3b
       0.07846541 -0.0025306863 -0.000852989 0.003840347
000360 29 e5 ed bb a9 1c 5d 3d d4 03 23 bd 60 e7 f9 3c
       -0.007259984 0.05398241 -0.039798573 0.030505836
000370 27 38 81 3d 3d f1 69 3d e1 81 0a bd b2 31 d7 bc
       0.06309538 0.05711483 -0.03381527 -0.026268814
000380 33 11 90 3d e2 05 a3 3d dc cc 6c 3d ff 63 83 bd
       0.070345305 0.079601064 0.057812557 -0.06415557
000390 3c 2b ab 3d 67 a7 27 3d 01 9f b1 3d ed b9 9f bd
       0.08357856 0.04093113 0.08672906 -0.077991344
0003a0 2b 16 1f bd 45 dc 94 3d f2 9a 80 3d cb 8a b9 bc
       -0.0388395 0.072685756 0.062795535 -0.02264919
0003b0 20 25 83 bd 28 ff d6 bb 49 42 9f 3d 40 41 8a 3d
       -0.064035654 -0.0065611787 0.07776315 0.06750727
0003c0 06 3d 7c 3d a9 83 a2 3d 85 fa 58 3d 8f ba ac 3d
       0.061581634 0.079352684 0.05297329 0.08434021
0003d0 03 d1 e0 3c e6 f2 3a bd 34 81 93 bd d4 40 96 bd
       0.027443415 -0.045641802 -0.07202378 -0.07336584
0003e0 73 82 84 3d 55 5f 93 bd a5 16 8e 3d 56 09 37 3d
       0.06470194 -0.071959175 0.06937913 0.044686638
0003f0 31 54 91 bd 8f 32 b4 bd 8f d0 f7 bb c8 59 7c 3d
       -0.07096136 -0.08798706 -0.007562704 0.06160906

net.2.bias f4 [64]
000000 e8 20 98 bd a2 c5 e0 bc 5e 9f c1 3c d7 a6 23 bb
       -0.07428151 -0.027437989 0.023635563 -0.002497127
000010 7b f3 ae bc 6b 0f 45 bd 8d 12 0d bc 99 7f 6a 3d
       -0.021356335 -0.048110407 -0.00861038 0.057250593
000020 2d 7e 28 bd 0d 7c 09 bd 05 06 a1 3d 99 11 81 bd
       -0.041135956 -0.03356557 0.07862476 -0.063021846
000030 e5 8f 85 bd 76 f1 4b bd c4 a8 4c bc 41 be 9b 3d
       -0.06521586 -0.049790822 -0.012491409 0.076046474
000040 a8 fb 9d 3c 81 e9 3f bd 27 dc 37 bd 47 08 e5 3c
       0.019285038 -0.046853546 -0.044887688 0.027958049
000050 31 55 05 bc 66 3a 0e bd ca 03 c8 bc 6a 2e f6 3c
       -0.008137987 -0.03472366 -0.02441587 0.030051429
000060 cb 6c 87 bd 61 b2 b7 3c 22 fe dc 3c 11 2b 46 bd
       -0.066125475 0.022423925 0.026976649 -0.048380915
000070 04 f7 86 bd 34 6c 9e bd 37 e5 22 bd bc 63 26 bd
       -0.06590083 -0.07735482 -0.039769378 -0.040622458
000080 ab 2d 62 3d 4b 84 5d bd cd bd 1c bd 92 82 74 bd
       0.055219334 -0.054081243 -0.038266946 -0.059694834
000090 dd d5 90 bd 39 98 14 3d 90 22 28 bc 56 e5 56 3d
       -0.07072041 0.036277983 -0.010262147 0.052464806
0000a0 94 0c 6f 3d 71 46 40 3d d4 38 9e 3d fe a3 8b bd
       0.058361605 0.04694218 0.07725683 -0.068183884
0000b0 5b 4b 3a bd b0 58 33 3d 2d dc 1e bd 88 b6 01 bc
       -0.04548202 0.04378575 -0.038784195 -0.007917054
0000c0 47 45 8b 3d 7a d0 43 3d a8 59 14 bd 34 34 9a 3c
       0.06800323 0.04780624 -0.036218315 0.01882372
0000d0 91 6d 48 bd ab 99 77 3c d6 91 8d 3d 7a 64 93 bd
       -0.048932616 0.015112321 0.069125816 -0.07196899
0000e0 0e 92 69 bc e2 12 a5 3d 37 b1 84 bd f4 fe 1c 3d
       -0.014256014 0.08060242 -0.064791135 0.03832908
0000f0 77 6e 93 3c be 9f 30 bd 2c 33 92 bd 09 7c 8e 3d
       0.01799701 -0.043121092 -0.071386665 0.069572516

net.4.weight f4 [3, 64]
000000 04 80 fe bd 32 c8 88 3d d0 fc 08 bc 24 e1 37 3d
       -0.12426761 0.06678809 -0.008361056 0.044892445
000010 04 66 f2 bd cc e4 75 3d 20 40 9d 3d 60 1a a4 3c
       -0.11835864 0.06003265 0.076782465 0.020032108
000020 24 36 7d bd 44 9d b7 3d 48 a9 82 3d 00 2b 3a bc
       -0.06181921 0.08965543 0.06379944 -0.011362791
000030 e4 2e 2b 3d 20 c0 c1 3b 30 a4 a8 3c 0c 81 b1 bd
       0.041792765 0.0059127957 0.020586103 -0.08667192
000040 0a 85 b0 bd be ca b6 bd 90 09 48 3d 88 e0 fc bc
       -0.08619125 -0.08925389 0.048837245 -0.030868784
000050 c2 47 96 3d 80 d8 9b bb 80 7b 30 3b d8 c2 a2 3d
       0.073379055 -0.0047560334 0.002692908 0.0794732
000060 08 a6 de 3c 9c 5d cf bd cc e3 1d bd 02 59 b0 3d
       0.02717878 -0.101252764 -0.038547322 0.08610727
000070 40 5b bc bc 60 cc 5d 3c ea d9 e0 3d c0 a6 87 3b
       -0.02299273 0.013537496 0.10979064 0.004139751
000080 46 77 c4 bd 48 11 be bc 68 4a c8 bc 5c 84 8d bd
       -0.09593062 -0.0232016 -0.024449542 -0.06910011
000090 68 db 48 bd 9c 3f 73 bd 88 3b f7 3c 98 b5 69 3d
       -0.049037367 -0.059386835 0.030179754 0.057057947
0000a0 a4 a6 11 3d 00 bc 51 3b 7c 18 46 3d 58 5f 9d bd
       0.03555931 0.0032002926 0.048363194 -0.07684201
0000b0 48 b9 3a bd 5c 91 76 bd 50 44 cd bd 08 7d d3 3d
       -0.045586854 -0.06019722 -0.10022795 0.10326582
0000c0 4e b7 e7 3d 54 68 e2 3d 58 2b 5d bd 70 03 75 3c
       0.113142595 0.11055055 -0.053996414 0.014954433
0000d0 ba ce a0 bd f4 50 82 3d a8 1f b1 bc a2 ba 83 3d
       -0.0785193 0.06363097 -0.02162154 0.06432082
0000e0 66 fa d9 3d 48 ad 11 3d 8c 59 45 bd f0 49 36 3d
       0.10643463 0.035565645 -0.0481811 0.044504106
0000f0 80 f5 62 bc 46 fb 98 3d 98 2e a8 bc fe 76 a5 bd
       -0.013852477 0.074698016 -0.02053003 -0.080793366
000100 00 04 dd bd c0 37 ca 3c d8 e9 86 bc c0 d4 90 3d
       -0.107917786 0.024684787 -0.016468927 0.07071829
000110 80 d1 bc 3c f4 9e 36 bd a8 22 a3 bc 94 ad ad bd
       0.023049116 -0.044585183 -0.019913986 -0.08480373
000120 80 bb 6f 3b 78 16 e4 bc e6 d3 f5 bd 58 ba 17 3d
       0.0036580265 -0.027842745 -0.12003307 0.037042946
000130 00 97 38 bc 2c 0c cb bd 50 69 46 bd 18 9c 94 bc
       -0.01126647 -0.09914431 -0.048440278 -0.018140838
000140 94 1c 75 3d f0 99 37 bc 60 ba 86 bd 14 da 4c 3d
       0.059841707 -0.011206135 -0.06578517 0.050012663
000150 5c 32 fe 3d a4 e6 dc 3d 28 be 92 3c 46 67 a1 bd
       0.12411949 0.10786179 0.01791294 -0.07881026
000160 40 9f 4e 3b ba 8f c6 bd 7a 9a c7 bd 4a 93 e7 bd
       0.0031528026 -0.096953824 -0.09746261 -0.1130739
000170 c0 5c 72 bc 38 52 f2 bc 82 e9 cb 3d b0 bb 94 3c
       -0.014792621 -0.02958022 0.099566475 0.018155903
000180 6c 07 2f bd 54 bc 82 bd 50 03 78 bc c0 bd e8 bd
       -0.042731687 -0.06383577 -0.0151375085 -0.11364317
000190 90 e2 f4 bc c2 43 ed bd ae f6 b0 bd 96 1f 93 3d
       -0.02989319 -0.115851894 -0.086408004 0.07183759
0001a0 ee 77 a8 3d 40 81 12 bc e0 b8 92 bd 98 0a 44 3d
       0.08226 -0.008941948 -0.07164168 0.047861665
0001b0 68 32 4c bd 68 99 da bc ee 41 8a 3d 5c 29 44 3d
       -0.04985276 -0.026684478 0.06750856 0.047891006
0001c0 98 f3 aa bc 8c 6b 3e 3d 1a 91 b6 bd 28 09 97 bd
       -0.020868108 0.046489283 -0.08914395 -0.07374793
0001d0 88 a7 9c bd 94 7e 6d bd e8 9c ee bd 5e 99 f9 3d
       -0.076491416 -0.057982042 -0.11651021 0.121874556
0001e0 34 c8 e1 bd d2 83 a3 3d c8 f9 12 3d 4e ac bd bd
       -0.11024514 0.07984127 0.03588274 -0.0926138
0001f0 80 7e ca bd 08 55 4c bd 70 e9 d1 bd 3e e4 85 bd
       -0.09887409 -0.04988578 -0.10249603 -0.06537674
000200 f0 10 84 bc 30 10 fd 3c 18 72 40 3d c0 e5 17 3b
       -0.016121358 0.030891508 0.04698381 0.0023177713
000210 c0 a1 9e bd 80 32 2f 3c 88 2a 90 3c ae 47 ae bd
       -0.07745695 0.0106931925 0.017598405 -0.085097656
000220 3e 39 e5 3d 7c d9 df bd 00 c3 a8 bc 96 c8 d8 bd
       0.11192559 -0.10930154 -0.020600796 -0.10585134
000230 9c 63 37 3d 20 6a 4c 3c ac e8 04 bd 6c 4e 51 bd
       0.04477273 0.012476474 -0.032448456 -0.05110018
000240 a0 16 0a 3c 22 aa ba 3d 40 7c 73 bb 12 de ab 3d
       0.008428246 0.091144815 -0.0037152916 0.08391966
000250 40 69 1a bb 0a e8 a6 3d 80 f8 56 3c 8e f2 d7 3d
       -0.002356127 0.08149727 0.01312077 0.105443105
000260 6e 37 d1 bd 7c 55 b0 3d 3c 65 37 3d 80 c6 8b 3c
       -0.102156505 0.08610055 0.04477428 0.017062426
000270 68 a3 cf 3c 88 ae 37 bd 1c e2 e4 3d d4 c3 78 bd
       0.025346473 -0.04484418 0.111759394 -0.06073363
000280 58 1e 8a 3c 54 d6 06 bd 70 34 83 3d 10 88 5d bc
       0.016860172 -0.032919243 0.06406486 -0.013521209
000290 c2 1c dc bd c0 5d 5f bb a2 0b ae bd 22 88 be 3d
       -0.107476726 -0.003408298 -0.084983125 0.09303309
0002a0 78 fb f2 3d 00 9e d8 3a b4 9e e7 3d dc e3 72 bd
       0.1186437 0.001652658 0.11309567 -0.059299335
0002b0 24 76 1f 3d d0 f4 bf bd 80 5a 91 3b f8 92 f1 3d
       0.038931027 -0.09372866 0.0044358373 0.1179561
0002c0 90 86 51 bd bc 19 80 bd 60 ff aa bb 00 35 6b bd
       -0.05115372 -0.062549084 -0.0052184314 -0.05742359
0002d0 a8 bd 5f bd b8 ff 2d 3d 7c 8c 59 3d ee 26 dd 3d
       -0.05462423 0.0424802 0.053112492 0.10798441
0002e0 e4 4e 4e 3d cc 6a 80 bd 52 71 dd bd 80 d0 4f 3b
       0.050368205 -0.0627037 -0.1081263 0.003170997
0002f0 22 d3 cf bd f4 35 9c bd c4 4d 6b 3d 00 c4 fe 3a
       -0.10147692 -0.07627478 0.05744721 0.0019437075

net.4.bias f4 [3]
000000 58 5c dc 3d fa c4 e2 bd 94 01 10 bd
       0.10759801 -0.110727265 -0.035157755
