uniform/00_uniformtest/model_ep300.pth (torch, 61296 bytes, 10 tensors)

lstm.weight_ih_l0 f4 [80, 20]
0	0xbe531790	-0.20614457
1	0xbd8af7e2	-0.06785561
2	0x3def5fc0	0.11688185
3	0x3e008e66	0.1255432
4	0xbd971830	-0.0737766
5	0x3e5b3e3c	0.2141046
6	0xbc918f1f	-0.01776844
7	0xbd24a7cf	-0.040199097
8	0xbe4b65f4	-0.19863111
9	0x3dbdb131	0.09262312
10	0x3d70c569	0.058782015
11	0x3e38766e	0.18013927
12	0xbd139070	-0.03602642
13	0x3d5a7841	0.05333734
14	0xbe43f9e3	-0.19138293
15	0x3e10fcd0	0.1415894
16	0x3d9e869b	0.07740518
17	0xbe0e061a	-0.13869515
18	0xbb950758	-0.0045479946
19	0x3da88235	0.0822796
20	0x3c787b37	0.015166095
21	0x3da8141c	0.082069606
22	0x3c759c8e	0.014990939
23	0xbe3cf1e2	-0.18451646
24	0x3dc9c62d	0.09852252
25	0xbdae0f1e	-0.08498977
26	0xbe35c821	-0.17752124
27	0xbc881acd	-0.016614342
28	0x3d188e70	0.037245214
29	0x3d6e5ff9	0.058196995
30	0x3e442fe5	0.19158895
31	0xbe500a3f	-0.20316409
32	0x3e32a9fb	0.17447655
33	0xbe57044e	-0.20997736
34	0x3b648475	0.003486899
35	0x3e08786e	0.1332719
36	0xbddb331a	-0.10703106
37	0xbda70243	-0.08154728
38	0x3e42f08b	0.19037072
39	0x3e11aa80	0.14225197
40	0x3e410393	0.1884902
41	0x3de5f7ec	0.11228928
42	0xbce199e4	-0.027539201
43	0x3d4e12cc	0.050310895
44	0x3db1fd32	0.08690871
45	0x3df996bc	0.121869534
46	0x3d90282a	0.07038911
47	0x3cc8f58d	0.02453115
48	0xbe50cfbe	-0.20391747
49	0x3d485313	0.04890735
50	0x3e46f538	0.19429481
51	0x3b8c6b07	0.0042852196
52	0xbc9ffbfd	-0.019529337
53	0xbe5c6885	-0.21524246
54	0x3db6f260	0.08932948
55	0xbe1715f0	-0.14754462
56	0xbe34df27	-0.17663251
57	0x3e28c3ad	0.16480894
58	0xbe474357	-0.19459282
59	0x3dbf375f	0.09336733
60	0x3e4df043	0.20111184
61	0xbda3425c	-0.079716414
62	0x3dbc750d	0.09202013
63	0xbdbc8f90	-0.0920707
64	0xbe074ae4	-0.13212162
65	0x3e4b7614	0.19869262
66	0xbdcad749	-0.09904344
67	0x3e20172d	0.15633841
68	0x3dbe7cde	0.0930116
69	0x3c8b305c	0.016990833
70	0x3c92b9eb	0.017910918
71	0xbe03d416	-0.12873873
72	0x3e00dbad	0.125838
73	0x3dba3bdd	0.09093449
74	0x3d88e8a9	0.066850014
75	0xbe250174	-0.16113836
76	0xbe51b99b	-0.20480959
77	0xbddbba46	-0.10728888
78	0xbd6070ff	-0.05479526
79	0x3c06f8d7	0.008238039
80	0xbdb17cc6	-0.08666377
81	0xbe0d9ea1	-0.13830043
82	0x3de4c56e	0.11170469
83	0x3cea6afa	0.028615464
84	0x3e17e1dc	0.14832252
85	0xbdb0ba00	-0.08629227
86	0x3d4e2bc9	0.050334726
87	0xbe37f565	-0.17964704
88	0xbe2f4837	-0.17117392
89	0xbd5ccba9	-0.053905163
90	0x3c55f443	0.013058725
91	0x3e008811	0.12551905
92	0x3cf92f8d	0.030418182
93	0x3ddbe1ac	0.10736403
94	0xbe0a5f2c	-0.13512868
95	0xbdceb6fb	-0.100934945
96	0x3d278f3f	0.040908094
97	0x3d2470e3	0.04014672
98	0x3dd26a9d	0.10274241
99	0x3db2893b	0.08717581
100	0xbd572eee	-0.05253499
101	0x3ceddbb5	0.029035429
102	0xbe51d572	-0.20491579
103	0xbdfe53fb	-0.12418362
104	0x3e6393c0	0.22224331
105	0xbdaa7106	-0.08322339
106	0xbe3fa5fc	-0.18715662
107	0xbe0bfa55	-0.13669713
108	0x3e3a7657	0.18209206
109	0x3e08a779	0.13345136
110	0x3e3f9b12	0.18711498
111	0xbd77efb6	-0.06053134
112	0xbe52968d	-0.20565243
113	0x3d8e3f2d	0.069456436
114	0xbdfc8d87	-0.12331682
115	0x3d3ba22d	0.04580896
116	0x3d692a0c	0.056924865
117	0x3da4248a	0.08014782
118	0xbd4871ca	-0.048936643
119	0xbd0e7074	-0.034775212
120	0x3d2f5592	0.042806216
121	0x3dd511bf	0.104037754
122	0x3e400b63	0.18754344
123	0xbe272cce	-0.16325685
124	0xbe312d77	-0.173025
125	0x3d89cd53	0.067286156
126	0xbe3cb7f9	-0.18429555
127	0x3e173de3	0.14769702
128	0x3cfc32e2	0.030785982
129	0xbe053f04	-0.1301232
130	0xbe27bc46	-0.16380414
131	0x3de3422b	0.11096605
132	0xbd5810f1	-0.05275053
133	0xbe42b688	-0.19014943
134	0xbc8e90b6	-0.017402988
135	0xbe2f0876	-0.17093071
136	0x3e53dce9	0.2068974
137	0x3da8c0c3	0.082398914
138	0xbd2d3761	-0.04228914
139	0xbe3510c6	-0.1768218
140	0x3d69ec47	0.057110097
141	0xbe418ad2	-0.18900612
142	0xbe5590ce	-0.2085602
143	0x3e021cee	0.12706348
144	0x3e4a4dc2	0.19756225
145	0xbc70500b	-0.014667521
146	0x3e1376fa	0.14400855
147	0xbe4f03c8	-0.20216286
148	0xbe35615b	-0.1771292
149	0xbdfd71bf	-0.12375211
150	0x3dcbfcd6	0.09960334
151	0x3e20f846	0.15719709
152	0xbd9017cc	-0.07035789
153	0x3c46f82d	0.012144131
154	0x3d36e81a	0.044654943
155	0xbe23895f	-0.15970372
156	0x3e28a6de	0.16469905
157	0x3decde76	0.115658686
158	0xbe070f05	-0.13189323
159	0x3cee98c4	0.029125579
160	0xbdcf3250	-0.10117018
161	0xbdbbf3e1	-0.091773756
162	0x3d4990ca	0.049210347
163	0xbdeca9d0	-0.11555827
164	0x3e01e9f2	0.126869
165	0xbcc69704	-0.024241932
166	0xbe550634	-0.20803148
167	0x3d6f925e	0.058489196
168	0xbe279a62	-0.16367486
169	0x3e5bbc37	0.21458517
170	0x3d59e143	0.053193342
171	0x3e246183	0.16052823
172	0xbc654974	-0.013994563
173	0xbb723bfa	-0.0036962018
174	0x3e5d9988	0.21640599
175	0xbd21e019	-0.039520357
176	0xbe15a88f	-0.14615081
177	0x3de6307f	0.11239719
178	0x3c845a3e	0.016156312
179	0x3e60d036	0.21954426
180	0xbde8ddd6	-0.11370437
181	0x3dfad50a	0.12247665
182	0x3e577cfc	0.21043772
183	0x3e49e505	0.1971627
184	0xbdaba9bd	-0.083819844
185	0x3b6819b1	0.0035415704
186	0xbdb0eb23	-0.08638599
187	0x3cb0f3a9	0.021600561
188	0x3e3d13f0	0.18464637
189	0x3deebcc5	0.11657099
190	0xbdb8770f	-0.090070836
191	0xbe0c91a4	-0.13727432
192	0x3e2afad2	0.16697243
193	0x3df22f9c	0.11825487
194	0xbdfd0f60	-0.12356448
195	0xbe235340	-0.15949726
196	0x3d8de6b3	0.06928768
197	0xbdaa91da	-0.083286
198	0x3dd8c907	0.10585218
199	0x3de979c3	0.11400177
200	0xbe1efaed	-0.15525408
201	0x3e1e2279	0.15442838
202	0xbc4f6284	-0.012657765
203	0x3dbe5307	0.0929318
204	0x3c68dbe5	0.014212583
205	0xbd288944	-0.04114653
206	0xbe186731	-0.14883114
207	0xbe12cb44	-0.14335352
208	0x3e18b9f5	0.14914687
209	0x3e410f62	0.18853524
210	0xbe0d14e8	-0.13777506
211	0x3dd72917	0.10505884
212	0xbe3bfa5f	-0.18357228
213	0x3e10f1db	0.1415476
214	0x3dad5977	0.0846433
215	0xbe19a53f	-0.15004443
216	0xbe2e0674	-0.16994649
217	0xbe467c5c	-0.19383377
218	0x3e1b8b4e	0.1518986
219	0x3e0eb4df	0.13936184
220	0x3dcac62a	0.09901078
221	0x3e0d5965	0.13803633
222	0x3c4ec518	0.012620233
223	0xbd98282a	-0.07429536
224	0xbd49db96	-0.04928168
225	0xbe027035	-0.12738116
226	0xbd611d1e	-0.05495941
227	0x3cfdc25c	0.030976467
228	0x3e488af4	0.19584256
229	0xbddb691b	-0.10713407
230	0xbe3bbb5b	-0.18333189
231	0x3b3eda88	0.0029121954
232	0xbdd49243	-0.1037946
233	0xbdd05ccd	-0.1017395
234	0x3e199571	0.14998414
235	0x3df38be1	0.11891914
236	0xbdc32987	-0.09529405
237	0xbd00cafd	-0.031443585
238	0xbe5cad62	-0.21550515
239	0xbc48a5b9	-0.012246543
240	0xbe243db7	-0.16039167
241	0xbe122a11	-0.1427386
242	0x3da88569	0.08228571
243	0x3e4b471c	0.19851345
244	0x3e196548	0.14980042
245	0x3ddbb7b0	0.10728395
246	0xbd83dad4	-0.064382225
247	0x3dea3337	0.1143555
248	0xbd23de25	-0.040006775
249	0xbdac5c34	-0.08416024
250	0x3d524565	0.05133571
251	0x3e3d893c	0.18509382
252	0xbd7c34ed	-0.06157391
253	0xbb00da07	-0.0019661204
254	0x3ddcfba4	0.10790184
255	0xbdc6fc53	-0.09716096

lstm.weight_hh_l0 f4 [80, 20]
0	0xb9b2250e	-0.00033978414
1	0x3e12f9fb	0.14353172
2	0xbdde1351	-0.10843528
3	0x3dbad505	0.091226615
4	0x3dc9654c	0.09833774
5	0x3c205bdc	0.009787526
6	0x398c08a4	0.0002670932
7	0xbe155a41	-0.1458521
8	0x3dd0b1e2	0.101901785
9	0xbda275ea	-0.079326466
10	0xbaa1a4ac	-0.0012332401
11	0xbe3cafe4	-0.18426472
12	0xbc6a87fd	-0.014314649
13	0xbde72144	-0.11285642
14	0xbe1a205b	-0.15051405
15	0x3e0beb7a	0.13664046
16	0xbe59c5fb	-0.2126693
17	0xbe077249	-0.1322719
18	0xbdbb6e74	-0.09151927
19	0x3e2f1a93	0.17099981
20	0x3b936d79	0.004499134
21	0xbe37e989	-0.1796018
22	0xbcb0866e	-0.021548476
23	0x3e29c85c	0.16580337
24	0x3dcbf986	0.09959702
25	0xbc6c1455	-0.014409144
26	0xbd77d3df	-0.06050479
27	0x3dcc6152	0.099795
28	0x3d9f3ad2	0.07774891
29	0xbd087547	-0.03331497
30	0x3e5f3ad3	0.21799783
31	0xbd4bf531	-0.04979438
32	0x3e58606c	0.21130532
33	0x3dea36a4	0.11436203
34	0xbda6d56a	-0.08146174
35	0xbe58b994	-0.21164542
36	0xbc261ec5	-0.010139172
37	0xbde949e5	-0.113910474
38	0xbc4988cc	-0.012300681
39	0xbdcb4cc6	-0.09926753
40	0xbdc94a53	-0.09828629
41	0xbdf20ca5	-0.11818818
42	0xbda55493	-0.08072772
43	0xbe575a25	-0.21030481
44	0x3d919b24	0.07109669
45	0xbe487d84	-0.1957913
46	0xbe0ebd5b	-0.13939421
47	0x3debeee1	0.11520172
48	0xbcda9083	-0.026680237
49	0xbe54ab4f	-0.20768474
50	0xbd677ee6	-0.056517504
51	0x3e25035f	0.16114567
52	0xbe2ee909	-0.17081083
53	0x3e095fd9	0.13415469
54	0x3db98509	0.090585776
55	0x3d8150a3	0.06314208
56	0xbe56683e	-0.20938203
57	0x3e12712e	0.14300987
58	0x3e55ab28	0.20866072
59	0xbe2ecf19	-0.17071189
60	0xbda48d53	-0.08034768
61	0xbb38eeed	-0.0028218583
62	0x3e63d6de	0.22249934
63	0xbe55b2c4	-0.20868975
64	0xbe0c1646	-0.13680372
65	0x3c36fa0c	0.011168014
66	0x3e01090e	0.1260111
67	0x3e48a9d7	0.19596039
68	0x3e423e42	0.18969062
69	0x3df1116f	0.11770903
70	0xbe25c85a	-0.1618971
71	0xbe569e15	-0.20958741
72	0xbe148172	-0.14502504
73	0xbe38af2f	-0.18035577
74	0xbd025474	-0.031818822
75	0xbe63a482	-0.22230724
76	0x3e2185dd	0.15773721
77	0xbdb3b110	-0.08774006
78	0xbda5bfb9	-0.08093209
79	0xbe1e1df7	-0.15441118
80	0xbe16c13c	-0.1472215
81	0x3e35e2bd	0.17762275
82	0xbd5fda74	-0.054651693
83	0xbe0ff6d3	-0.14059
84	0xbc79e4e6	-0.015252328
85	0xbdb609c1	-0.08888579
86	0x3e1ffc3c	0.15623564
87	0x3d74aa06	0.05973246
88	0x3e2fb7d5	0.1715997
89	0x3d9c866f	0.07642829
90	0x3dafa7f8	0.08576959
91	0x3e49bc4a	0.19700733
92	0x3d1643a3	0.036685597
93	0x3e3a75b3	0.18208961
94	0x3df37865	0.11888198
95	0xbda9befa	-0.08288379
96	0xbe37d574	-0.1795252
97	0x3e42899d	0.18997808
98	0xbe5c263f	-0.21498965
99	0x3e1a92df	0.1509509
100	0xbd9ad8aa	-0.07560857
101	0xbd837b32	-0.06419982
102	0xbdfd3572	-0.123637095
103	0xbe0c98ac	-0.13730115
104	0x3dde03c3	0.10840561
105	0xbcc29e39	-0.023757087
106	0x3c90bc7c	0.017668001
107	0xbd51a4ca	-0.051182546
108	0x3e23b444	0.15986735
109	0xbdd9e7ad	-0.10639892
110	0x3e27c0b6	0.16382107
111	0xbda876c3	-0.08225777
112	0xbdbed799	-0.09318466
113	0xbd1456dd	-0.03621565
114	0xbdac5cce	-0.084161386
115	0x3ca17891	0.01971081
116	0xbe0d338a	-0.13789192
117	0xbd242aed	-0.04008
118	0x3e07dbc9	0.13267435
119	0xbd24dd15	-0.040249903
120	0xbe12e898	-0.1434654
121	0x3e0cf39c	0.13764805
122	0x3e428166	0.18994674
123	0x3daf1a3b	0.08549925
124	0x3cb91d6f	0.022597043
125	0x3e0dc834	0.13845903
126	0x3e37801e	0.17919967
127	0x3e201513	0.15633039
128	0x3e026ede	0.12737605
129	0xbe2ec9a2	-0.17069104
130	0x3d7e5a37	0.062097754
131	0xbd4703e3	-0.04858769
132	0xbe0a6b97	-0.13517605
133	0x3cc004c4	0.023439772
134	0x3e5b11bd	0.21393485
135	0x3e540bb2	0.20707586
136	0x3e0b911c	0.13629574
137	0x3e301e35	0.17199023
138	0x3d02e7ac	0.03195922
139	0xbe10bf10	-0.14135385
140	0xbe0c9898	-0.13730085
141	0x3dbc311e	0.09189056
142	0x3d94b0cb	0.07260283
143	0x3e288954	0.16458637
144	0xbb8c6e62	-0.0042856196
145	0x3e3f063f	0.18654726
146	0xbdf8b6a3	-0.1214421
147	0xbe0b12cd	-0.1358139
148	0x3da4c1dc	0.08044788
149	0x3e5bfa68	0.21482241
150	0xbccaf702	-0.024775986
151	0x3e5ff191	0.21869494
152	0x3e4efb4b	0.20213048
153	0xbe3ab712	-0.18233898
154	0xbe18d05d	-0.14923234
155	0xbe0deea8	-0.13860571
156	0xbe29533d	-0.16535659
157	0xbe2ca0d1	-0.16858222
158	0xbe5338f2	-0.20627192
159	0xbdc2b6ee	-0.09507547
160	0x3e1ca96c	0.15299004
161	0xbdbbc20e	-0.09167872
162	0x3e4b4bea	0.19853178
163	0xbe548d95	-0.20757134
164	0xbe248158	-0.16064966
165	0x3de5f2bd	0.11227939
166	0x3e6449d3	0.22293787
167	0xbe383a72	-0.17991045
168	0x3d80d641	0.06290866
169	0x3e290220	0.16504717
170	0x3e0d6173	0.13806705
171	0xbe60905a	-0.21930066
172	0x3e153871	0.14572312
173	0x3db21416	0.08695237
174	0xbbe832f6	-0.007086153
175	0xbe38006a	-0.17968908
176	0x3c459b20	0.01206091
177	0xbd82ed92	-0.06392969
178	0x3e54fe12	0.20800045
179	0xbd361333	-0.044451904
180	0xbe17e572	-0.1483362
181	0x3df06aa3	0.11739089
182	0xbe3713de	-0.17878672
183	0xbe5345f8	-0.2063216
184	0x3e25f07e	0.16205022
185	0x3c5b9c3a	0.0134039465
186	0xbd0e95d3	-0.034810852
187	0x3dbf9b68	0.09355813
188	0x3e193f3f	0.14965533
189	0xbd4bf45b	-0.049793582
190	0x3e38e92e	0.18057701
191	0x3e1e4999	0.15457763
192	0x3d7a7a21	0.061151627
193	0xbdd49842	-0.103806034
194	0x3e12b9e2	0.14328721
195	0xbd3a0a60	-0.04542005
196	0x3d7db19e	0.061936967
197	0x3e24e8e6	0.16104469
198	0xbda4d3aa	-0.08048184
199	0x3e52d80a	0.20590225
200	0xbe3910d4	-0.18072826
201	0x3e384775	0.17996009
202	0xbd43a6ea	-0.047766604
203	0x3df4e964	0.11958578
204	0xbd8ed270	-0.069737315
205	0xbbd955d8	-0.006632548
206	0xbc6c104f	-0.014408185
207	0xbde25676	-0.11051647
208	0x3db5969c	0.08866617
209	0x3cb45310	0.022012264
210	0x3ddf932e	0.10916744
211	0xbe417ce9	-0.18895306
212	0xbca81dfe	-0.020522114
213	0x3e3607e7	0.17776452
214	0xbe23fc43	-0.16014199
215	0x3cb3dd39	0.021956073
216	0xbe61ba9d	-0.22043844
217	0x3e0adac7	0.1356002
218	0xbd8a044e	-0.06739102
219	0xbdadec64	-0.084923536
220	0xbe083a90	-0.1330359
221	0xbdba7823	-0.091049455
222	0x3e221cd6	0.15831313
223	0x3dfccbf5	0.12343589
224	0x3d01ab77	0.031657662
225	0x3d11b107	0.035569217
226	0xbd57abe6	-0.05265417
227	0x3e257c0e	0.16160604
228	0x3e4c33d5	0.19941647
229	0x3e36edac	0.17864102
230	0x3df45bee	0.11931597
231	0xbe049c72	-0.12950304
232	0xbe3e1d23	-0.18565802
233	0xbdb6425a	-0.08899374
234	0x3dc1e1e3	0.094669126
235	0xbe015c3e	-0.12632844
236	0x3cdb4ad5	0.026769081
237	0xbd6b30a5	-0.057419438
238	0xbd3d5730	-0.046225727
239	0xbe1f05fb	-0.15529625
240	0xbd9b4185	-0.07580856
241	0x3bb11204	0.005403759
242	0xbe2e0ac0	-0.16996288
243	0x3a76f3e7	0.00094204996
244	0xbc926a50	-0.01787296
245	0xbe27f89a	-0.16403428
246	0x3dcbf8c2	0.09959556
247	0xbdad33bb	-0.084571324
248	0xbe1e73b3	-0.15473823
249	0x3e0ab660	0.13546133
250	0xbe1cfe1a	-0.15331307
251	0xbe5e6d9a	-0.21721497
252	0xbe371a3d	-0.17881103
253	0xbe166fc2	-0.1469107
254	0x3e57ca53	0.21073274
255	0xbe3e5487	-0.18586932

lstm.bias_ih_l0 f4 [80]
0	0xbe341a24	-0.17588097
1	0xbe1d5b68	-0.153669
2	0x3cf6ac59	0.030111479
3	0xbe376937	-0.1791123
4	0x3e558ff0	0.20855689
5	0x3dd91978	0.10600561
6	0xbd75d920	-0.06002152
7	0xbda7c864	-0.08192518
8	0xbe36ecae	-0.17863724
9	0xbe2d003f	-0.16894625
10	0xbd4c02b1	-0.049807254
11	0xbdcf7866	-0.10130386
12	0xbc0e8173	-0.008697855
13	0x3db6a224	0.089176446
14	0x3d64df4c	0.055877015
15	0xbe5c0025	-0.2148443
16	0x3db1458b	0.086558424
17	0xbd0758bd	-0.03304361
18	0x3e1eefff	0.15521239
19	0xbe2179c1	-0.15769102
20	0xbdba5cea	-0.09099753
21	0xbe10f245	-0.14154918
22	0xbddd1d84	-0.10796645
23	0x3e61ae00	0.22039032
24	0xbdfdf574	-0.12400332
25	0xbd160e72	-0.03663487
26	0x3e581905	0.21103294
27	0xbdc39e40	-0.09551668
28	0xbd221cd6	-0.03957828
29	0x3e13f64b	0.14449422
30	0xbe4bba93	-0.19895391
31	0xbbc52b36	-0.006017114
32	0x3e1056ae	0.14095566
33	0xbdc2beb3	-0.09509029
34	0xbde3f396	-0.11130445
35	0xbe3d93d8	-0.18513429
36	0x3df56822	0.119827524
37	0xbe4713c8	-0.1944114
38	0x3d6a4860	0.05719793
39	0x3dd3c87c	0.10340974
40	0x3e0233ad	0.12715025
41	0xbe5a997c	-0.21347612
42	0x3db518d8	0.08842629
43	0x39aa6e28	0.00032507
44	0xbe0b158c	-0.13582438
45	0xbdfcfdd6	-0.12353103
46	0xbce18a84	-0.02753187
47	0xbd94e62b	-0.072704636
48	0x3dab86c5	0.083753146
49	0xbe027ee7	-0.12743722
50	0x3c45b261	0.012066455
51	0x3d9592a3	0.07303359
52	0xbcf27fad	-0.029601896
53	0xbd8f8520	-0.070078135
54	0x3dbb72ad	0.09152732
55	0x3b0527f6	0.0020318008
56	0x3d67d9c5	0.056604166
57	0xbd69736b	-0.056994837
58	0x3dfb8dd6	0.122829124
59	0x3d80ebbc	0.06294963
60	0x3e557ef2	0.20849207
61	0xbd28b482	-0.04118777
62	0xbd71a0f6	-0.058991395
63	0x3d32c076	0.043640576
64	0x3e0dd90b	0.13852327
65	0xbdd4847f	-0.10376834
66	0x3e3bea99	0.1835121
67	0x3d59863a	0.053106524
68	0x3a8427b5	0.0010082634
69	0xbe0c6794	-0.13711387
70	0x3dc6cb91	0.09706796
71	0xbdec1b32	-0.115286246
72	0xbc8b3ba6	-0.016996216
73	0x3cdf8ca3	0.02728874
74	0xbd025e76	-0.031828366
75	0xbdf8c94b	-0.121477686
76	0xba868706	-0.0010263629
77	0x3da92b65	0.0826023
78	0x3e2a4053	0.166261
79	0xbba98e8d	-0.005174464

lstm.bias_hh_l0 f4 [80]
0	0x3d918c82	0.07106878
1	0x3e3f51ba	0.1868352
2	0xbd9b8ff0	-0.07595813
3	0x3e185792	0.14877155
4	0x3e098d8b	0.134329
5	0xbceacee0	-0.028663099
6	0xbc6d1ca3	-0.01447216
7	0xbdad4997	-0.08461302
8	0xbd55bdb3	-0.052182864
9	0xbd27c5b2	-0.04096002
10	0xbd3bd6c1	-0.045859102
11	0xbcc87ba1	-0.024473013
12	0x3db33829	0.08750946
13	0xbdf7b12f	-0.12094342
14	0xbe5d2358	-0.21595514
15	0xbd8d6977	-0.069048814
16	0xbe0bba97	-0.13645397
17	0xbd9ed21e	-0.077549204
18	0x3da0cd89	0.07851703
19	0xbe5c6e9b	-0.21526568
20	0x3e1d3984	0.15353972
21	0xbe412130	-0.18860316
22	0x3d7d6cc6	0.061871313
23	0xbe0bde45	-0.13659008
24	0x3c876909	0.016529577
25	0xbe4d7cce	-0.2006714
26	0x3d62b3cd	0.055347253
27	0x3c150e63	0.009097668
28	0xbd9be82e	-0.07612644
29	0xbc97fa13	-0.018551862
30	0x3df8d31b	0.1214964
31	0x3e4cd5a5	0.20003374
32	0xbc07ced5	-0.008289059
33	0x3dee4b09	0.116354056
34	0x3e4b0efc	0.19829935
35	0xbc4f1306	-0.012638813
36	0x3e321a72	0.173929
37	0x3e62526f	0.22101758
38	0x3e3e4f38	0.18584907
39	0x3e0845aa	0.13307825
40	0xbdb2d712	-0.08732428
41	0xbca17e28	-0.019713476
42	0xbd9a0256	-0.07519977
43	0x3e2a6403	0.16639714
44	0xbdb6c7ee	-0.08924852
45	0x3df2d0c6	0.118562266
46	0xbe3a76f8	-0.18209445
47	0x3e536874	0.20645314
48	0x3e322f2f	0.17400812
49	0xbdacdc7c	-0.084404916
50	0xbcab7261	-0.020928564
51	0xbe0df086	-0.13861284
52	0xbe454c46	-0.19267377
53	0x3e446b99	0.1918167
54	0x3c6edf8a	0.014579663
55	0xbdd3b6e1	-0.10337616
56	0x3d8f6503	0.07001688
57	0xbddca773	-0.10774126
58	0xbe00599d	-0.12534185
59	0x3df885ef	0.12134921
60	0xbc6908d7	-0.014223299
61	0xbdb92e6a	-0.09042056
62	0xbd1676fb	-0.036734562
63	0x3e049066	0.12945709
64	0xbdcd6116	-0.10028283
65	0x3d6c3526	0.057667874
66	0x3d68de45	0.056852598
67	0x3c2f0350	0.010681942
68	0xbd12c662	-0.035833724
69	0x3df72d6d	0.12069211
70	0xbe24a544	-0.16078669
71	0xbe2bbc90	-0.1677115
72	0x3dd30a36	0.10304682
73	0x3d243654	0.040090874
74	0xbd26b03a	-0.040695406
75	0xbdd26586	-0.1027327
76	0x3d46e52b	0.048558395
77	0xbaa5ee23	-0.0012659471
78	0xbbea4d68	-0.007150341
79	0x3e186570	0.14882445

net.0.weight f4 [128, 20]
0	0xbd18c81b	-0.03730021
1	0xbe09103c	-0.13385099
2	0x3e3b10cf	0.1826813
3	0x3e2b2645	0.16713817
4	0x3e2ac7f0	0.16677833
5	0xbe128688	-0.14309132
6	0x3e36776e	0.17818996
7	0x3e4ff20f	0.20307182
8	0xbe35d4cf	-0.17756961
9	0xbe13d3a0	-0.14436197
10	0x3dd64eb7	0.104642324
11	0xbe1bae85	-0.15203293
12	0x3c2b51d3	0.01045652
13	0xbe1c2c5b	-0.15251295
14	0x3e30fe9d	0.17284627
15	0x3e34c4a3	0.17653136
16	0x3dfefc12	0.12450422
17	0xbb484d25	-0.003056356
18	0xbe3def74	-0.18548375
19	0x3cdcfa94	0.026974954
20	0xbdf576a5	-0.1198552
21	0xbe11198a	-0.14169899
22	0xbd83a5fb	-0.06428143
23	0x3e488f66	0.19585952
24	0x3bda3538	0.006659176
25	0x3e5f19e3	0.21787219
26	0xbe3abe22	-0.18236592
27	0x3e4cb8b7	0.19992338
28	0x3da4f16d	0.08053861
29	0x3d80b150	0.0628382
30	0xbe09ef34	-0.13470155
31	0x3e31f0ac	0.17376965
32	0x3e2de246	0.16980848
33	0xbe4524e2	-0.19252351
34	0x3e31d081	0.17364694
35	0x3d23ebab	0.040019672
36	0x3d39257e	0.04520177
37	0x3dd2005e	0.10253976
38	0x3bc6b676	0.0060642315
39	0x3d56061b	0.052251916
40	0xbe0deee2	-0.13860658
41	0xbe25bed2	-0.16186073
42	0xbe605012	-0.21905544
43	0xbe0af81d	-0.1357121
44	0xbe3f3b6a	-0.18675008
45	0xbe1ab825	-0.15109308
46	0xbdeaf762	-0.11472966
47	0x3e064233	0.1311119
48	0x3e2e2691	0.170069
49	0x3cea78a9	0.028621988
50	0x3e0028c9	0.12515558
51	0xbda4b600	-0.08042526
52	0x3e1d2a6a	0.15348211
53	0xbdf7ca20	-0.12099099
54	0xbc45d501	-0.01207471
55	0x3e530d8e	0.2061064
56	0x3e3dfe58	0.18554056
57	0x3e454c42	0.19267371
58	0x3e156302	0.1458855
59	0x3e54fa95	0.20798714
60	0x3d2a8454	0.041630104
61	0xbde8504d	-0.11343441
62	0xbe34ff83	-0.17675595
63	0xbda28e31	-0.07937277
64	0xbe0b7903	-0.13620381
65	0x3e09e492	0.13466099
66	0x3aa80e1e	0.001282159
67	0xbcc4f938	-0.024044618
68	0xbe052706	-0.13003168
69	0xbe234150	-0.15942883
70	0x3e140fdf	0.1445918
71	0x3e622422	0.22084096
72	0x3b82fdc1	0.003997535
73	0xbd73c0d7	-0.05951008
74	0x3be71595	0.0070521333
75	0x3e1ee8f7	0.15518557
76	0x3e3bb1f9	0.1832961
77	0x3dd8614f	0.10565435
78	0xbe5a5b58	-0.21323907
79	0x3dc492c4	0.09598306
80	0x3cd3a72b	0.025836548
81	0xbe4a55be	-0.1975927
82	0xbdf546a1	-0.11976362
83	0x3ca7d1f6	0.02048586
84	0x3d9a0247	0.075199656
85	0x3e4a1fed	0.19738741
86	0x3d5af1df	0.053453322
87	0x3da98dcf	0.08279001
88	0xbdd30b16	-0.10304849
89	0x3ca726c3	0.020404225
90	0x3e42fdd0	0.19042134
91	0xbd92c972	-0.07167329
92	0x3e39354a	0.18086734
93	0xbdf3ba78	-0.119008005
94	0x3d40fca8	0.04711595
95	0xbdaacd28	-0.08339912
96	0x3d70e03a	0.05880759
97	0xbdd9a98f	-0.10628044
98	0x3dc21d9f	0.09478306
99	0x3e2c6aae	0.1683757
100	0x3e0a5faf	0.13513063
101	0x3c9b95f6	0.018992405
102	0xbdc471d0	-0.095920205
103	0xbe1753cc	-0.1477806
104	0x3de80944	0.11329892
105	0x3d8376c2	0.06419136
106	0x3dff63c5	0.124702014
107	0xbd4151f9	-0.047197316
108	0xbde82c61	-0.113365896
109	0xbbd64304	-0.0065387506
110	0x3da51ccc	0.08062133
111	0x3e1ce755	0.15322621
112	0xbe4cfb59	-0.20017757
113	0x3e114d09	0.14189543
114	0x3d3f31d5	0.046678383
115	0x3e498281	0.1967869
116	0xbe1e1211	-0.1543658
117	0x3d51c5b7	0.051213946
118	0x3e3477d7	0.1762384
119	0xbd9e7624	-0.07737377
120	0xbdf81d14	-0.12114921
121	0xbde67512	-0.11252798
122	0xbe3f0313	-0.18653516
123	0x3e28ae84	0.16472822
124	0xbe29355c	-0.16524261
125	0xbd531009	-0.051528964
126	0xbbe47323	-0.006971733
127	0xbb045ada	-0.0020195753
128	0x3e45b56f	0.19307493
129	0xbe015031	-0.12628247
130	0xbe3a9d9f	-0.1822419
131	0xbe432763	-0.19057994
132	0xbd9ec5aa	-0.07752545
133	0x3e457c92	0.19285801
134	0x3dad5863	0.08464124
135	0xbe0cbffa	-0.13745108
136	0xbd6f495e	-0.058419578
137	0x3c9ee365	0.01939554
138	0xbe47096c	-0.19437188
139	0x3d88c91e	0.06678985
140	0x3b35f3e4	0.0027763778
141	0xbe327bc7	-0.1743003
142	0xbd737c8a	-0.05944494
143	0xbe62dfb5	-0.2215565
144	0xbd6e0635	-0.05811139
145	0xbda208b6	-0.07911818
146	0x3e0a4a96	0.13505015
147	0xbe5b5378	-0.2141856
148	0x3c6ec259	0.014572703
149	0xbe377f05	-0.17919548
150	0xbe1a81b3	-0.15088539
151	0x3d3adaac	0.045618698
152	0x3d3770c6	0.044785284
153	0xbdbe5693	-0.092938565
154	0x3caab1b5	0.02083669
155	0x3e594280	0.21216774
156	0x3d3be254	0.04587014
157	0xbe38a1e5	-0.18030508
158	0x3d84f988	0.06492907
159	0xbe1f7482	-0.15571788
160	0x3dd8b731	0.10581816
161	0xbd6030d6	-0.054734074
162	0xbcdf399e	-0.027249154
163	0x3c06ea7b	0.008234615
164	0xbdd7bbcf	-0.105338685
165	0x3dd1053c	0.102060765
166	0xbd9a5c06	-0.07537083
167	0xbd541c05	-0.051784534
168	0x3e2aba50	0.16672635
169	0xbde4b98a	-0.11168201
170	0x3e31a08c	0.173464
171	0xbbcce33f	-0.006252676
172	0x3e429e4f	0.19005702
173	0xbddee9e2	-0.10884453
174	0x3e23fcc3	0.1601439
175	0xbe55d8bc	-0.20883459
176	0xbd419562	-0.047261603
177	0xbe353ede	-0.17699763
178	0x3e40f115	0.18841965
179	0x3d9fac0b	0.077964865
180	0x3d8c41f3	0.06848516
181	0xbe44b731	-0.19210507
182	0xbda4c0a1	-0.080445535
183	0x3dbdc340	0.092657566
184	0xbe10717b	-0.1410579
185	0xbcadb75f	-0.021205602
186	0x3d8eb0c3	0.06967308
187	0x3e3ae9da	0.1825327
188	0xbd9220b1	-0.07135142
189	0x3d6f0243	0.058351766
190	0xbe36469e	-0.17800376
191	0xbc850f2c	-0.016242586
192	0xbe00eb97	-0.1258987
193	0xbe4ae1e1	-0.19812728
194	0xbd95d52b	-0.07316049
195	0xbe55f352	-0.208936
196	0x3e09efdb	0.13470404
197	0x3bae0749	0.005310927
198	0x3b35648c	0.0027678339
199	0x3cb08b00	0.021550655
200	0x3d669b60	0.05630052
201	0xbdaa397b	-0.08311745
202	0x3e02fecf	0.12792514
203	0xbe493d94	-0.19652396
204	0xbe5dab8b	-0.2164747
205	0xbdad4ac7	-0.08461528
206	0x3dc85b6f	0.097830646
207	0xbddd606e	-0.10809408
208	0x3ddab21f	0.10678505
209	0x3b908499	0.004410338
210	0xbddc80cf	-0.10766756
211	0xbd81f989	-0.06346423
212	0xbd159731	-0.03652114
213	0x3e456268	0.1927582
214	0x3e55f59e	0.20894477
215	0x3df2d99e	0.118579134
216	0x3ca0405f	0.019561945
217	0xbe058cbb	-0.13041966
218	0xbd8b434c	-0.06799945
219	0x39b97ad2	0.00035377458
220	0x3e3ba095	0.18322976
221	0xbd3fd4e2	-0.04683388
222	0x3c48a544	0.012246434
223	0x3e298460	0.16554403
224	0xbca3579a	-0.019939233
225	0xbd1bc423	-0.038028847
226	0xbde7e846	-0.113235995
227	0xbd6e370a	-0.058157958
228	0xbd6a829d	-0.05725347
229	0xbdd3a11f	-0.10333466
230	0x3dccc7b8	0.09999031
231	0xbe5eeb7d	-0.21769519
232	0xbe57b0c6	-0.21063527
233	0x3dbf516f	0.09341704
234	0xbd894125	-0.067018785
235	0xbe4c6ec1	-0.19964124
236	0xbd1c24cb	-0.038121026
237	0x3e3f68f4	0.1869238
238	0xbd4a17e3	-0.049339186
239	0x3d2cfd59	0.0422338
240	0xbe62b00a	-0.22137466
241	0x3e1322f1	0.14368798
242	0xbe4c5697	-0.19954906
243	0xbdd791ec	-0.10525879
244	0x3e4d900b	0.2007448
245	0x3df8daa8	0.1215108
246	0x3e46d751	0.19418074
247	0xbe07f39d	-0.13276525
248	0x3dfd729b	0.12375375
249	0x3e4fa4bf	0.2027769
250	0xbc5653c5	-0.013081496
251	0xbcf783f1	-0.030214282
252	0x3ddf6c25	0.10909299
253	0x3e5e3397	0.21699367
254	0xbb4322fe	-0.0029775496
255	0x3dc58b86	0.096457526

net.0.bias f4 [128]
0	0x3e17c901	0.1482277
1	0x3e0d65a2	0.13808301
2	0xbe6354a5	-0.22200258
3	0x3dc313f9	0.09525294
4	0xbcc0853b	-0.02350103
5	0xbe1622c2	-0.14661697
6	0xbe02381a	-0.12716714
7	0x3d82e010	0.06390393
8	0xbe5ee28f	-0.21766113
9	0x3df49803	0.119430564
10	0xbad82b95	-0.0016492481
11	0xbd37347b	-0.044727784
12	0x3b505e93	0.0031794652
13	0xbe01d3a4	-0.1267839
14	0xbe18edc8	-0.14934456
15	0x3e223541	0.15840627
16	0xbdadb977	-0.0848264
17	0xbe056d39	-0.13029946
18	0xbdd2671e	-0.10273574
19	0x3cb81f00	0.02247572
20	0xbdceca03	-0.100971244
21	0xbba668ad	-0.0050783963
22	0x3e2a2c60	0.1661849
23	0xbdee4242	-0.116337314
24	0xbe27c12c	-0.16382283
25	0xbe337c9f	-0.17528008
26	0x3b1ecb67	0.0024230124
27	0xbc077381	-0.008267284
28	0x3e1e88dc	0.15481895
29	0x3e2d133c	0.16901869
30	0xbe357dae	-0.17723724
31	0x3cf718cd	0.030163193
32	0x3b8a25f5	0.0042159506
33	0x3dfd9c8a	0.12383373
34	0xbe52b89a	-0.20578232
35	0xbc8dd518	-0.017313525
36	0x3c1066cc	0.008813571
37	0x3e4ca519	0.19984855
38	0x3dce60da	0.10077067
39	0xbd12aa83	-0.035807144
40	0x3e4101b6	0.18848309
41	0x3d4f53bb	0.05061696
42	0xbaff7384	-0.0019489382
43	0xbcad9e90	-0.021193773
44	0x3e3bc337	0.18336187
45	0xbd5ab716	-0.05339726
46	0x3d895983	0.06706526
47	0x3d91d7f3	0.07121267
48	0xbe2deca6	-0.16984805
49	0x3e2df8b6	0.16989407
50	0xbd626219	-0.055269334
51	0x3d57244f	0.05252486
52	0xbdd551aa	-0.10415967
53	0xbe403fa9	-0.18774284
54	0x3df2a3b4	0.1184763
55	0xbe4e4399	-0.20142974
56	0xbe328acd	-0.17435761
57	0xbdc67500	-0.09690285
58	0xbe08b65c	-0.13350815
59	0xbe0c79cd	-0.13718338
60	0x3e41e74c	0.18935889
61	0xbe1d8c54	-0.15385562
62	0x3d44c441	0.048038725
63	0x3d16699d	0.036721814
64	0x3e18f29c	0.14936298
65	0xbe41b5f4	-0.18917066
66	0x3d8a6edf	0.06759428
67	0xbddd5e81	-0.10809041
68	0xbe07420b	-0.13208787
69	0xbb7fe3dd	-0.003904573
70	0xbde01dc5	-0.10943178
71	0xbe0873c1	-0.13325407
72	0x3e284bd2	0.16435173
73	0x3db29c76	0.08721249
74	0x3ddf2bdd	0.10897038
75	0xbd42e1a7	-0.04757848
76	0x3e070487	0.13185321
77	0x3de75c1b	0.112968646
78	0x3da5481a	0.08070393
79	0x3d69de9d	0.057097066
80	0xbdb37fae	-0.08764587
81	0xba9d143d	-0.0011984181
82	0x3dfd9b94	0.1238319
83	0xbe4cff60	-0.20019293
84	0xbcc674ff	-0.02422571
85	0x3dcf65d5	0.10126845
86	0x3df8f716	0.12156503
87	0xbbb048b7	-0.005379762
88	0x3df76ead	0.120816566
89	0x3d24c21a	0.040224172
90	0x3d6117e6	0.054954432
91	0x3d868b94	0.06569591
92	0x3e60cd9c	0.21953434
93	0xbe486ccb	-0.19572751
94	0xbd73932d	-0.05946653
95	0x3c77ce44	0.015124861
96	0x3e38685b	0.18008558
97	0xbdd1f692	-0.10252108
98	0xbd043e05	-0.03228571
99	0xbe4d4eaf	-0.20049547
100	0xbd88b8b1	-0.06675852
101	0xbe0d2e98	-0.13787305
102	0x3e1aae9d	0.15105672
103	0xbd8c90db	-0.068635665
104	0xbd082350	-0.0332368
105	0xbe1a1dd9	-0.15050448
106	0x3e5b4f55	0.21416982
107	0x3e2e1c4c	0.17002982
108	0x3ce1f62c	0.027583204
109	0x3e46be52	0.19408539
110	0xbd57070e	-0.052496962
111	0xbcdbc9dc	-0.026829652
112	0xbd780950	-0.060555756
113	0xbe2354a8	-0.15950263
114	0x3aae9091	0.0013318231
115	0xbbec16a7	-0.007204849
116	0xbd7a2758	-0.061072677
117	0xbe3550b5	-0.17706569
118	0x3e57d0f1	0.21075799
119	0xbe48dfea	-0.19616666
120	0xbc48f4a8	-0.012265362
121	0xbd2c5c8b	-0.042080443
122	0xbe3b2798	-0.18276823
123	0x3dc0cb74	0.094138056
124	0xbd883677	-0.06651013
125	0xbe3a4e44	-0.18193918
126	0x3d18ec01	0.037334446
127	0xbd987c35	-0.074455656

net.2.weight f4 [64, 128]
0	0xbd9f67d8	-0.077834785
1	0xbcdbfe8f	-0.026854781
2	0x3c930e2a	0.01795109
3	0xbcc2235a	-0.023698498
4	0xbc8c9c93	-0.017164504
5	0x3cb1f459	0.02172296
6	0x3d617345	0.05504157
7	0x3c82d746	0.015971791
8	0x3bdc45a5	0.0067221695
9	0xbd688456	-0.05676683
10	0xbd957e53	-0.07299485
11	0xbd34dd6b	-0.044156473
12	0xbbc37cc6	-0.005965802
13	0xbd0a5b8b	-0.03377871
14	0x3c6a9ffe	0.014320372
15	0xbca6ee65	-0.020377347
16	0xbc57d4f8	-0.013173334
17	0x3d5bba4f	0.053644475
18	0xbda186ce	-0.0788704
19	0x3d459299	0.04823551
20	0xbcad344d	-0.021143103
21	0x3d13d65d	0.036093105
22	0xbc9ea18a	-0.019364137
23	0xbd737878	-0.05944106
24	0xbcf32dbf	-0.0296849
25	0xba15736d	-0.00057010987
26	0xbc6935ff	-0.014234065
27	0xbd3bbeb6	-0.045836173
28	0x3c749971	0.014929161
29	0x3c2ead58	0.010661446
30	0xbc9fccef	-0.0195069
31	0x3d4f92b3	0.050677013
32	0x3d364dad	0.04450767
33	0x3da2efbf	0.07955884
34	0xbd925716	-0.071455166
35	0xbdb3834a	-0.08765276
36	0xbbe900f7	-0.0071107107
37	0x3d106d66	0.03526058
38	0xbd5c36a7	-0.053763058
39	0xbd95427a	-0.0728807
40	0xbcfbd55b	-0.030741384
41	0x3d1e5047	0.038650777
42	0x3da2d0b2	0.07949962
43	0xbd7c935b	-0.061663967
44	0x39163fc8	0.00014328875
45	0xbd1e200d	-0.038604785
46	0x3d56ba31	0.05242366
47	0x3b119f33	0.0022220134
48	0xbce20c3f	-0.02759373
49	0x3cc58814	0.024112739
50	0x3da96b7b	0.082724534
51	0xbb1d75af	-0.0024026444
52	0x3d2864b5	0.041111667
53	0x3d4690a5	0.048477788
54	0x3d7a472a	0.061103024
55	0xbceabe66	-0.028655242
56	0xbd2079ec	-0.039178774
57	0x3c45589d	0.012045053
58	0x3d2519ed	0.040307928
59	0xbd271796	-0.040793978
60	0x3cf34f44	0.029700883
61	0x3d7ba7b9	0.06143925
62	0xbd833c29	-0.06407959
63	0x3d2b99b7	0.04189464
64	0xbd40e1da	-0.04709039
65	0x3da3e8df	0.08003401
66	0xbd2ba280	-0.04190302
67	0x3d01042f	0.03149813
68	0x3d5a2375	0.05325647
69	0x3d31b710	0.043387473
70	0xbd22e5cf	-0.039769944
71	0x3d0663df	0.03281009
72	0x3c7a0874	0.015260804
73	0xbd81e194	-0.06341854
74	0x3d8a289e	0.06746028
75	0xbc66cfc9	-0.014087626
76	0xbd4ed9b6	-0.050500594
77	0xbd87d173	-0.06631746
78	0xbd1a2270	-0.0376305
79	0xbbd00737	-0.0063485163
80	0xbd7ccea7	-0.061720517
81	0x3d16d1b0	0.036821067
82	0x3db24969	0.08705408
83	0x3cb6a208	0.02229406
84	0x3d3b3d22	0.045712598
85	0x3b9235fd	0.0044620023
86	0xbd3b1468	-0.045673758
87	0x3bfe2ecb	0.007757043
88	0x3db07d32	0.08617629
89	0x3d2b5c8a	0.0418363
90	0xbcf6d803	-0.0301323
91	0xbc1f1e09	-0.009711751
92	0x3b41ac35	0.0029552106
93	0xbda76bcf	-0.0817486
94	0x3d98fa61	0.07469631
95	0x3d819ff5	0.063293375
96	0x3d9cf5c0	0.076640606
97	0xbcb1d816	-0.021709483
98	0x3cab6695	0.020922938
99	0x3d1c4ca4	0.038159028
100	0xbd0ac5d7	-0.03388008
101	0x3ce2f63c	0.027705304
102	0xbd3da188	-0.046296626
103	0xbdad0cae	-0.08449684
104	0x3d1db3b5	0.03850146
105	0xbd19850d	-0.037480403
106	0x3d7248e6	0.059151553
107	0xbd901091	-0.0703441
108	0xbd41ceb6	-0.047316276
109	0x380dafc0	3.37807e-05
110	0xbcb0d67a	-0.021586645
111	0xbdae5b72	-0.085135356
112	0xbd7de3d7	-0.061984863
113	0x3c84db8c	0.01621797
114	0xbc634d0e	-0.013873352
115	0xbd68e3e2	-0.05685795
116	0xbd122b35	-0.035685737
117	0xbd9ae6ca	-0.07563551
118	0xbcce3492	-0.025171552
119	0xbbb365f7	-0.0054748016
120	0x3daf7d2b	0.08568796
121	0x3d9bdda3	0.07610633
122	0x3d932072	0.07183923
123	0x3d930f88	0.07180697
124	0xbccc3d38	-0.024931535
125	0xbd96f59e	-0.073710665
126	0xbd8db090	-0.06918442
127	0xbda96175	-0.082705416
128	0xbd8b6bed	-0.068076946
129	0xbda76f8b	-0.08175572
130	0x395a29c2	0.00020805656
131	0xbcd90802	-0.026493076
132	0x3d01e48f	0.03171211
133	0x3d8340be	0.06408833
134	0xbd9fd78f	-0.078047864
135	0x3d42536a	0.04744283
136	0xbd3e2891	-0.046425406
137	0xbd00b868	-0.031425864
138	0xbd9d9726	-0.07694845
139	0xbd42e99e	-0.047586076
140	0x3da584f1	0.08081997
141	0x3d739503	0.05946828
142	0xbd8e7519	-0.06955928
143	0x3cb70017	0.02233891
144	0x3b450db6	0.0030067987
145	0xbd7a8b8b	-0.061168235
146	0x3ce42564	0.02784986
147	0xbdafaf8c	-0.08578405
148	0x3d89b4b8	0.067239225
149	0xbd747a8d	-0.059687186
150	0x3cf2184e	0.029552605
151	0x3da81ea3	0.082089685
152	0xbc43e7b6	-0.0119571
153	0x3d743e49	0.059629712
154	0x3d2ddf45	0.042449255
155	0xbda5794b	-0.080797754
156	0x3d9f3608	0.077739775
157	0x3d919b7a	0.07109733
158	0x3d9c4d2e	0.07631908
159	0x3d3614e4	0.044453517
160	0xb6977695	-4.5139554e-06
161	0x3d8d75a7	0.06907206
162	0x3d78d331	0.060748283
163	0xbd6814a6	-0.056660317
164	0x3d8ad868	0.067795575
165	0x3d206d6b	0.03916685
166	0xbd43ffd1	-0.047851387
167	0xbd1a5b6d	-0.037684847
168	0x3d84261e	0.06452583
169	0xbd61a07d	-0.055084694
170	0x3d9bf914	0.07615867
171	0xbd5247fb	-0.051338177
172	0x3d9729b1	0.07380999
173	0x3d646b82	0.05576659
174	0xbd06a5ae	-0.03287285
175	0xbd16e789	-0.036841903
176	0xbcb34733	-0.021884536
177	0x3d970d84	0.07375625
178	0xbd3e44d3	-0.046452355
179	0x3cb2a3c3	0.021806603
180	0xbd2f654f	-0.042821225
181	0xbd66e1bf	-0.056367632
182	0x3b725cc9	0.0036981574
183	0x3d96940b	0.07352456
184	0x3d730f97	0.05934104
185	0xbd4a5f97	-0.049407568
186	0x3d84c9e2	0.064838186
187	0x3d029cbf	0.031887766
188	0xbc800071	-0.01562521
189	0xbc846c8c	-0.01616504
190	0xbd91d5ac	-0.07120833
191	0x3cf12332	0.029435728
192	0x3ce48eb2	0.027900074
193	0x3ce9fe74	0.028563716
194	0xbbd9a449	-0.006641899
195	0x3be3023a	0.0069277557
196	0xbd93670a	-0.071973875
197	0xbd4c9563	-0.049947154
198	0xbda080b7	-0.078370504
199	0xbd7306f1	-0.05933279
200	0xbba2a266	-0.004963207
201	0xbdb2ed91	-0.087367184
202	0x3be6fc12	0.007049092
203	0x3c2a25ec	0.010385018
204	0xbcf880cd	-0.030334854
205	0xbcebafeb	-0.028770408
206	0xbc2e6d12	-0.010646122
207	0xbc6b5bdc	-0.014365163
208	0x3c21acd5	0.0098678665
209	0xbc840257	-0.016114397
210	0xbd9920d4	-0.074769646
211	0x3d6e09a3	0.05811466
212	0x3da253c2	0.07926132
213	0xbbb6fd01	-0.0055843596
214	0xbada950d	-0.0016676501
215	0xb8160744	-3.5769554e-05
216	0xbc2a274e	-0.0103853475
217	0x3d5d6145	0.05404784
218	0xbd22eb17	-0.03977498
219	0x3cf10340	0.029420495
220	0x3d813ccf	0.063104264
221	0x3d69bebc	0.057066664
222	0xbd0bd75b	-0.034140926
223	0xbcd76261	-0.026292028
224	0x3d903399	0.070410915
225	0x3da5c212	0.080936566
226	0x3d6f612b	0.058442276
227	0xbd81adf0	-0.06332004
228	0x3da886a5	0.082288064
229	0x3d1faa8b	0.038981
230	0x3db437e4	0.08799723
231	0xbd9f7a3d	-0.07786987
232	0xbd222b51	-0.03959209
233	0x3d8a24e7	0.0674532
234	0x3d8241a4	0.06360176
235	0xbcb23186	-0.02175213
236	0xbd859917	-0.0652334
237	0xbbdaf567	-0.0066820863
238	0x3d9be2ee	0.07611643
239	0x3d8a55c9	0.067546435
240	0x3d7b565d	0.06136166
241	0x3d9e6b33	0.077352904
242	0x3d5172e9	0.051134977
243	0x3dabb1dd	0.08383534
244	0x3ceadf7c	0.028671019
245	0xbd448294	-0.04797609
246	0xbd990309	-0.07471282
247	0xbd973f29	-0.07385094
248	0x3d848273	0.06470194
249	0xbd945c7d	-0.07244203
250	0x3d858336	0.06519167
251	0x3d3d41f7	0.046205487
252	0xbd9594a6	-0.07303743
253	0xbdac9987	-0.084277205
254	0xbbe03d14	-0.0068432186
255	0x3d749b80	0.05971861

net.2.bias f4 [64]
0	0xbd9820e8	-0.07428151
1	0xbce1a9ac	-0.027546726
2	0x3cc1a72a	0.02363928
3	0xbb251c3a	-0.0025193826
4	0xbcadda10	-0.021222144
5	0xbd455d9a	-0.04818497
6	0xbc0dcc35	-0.008654644
7	0x3d6a793b	0.05724452
8	0xbd2850b2	-0.041092582
9	0xbd09a228	-0.03360191
10	0x3da103a9	0.07862026
11	0xbd80f1f0	-0.06296146
12	0xbd85c15d	-0.06531022
13	0xbd4bffcb	-0.04980449
14	0xbc4cdf2c	-0.01250438
15	0x3d9bf429	0.07614929
16	0x3c9e478a	0.019321222
17	0xbd3f9fb4	-0.046783164
18	0xbd384af3	-0.044993352
19	0x3ce5266e	0.027972426
20	0xbc054a6f	-0.008135422
21	0xbd0e4a9f	-0.034739133
22	0xbcc801d9	-0.024414944
23	0x3cf54bd7	0.02994339
24	0xbd876c30	-0.06612432
25	0x3cb84faf	0.022498934
26	0x3cdd39bb	0.027005067
27	0xbd462b11	-0.048380915
28	0xbd86e719	-0.06587047
29	0xbd9e68e5	-0.07734851
30	0xbd23bb74	-0.03997369
31	0xbd265871	-0.040611688
32	0x3d622bd4	0.05521758
33	0xbd5d49c4	-0.054025427
34	0xbd1caf7a	-0.038253285
35	0xbd747739	-0.059684012
36	0xbd90ae4a	-0.07064493
37	0x3d150baa	0.036388077
38	0xbc287f08	-0.010284193
39	0x3d56af64	0.05241336
40	0x3d6f258c	0.058385417
41	0x3d403a6e	0.046930723
42	0x3d9e1513	0.07718863
43	0xbd8b6ada	-0.0680749
44	0xbd3a1846	-0.045433305
45	0x3d335785	0.043784637
46	0xbd1ed4c4	-0.038777128
47	0xbc026a10	-0.007959858
48	0x3d8b42dd	0.067998625
49	0x3d431ce6	0.04763498
50	0xbd1427ca	-0.03617076
51	0x3c9a09c1	0.01880348
52	0xbd47d041	-0.04878259
53	0x3c764894	0.015031952
54	0x3d8d9923	0.06913974
55	0xbd93709b	-0.07199212
56	0xbc6b5945	-0.014364545
57	0x3da5036d	0.08057294
58	0xbd8494a1	-0.06473661
59	0x3d1cf3bc	0.03831838
60	0x3c9371b1	0.017998548
61	0xbd30bc70	-0.043148458
62	0xbd922503	-0.07135966
63	0x3d8e949f	0.06961941

net.4.weight f4 [3, 64]
0	0xbdfe8004	-0.12426761
1	0x3d77bd0d	0.060483027
2	0xbafea56c	-0.0019427962
3	0x3d2236f8	0.039603204
4	0xbdf728dc	-0.1206834
5	0x3d643a81	0.055719856
6	0x3d9caf7b	0.07650658
7	0x3c9fc862	0.01950473
8	0xbd9c73aa	-0.07639249
9	0x3db7217c	0.089419335
10	0x3d810d77	0.06301396
11	0xbc8efb73	-0.017453885
12	0x3d55af40	0.052169085
13	0x3c67a060	0.0141373575
14	0x3d0dfd32	0.034665294
15	0xbdb55be9	-0.08855421
16	0xbdb0558b	-0.08610066
17	0xbdc4ba6c	-0.0960587
18	0x3d57676b	0.05258886
19	0xbd13b80e	-0.0360642
20	0x3d970504	0.073740035
21	0xbc6da595	-0.01450481
22	0xbb5ef526	-0.0034020632
23	0x3db5fd8a	0.08886249
24	0x3c30dcd3	0.010794836
25	0xbdd99210	-0.10623562
26	0xbd33b145	-0.04387023
27	0x3db05902	0.08610727
28	0xbce9a302	-0.028520111
29	0x3c73b924	0.014875684
30	0x3dd0c876	0.10194485
31	0xbb902b0a	-0.004399662
32	0xbdbe6082	-0.09295751
33	0xbce2d430	-0.02768907
34	0xbcd99d90	-0.02656439
35	0xbd6eb84f	-0.05828124
36	0xbd6e07e4	-0.058112994
37	0xbd7a65a0	-0.061132073
38	0x3c95f72d	0.01830634
39	0x3d468ccf	0.04847413
40	0x3d0748b0	0.033028305
41	0x3c13a437	0.00901132
42	0x3d411929	0.047143135
43	0xbda87daa	-0.082270935
44	0xbd540add	-0.051768173
45	0xbd8680b2	-0.065675154
46	0xbdd2264d	-0.102612115
47	0x3dce7314	0.10080543
48	0x3de5e077	0.11224454
49	0x3ddfd1f2	0.10928716
50	0xbd83fa5a	-0.06444235
51	0x3bdf659d	0.006817533
52	0xbda88dee	-0.08230196
53	0x3d4d0cfc	0.05006121
54	0xbcdf8646	-0.027285706
55	0x3d66d8d9	0.056359146
56	0x3de0c17b	0.109744035
57	0x3cc447e2	0.023960058
58	0xbd5f6b80	-0.05454588
59	0x3d1d72b1	0.038439456
60	0xbc63b614	-0.013898391
61	0x3da24c7a	0.07924743
62	0xbcab16fc	-0.020884983
63	0xbda8321a	-0.08212681
64	0xbddd0400	-0.107917786
65	0x3cca37c0	0.024684787
66	0xbc86e9d8	-0.016468927
67	0x3d90d4c0	0.07071829
68	0x3cbcd180	0.023049116
69	0xbd369ef4	-0.044585183
70	0xbca322a8	-0.019913986
71	0xbdadad94	-0.08480373
72	0x3b6fbb80	0.0036580265
73	0xbce41678	-0.027842745
74	0xbdf5d3e6	-0.12003307
75	0x3d17ba58	0.037042946
76	0xbc389700	-0.01126647
77	0xbdcb0c2c	-0.09914431
78	0xbd466950	-0.048440278
79	0xbc949c18	-0.018140838
80	0x3d751c94	0.059841707
81	0xbc3799f0	-0.011206135
82	0xbd86ba60	-0.06578517
83	0x3d4cda14	0.050012663
84	0x3dfe325c	0.12411949
85	0x3ddce6a4	0.10786179
86	0x3c92be28	0.01791294
87	0xbda16746	-0.07881026
88	0x3b4e9f40	0.0031528026
89	0xbdc68fba	-0.096953824
90	0xbdc79a7a	-0.09746261
91	0xbde7934a	-0.1130739
92	0xbc725cc0	-0.014792621
93	0xbcf25238	-0.02958022
94	0x3dcbe982	0.099566475
95	0x3c94bbb0	0.018155903
96	0xbd2f076c	-0.042731687
97	0xbd82bc54	-0.06383577
98	0xbc780350	-0.0151375085
99	0xbde8bdc0	-0.11364317
100	0xbcf4e290	-0.02989319
101	0xbded43c2	-0.115851894
102	0xbdb0f6ae	-0.086408004
103	0x3d931f96	0.07183759
104	0x3da877ee	0.08226
105	0xbc128140	-0.008941948
106	0xbd92b8e0	-0.07164168
107	0x3d440a98	0.047861665
108	0xbd4c3268	-0.04985276
109	0xbcda9968	-0.026684478
110	0x3d8a41ee	0.06750856
111	0x3d44295c	0.047891006
112	0xbcaaf398	-0.020868108
113	0x3d3e6b8c	0.046489283
114	0xbdb6911a	-0.08914395
115	0xbd970928	-0.07374793
116	0xbd9ca788	-0.076491416
117	0xbd6d7e94	-0.057982042
118	0xbdee9ce8	-0.11651021
119	0x3df9995e	0.121874556
120	0xbde1c834	-0.11024514
121	0x3da383d2	0.07984127
122	0x3d12f9c8	0.03588274
123	0xbdbdac4e	-0.0926138
124	0xbdca7e80	-0.09887409
125	0xbd4c5508	-0.04988578
126	0xbdd1e970	-0.10249603
127	0xbd85e43e	-0.06537674
128	0xbc8410f0	-0.016121358
129	0x3c8f1245	0.017464766
130	0x3d3baa6b	0.04581682
131	0x3c103483	0.008801582
132	0xbdadbd30	-0.0848335
133	0x3b105838	0.0022025239
134	0x3c9c41c2	0.019074325
135	0xbdbad83b	-0.09123274
136	0x3de063cb	0.10956534
137	0xbdde129c	-0.10843393
138	0xbc99341e	-0.01870161
139	0xbdea4c28	-0.11440307
140	0x3d3cce3a	0.04609511
141	0x3c1bbd96	0.00950565
142	0xbd4aafb1	-0.04948396
143	0xbd40292e	-0.046914272
144	0x3bfbb0b0	0.007680975
145	0x3dbf6998	0.09346312
146	0xbc0c6473	-0.008568871
147	0x3db55965	0.08854941
148	0xbb025015	-0.0019884158
149	0x3da69510	0.081339
150	0x3c8efafc	0.017453663
151	0x3ddaec9d	0.10689662
152	0xbdba3a99	-0.09093208
153	0x3db55de8	0.08855802
154	0x3d25fb66	0.040522955
155	0x3c8bc680	0.017062426
156	0x3d120ffc	0.035659775
157	0xbd3ccd78	-0.046094388
158	0x3dd6528f	0.104649656
159	0xbd637d5e	-0.05553948
160	0x3ca6d3a1	0.020364584
161	0xbd161303	-0.036639225
162	0x3d8252a3	0.06363418
163	0xbc1192f7	-0.008885137
164	0xbdcfbb96	-0.10143201
165	0x39d98c27	0.00041493887
166	0xbda97a3a	-0.08275266
167	0x3dbf9b42	0.09355785
168	0x3df72591	0.12067712
169	0x3c252c89	0.010081419
170	0x3ddb0858	0.10694951
171	0xbd604dbe	-0.05476164
172	0x3d467b7c	0.048457608
173	0xbdb4cd38	-0.08828205
174	0x3b97d0cd	0.0046330453
175	0x3df1b48f	0.11802017
176	0xbd3f02ae	-0.046633415
177	0xbdabd842	-0.08390857
178	0xbbf119b5	-0.007357801
179	0xbd5a2d51	-0.053265873
180	0xbd6eac0e	-0.058269553
181	0x3d27fc5e	0.04101216
182	0x3d798956	0.06092199
183	0x3ddb72ec	0.10715279
184	0x3d239adb	0.039942604
185	0xbd732fbd	-0.0593717
186	0xbde89277	-0.11356061
187	0x39b704fb	0.0003490819
188	0xbdd015d3	-0.10160413
189	0xbd8ec210	-0.06970608
190	0x3d851f78	0.06500143
191	0xb9ff6c47	-0.00048718063

net.4.bias f4 [3]
0	0x3dd8cb46	0.10585646
1	0xbde2c4fa	-0.110727265
2	0xbd10ab38	-0.035319537
