uniform/00_uniformtest/model_ep100.pth (torch, 61296 bytes, 10 tensors)

lstm.weight_ih_l0 f4 [80, 20]
0	0xbe531790	-0.20614457
1	0xbd8af7e2	-0.06785561
2	0x3def5fc0	0.11688185
3	0x3e008e66	0.1255432
4	0xbd971830	-0.0737766
5	0x3e5b3e3c	0.2141046
6	0xbc918f1f	-0.01776844
7	0xbd24a7cf	-0.040199097
8	0xbe4b65f4	-0.19863111
9	0x3dbdb131	0.09262312
10	0x3d70c569	0.058782015
11	0x3e38766e	0.18013927
12	0xbd139070	-0.03602642
13	0x3d5a7841	0.05333734
14	0xbe43f9e3	-0.19138293
15	0x3e10fcd0	0.1415894
16	0x3d9e869b	0.07740518
17	0xbe0e061a	-0.13869515
18	0xbb950758	-0.0045479946
19	0x3da88235	0.0822796
20	0x3c787b37	0.015166095
21	0x3da8141c	0.082069606
22	0x3c759c8e	0.014990939
23	0xbe3cf1e2	-0.18451646
24	0x3dc9c62d	0.09852252
25	0xbdae0f1e	-0.08498977
26	0xbe35c821	-0.17752124
27	0xbc881acd	-0.016614342
28	0x3d188e70	0.037245214
29	0x3d6e5ff9	0.058196995
30	0x3e442fe5	0.19158895
31	0xbe500a3f	-0.20316409
32	0x3e32a9fb	0.17447655
33	0xbe57044e	-0.20997736
34	0x3b648475	0.003486899
35	0x3e08786e	0.1332719
36	0xbddb331a	-0.10703106
37	0xbda70243	-0.08154728
38	0x3e42f08b	0.19037072
39	0x3e11aa80	0.14225197
40	0x3e410393	0.1884902
41	0x3de5f7ec	0.11228928
42	0xbce199e4	-0.027539201
43	0x3d4e12cc	0.050310895
44	0x3db1fd32	0.08690871
45	0x3df996bc	0.121869534
46	0x3d90282a	0.07038911
47	0x3cc8f58d	0.02453115
48	0xbe50cfbe	-0.20391747
49	0x3d485313	0.04890735
50	0x3e46f538	0.19429481
51	0x3b8c6b07	0.0042852196
52	0xbc9ffbfd	-0.019529337
53	0xbe5c6885	-0.21524246
54	0x3db6f260	0.08932948
55	0xbe1715f0	-0.14754462
56	0xbe34df27	-0.17663251
57	0x3e28c3ad	0.16480894
58	0xbe474357	-0.19459282
59	0x3dbf375f	0.09336733
60	0x3e4df043	0.20111184
61	0xbda3425c	-0.079716414
62	0x3dbc750d	0.09202013
63	0xbdbc8f90	-0.0920707
64	0xbe074ae4	-0.13212162
65	0x3e4b7614	0.19869262
66	0xbdcad749	-0.09904344
67	0x3e20172d	0.15633841
68	0x3dbe7cde	0.0930116
69	0x3c8b305c	0.016990833
70	0x3c92b9eb	0.017910918
71	0xbe03d416	-0.12873873
72	0x3e00dbad	0.125838
73	0x3dba3bdd	0.09093449
74	0x3d88e8a9	0.066850014
75	0xbe250174	-0.16113836
76	0xbe51b99b	-0.20480959
77	0xbddbba46	-0.10728888
78	0xbd6070ff	-0.05479526
79	0x3c06f8d7	0.008238039
80	0xbdb17cc6	-0.08666377
81	0xbe0d9ea1	-0.13830043
82	0x3de4c56e	0.11170469
83	0x3cea6afa	0.028615464
84	0x3e17e1dc	0.14832252
85	0xbdb0ba00	-0.08629227
86	0x3d4e2bc9	0.050334726
87	0xbe37f565	-0.17964704
88	0xbe2f4837	-0.17117392
89	0xbd5ccba9	-0.053905163
90	0x3c55f443	0.013058725
91	0x3e008811	0.12551905
92	0x3cf92f8d	0.030418182
93	0x3ddbe1ac	0.10736403
94	0xbe0a5f2c	-0.13512868
95	0xbdceb6fb	-0.100934945
96	0x3d278f3f	0.040908094
97	0x3d2470e3	0.04014672
98	0x3dd26a9d	0.10274241
99	0x3db2893b	0.08717581
100	0xbd572eee	-0.05253499
101	0x3ceddbb5	0.029035429
102	0xbe51d572	-0.20491579
103	0xbdfe53fb	-0.12418362
104	0x3e6393c0	0.22224331
105	0xbdaa7106	-0.08322339
106	0xbe3fa5fc	-0.18715662
107	0xbe0bfa55	-0.13669713
108	0x3e3a7657	0.18209206
109	0x3e08a779	0.13345136
110	0x3e3f9b12	0.18711498
111	0xbd77efb6	-0.06053134
112	0xbe52968d	-0.20565243
113	0x3d8e3f2d	0.069456436
114	0xbdfc8d87	-0.12331682
115	0x3d3ba22d	0.04580896
116	0x3d692a0c	0.056924865
117	0x3da4248a	0.08014782
118	0xbd4871ca	-0.048936643
119	0xbd0e7074	-0.034775212
120	0x3d2f5592	0.042806216
121	0x3dd511bf	0.104037754
122	0x3e400b63	0.18754344
123	0xbe272cce	-0.16325685
124	0xbe312d77	-0.173025
125	0x3d89cd53	0.067286156
126	0xbe3cb7f9	-0.18429555
127	0x3e173de3	0.14769702
128	0x3cfc32e2	0.030785982
129	0xbe053f04	-0.1301232
130	0xbe27bc46	-0.16380414
131	0x3de3422b	0.11096605
132	0xbd5810f1	-0.05275053
133	0xbe42b688	-0.19014943
134	0xbc8e90b6	-0.017402988
135	0xbe2f0876	-0.17093071
136	0x3e53dce9	0.2068974
137	0x3da8c0c3	0.082398914
138	0xbd2d3761	-0.04228914
139	0xbe3510c6	-0.1768218
140	0x3d69ec47	0.057110097
141	0xbe418ad2	-0.18900612
142	0xbe5590ce	-0.2085602
143	0x3e021cee	0.12706348
144	0x3e4a4dc2	0.19756225
145	0xbc70500b	-0.014667521
146	0x3e1376fa	0.14400855
147	0xbe4f03c8	-0.20216286
148	0xbe35615b	-0.1771292
149	0xbdfd71bf	-0.12375211
150	0x3dcbfcd6	0.09960334
151	0x3e20f846	0.15719709
152	0xbd9017cc	-0.07035789
153	0x3c46f82d	0.012144131
154	0x3d36e81a	0.044654943
155	0xbe23895f	-0.15970372
156	0x3e28a6de	0.16469905
157	0x3decde76	0.115658686
158	0xbe070f05	-0.13189323
159	0x3cee98c4	0.029125579
160	0xbdcf3250	-0.10117018
161	0xbdbbf3e1	-0.091773756
162	0x3d4990ca	0.049210347
163	0xbdeca9d0	-0.11555827
164	0x3e01e9f2	0.126869
165	0xbcc69704	-0.024241932
166	0xbe550634	-0.20803148
167	0x3d6f925e	0.058489196
168	0xbe279a62	-0.16367486
169	0x3e5bbc37	0.21458517
170	0x3d59e143	0.053193342
171	0x3e246183	0.16052823
172	0xbc654974	-0.013994563
173	0xbb723bfa	-0.0036962018
174	0x3e5d9988	0.21640599
175	0xbd21e019	-0.039520357
176	0xbe15a88f	-0.14615081
177	0x3de6307f	0.11239719
178	0x3c845a3e	0.016156312
179	0x3e60d036	0.21954426
180	0xbde8ddd6	-0.11370437
181	0x3dfad50a	0.12247665
182	0x3e577cfc	0.21043772
183	0x3e49e505	0.1971627
184	0xbdaba9bd	-0.083819844
185	0x3b6819b1	0.0035415704
186	0xbdb0eb23	-0.08638599
187	0x3cb0f3a9	0.021600561
188	0x3e3d13f0	0.18464637
189	0x3deebcc5	0.11657099
190	0xbdb8770f	-0.090070836
191	0xbe0c91a4	-0.13727432
192	0x3e2afad2	0.16697243
193	0x3df22f9c	0.11825487
194	0xbdfd0f60	-0.12356448
195	0xbe235340	-0.15949726
196	0x3d8de6b3	0.06928768
197	0xbdaa91da	-0.083286
198	0x3dd8c907	0.10585218
199	0x3de979c3	0.11400177
200	0xbe1efaed	-0.15525408
201	0x3e1e2279	0.15442838
202	0xbc4f6284	-0.012657765
203	0x3dbe5307	0.0929318
204	0x3c68dbe5	0.014212583
205	0xbd288944	-0.04114653
206	0xbe186731	-0.14883114
207	0xbe12cb44	-0.14335352
208	0x3e18b9f5	0.14914687
209	0x3e410f62	0.18853524
210	0xbe0d14e8	-0.13777506
211	0x3dd72917	0.10505884
212	0xbe3bfa5f	-0.18357228
213	0x3e10f1db	0.1415476
214	0x3dad5977	0.0846433
215	0xbe19a53f	-0.15004443
216	0xbe2e0674	-0.16994649
217	0xbe467c5c	-0.19383377
218	0x3e1b8b4e	0.1518986
219	0x3e0eb4df	0.13936184
220	0x3dcac62a	0.09901078
221	0x3e0d5965	0.13803633
222	0x3c4ec518	0.012620233
223	0xbd98282a	-0.07429536
224	0xbd49db96	-0.04928168
225	0xbe027035	-0.12738116
226	0xbd611d1e	-0.05495941
227	0x3cfdc25c	0.030976467
228	0x3e488af4	0.19584256
229	0xbddb691b	-0.10713407
230	0xbe3bbb5b	-0.18333189
231	0x3b3eda88	0.0029121954
232	0xbdd49243	-0.1037946
233	0xbdd05ccd	-0.1017395
234	0x3e199571	0.14998414
235	0x3df38be1	0.11891914
236	0xbdc32987	-0.09529405
237	0xbd00cafd	-0.031443585
238	0xbe5cad62	-0.21550515
239	0xbc48a5b9	-0.012246543
240	0xbe243db7	-0.16039167
241	0xbe122a11	-0.1427386
242	0x3da88569	0.08228571
243	0x3e4b471c	0.19851345
244	0x3e196548	0.14980042
245	0x3ddbb7b0	0.10728395
246	0xbd83dad4	-0.064382225
247	0x3dea3337	0.1143555
248	0xbd23de25	-0.040006775
249	0xbdac5c34	-0.08416024
250	0x3d524565	0.05133571
251	0x3e3d893c	0.18509382
252	0xbd7c34ed	-0.06157391
253	0xbb00da07	-0.0019661204
254	0x3ddcfba4	0.10790184
255	0xbdc6fc53	-0.09716096

lstm.weight_hh_l0 f4 [80, 20]
0	0xb9b2250e	-0.00033978414
1	0x3e12f9fb	0.14353172
2	0xbdde1351	-0.10843528
3	0x3dbad505	0.091226615
4	0x3dc9654c	0.09833774
5	0x3c205bdc	0.009787526
6	0x398c08a4	0.0002670932
7	0xbe155a41	-0.1458521
8	0x3dd0b1e2	0.101901785
9	0xbda275ea	-0.079326466
10	0xbaa1a4ac	-0.0012332401
11	0xbe3cafe4	-0.18426472
12	0xbc6a87fd	-0.014314649
13	0xbde72144	-0.11285642
14	0xbe1a205b	-0.15051405
15	0x3e0beb7a	0.13664046
16	0xbe59c5fb	-0.2126693
17	0xbe077249	-0.1322719
18	0xbdbb6e74	-0.09151927
19	0x3e2f1a93	0.17099981
20	0x3b936d79	0.004499134
21	0xbe37e989	-0.1796018
22	0xbcb0866e	-0.021548476
23	0x3e29c85c	0.16580337
24	0x3dcbf986	0.09959702
25	0xbc6c1455	-0.014409144
26	0xbd77d3df	-0.06050479
27	0x3dcc6152	0.099795
28	0x3d9f3ad2	0.07774891
29	0xbd087547	-0.03331497
30	0x3e5f3ad3	0.21799783
31	0xbd4bf531	-0.04979438
32	0x3e58606c	0.21130532
33	0x3dea36a4	0.11436203
34	0xbda6d56a	-0.08146174
35	0xbe58b994	-0.21164542
36	0xbc261ec5	-0.010139172
37	0xbde949e5	-0.113910474
38	0xbc4988cc	-0.012300681
39	0xbdcb4cc6	-0.09926753
40	0xbdc94a53	-0.09828629
41	0xbdf20ca5	-0.11818818
42	0xbda55493	-0.08072772
43	0xbe575a25	-0.21030481
44	0x3d919b24	0.07109669
45	0xbe487d84	-0.1957913
46	0xbe0ebd5b	-0.13939421
47	0x3debeee1	0.11520172
48	0xbcda9083	-0.026680237
49	0xbe54ab4f	-0.20768474
50	0xbd677ee6	-0.056517504
51	0x3e25035f	0.16114567
52	0xbe2ee909	-0.17081083
53	0x3e095fd9	0.13415469
54	0x3db98509	0.090585776
55	0x3d8150a3	0.06314208
56	0xbe56683e	-0.20938203
57	0x3e12712e	0.14300987
58	0x3e55ab28	0.20866072
59	0xbe2ecf19	-0.17071189
60	0xbda48d53	-0.08034768
61	0xbb38eeed	-0.0028218583
62	0x3e63d6de	0.22249934
63	0xbe55b2c4	-0.20868975
64	0xbe0c1646	-0.13680372
65	0x3c36fa0c	0.011168014
66	0x3e01090e	0.1260111
67	0x3e48a9d7	0.19596039
68	0x3e423e42	0.18969062
69	0x3df1116f	0.11770903
70	0xbe25c85a	-0.1618971
71	0xbe569e15	-0.20958741
72	0xbe148172	-0.14502504
73	0xbe38af2f	-0.18035577
74	0xbd025474	-0.031818822
75	0xbe63a482	-0.22230724
76	0x3e2185dd	0.15773721
77	0xbdb3b110	-0.08774006
78	0xbda5bfb9	-0.08093209
79	0xbe1e1df7	-0.15441118
80	0xbe16c13c	-0.1472215
81	0x3e35e2bd	0.17762275
82	0xbd5fda74	-0.054651693
83	0xbe0ff6d3	-0.14059
84	0xbc79e4e6	-0.015252328
85	0xbdb609c1	-0.08888579
86	0x3e1ffc3c	0.15623564
87	0x3d74aa06	0.05973246
88	0x3e2fb7d5	0.1715997
89	0x3d9c866f	0.07642829
90	0x3dafa7f8	0.08576959
91	0x3e49bc4a	0.19700733
92	0x3d1643a3	0.036685597
93	0x3e3a75b3	0.18208961
94	0x3df37865	0.11888198
95	0xbda9befa	-0.08288379
96	0xbe37d574	-0.1795252
97	0x3e42899d	0.18997808
98	0xbe5c263f	-0.21498965
99	0x3e1a92df	0.1509509
100	0xbd9ad8aa	-0.07560857
101	0xbd837b32	-0.06419982
102	0xbdfd3572	-0.123637095
103	0xbe0c98ac	-0.13730115
104	0x3dde03c3	0.10840561
105	0xbcc29e39	-0.023757087
106	0x3c90bc7c	0.017668001
107	0xbd51a4ca	-0.051182546
108	0x3e23b444	0.15986735
109	0xbdd9e7ad	-0.10639892
110	0x3e27c0b6	0.16382107
111	0xbda876c3	-0.08225777
112	0xbdbed799	-0.09318466
113	0xbd1456dd	-0.03621565
114	0xbdac5cce	-0.084161386
115	0x3ca17891	0.01971081
116	0xbe0d338a	-0.13789192
117	0xbd242aed	-0.04008
118	0x3e07dbc9	0.13267435
119	0xbd24dd15	-0.040249903
120	0xbe12e898	-0.1434654
121	0x3e0cf39c	0.13764805
122	0x3e428166	0.18994674
123	0x3daf1a3b	0.08549925
124	0x3cb91d6f	0.022597043
125	0x3e0dc834	0.13845903
126	0x3e37801e	0.17919967
127	0x3e201513	0.15633039
128	0x3e026ede	0.12737605
129	0xbe2ec9a2	-0.17069104
130	0x3d7e5a37	0.062097754
131	0xbd4703e3	-0.04858769
132	0xbe0a6b97	-0.13517605
133	0x3cc004c4	0.023439772
134	0x3e5b11bd	0.21393485
135	0x3e540bb2	0.20707586
136	0x3e0b911c	0.13629574
137	0x3e301e35	0.17199023
138	0x3d02e7ac	0.03195922
139	0xbe10bf10	-0.14135385
140	0xbe0c9898	-0.13730085
141	0x3dbc311e	0.09189056
142	0x3d94b0cb	0.07260283
143	0x3e288954	0.16458637
144	0xbb8c6e62	-0.0042856196
145	0x3e3f063f	0.18654726
146	0xbdf8b6a3	-0.1214421
147	0xbe0b12cd	-0.1358139
148	0x3da4c1dc	0.08044788
149	0x3e5bfa68	0.21482241
150	0xbccaf702	-0.024775986
151	0x3e5ff191	0.21869494
152	0x3e4efb4b	0.20213048
153	0xbe3ab712	-0.18233898
154	0xbe18d05d	-0.14923234
155	0xbe0deea8	-0.13860571
156	0xbe29533d	-0.16535659
157	0xbe2ca0d1	-0.16858222
158	0xbe5338f2	-0.20627192
159	0xbdc2b6ee	-0.09507547
160	0x3e1ca96c	0.15299004
161	0xbdbbc20e	-0.09167872
162	0x3e4b4bea	0.19853178
163	0xbe548d95	-0.20757134
164	0xbe248158	-0.16064966
165	0x3de5f2bd	0.11227939
166	0x3e6449d3	0.22293787
167	0xbe383a72	-0.17991045
168	0x3d80d641	0.06290866
169	0x3e290220	0.16504717
170	0x3e0d6173	0.13806705
171	0xbe60905a	-0.21930066
172	0x3e153871	0.14572312
173	0x3db21416	0.08695237
174	0xbbe832f6	-0.007086153
175	0xbe38006a	-0.17968908
176	0x3c459b20	0.01206091
177	0xbd82ed92	-0.06392969
178	0x3e54fe12	0.20800045
179	0xbd361333	-0.044451904
180	0xbe17e572	-0.1483362
181	0x3df06aa3	0.11739089
182	0xbe3713de	-0.17878672
183	0xbe5345f8	-0.2063216
184	0x3e25f07e	0.16205022
185	0x3c5b9c3a	0.0134039465
186	0xbd0e95d3	-0.034810852
187	0x3dbf9b68	0.09355813
188	0x3e193f3f	0.14965533
189	0xbd4bf45b	-0.049793582
190	0x3e38e92e	0.18057701
191	0x3e1e4999	0.15457763
192	0x3d7a7a21	0.061151627
193	0xbdd49842	-0.103806034
194	0x3e12b9e2	0.14328721
195	0xbd3a0a60	-0.04542005
196	0x3d7db19e	0.061936967
197	0x3e24e8e6	0.16104469
198	0xbda4d3aa	-0.08048184
199	0x3e52d80a	0.20590225
200	0xbe3910d4	-0.18072826
201	0x3e384775	0.17996009
202	0xbd43a6ea	-0.047766604
203	0x3df4e964	0.11958578
204	0xbd8ed270	-0.069737315
205	0xbbd955d8	-0.006632548
206	0xbc6c104f	-0.014408185
207	0xbde25676	-0.11051647
208	0x3db5969c	0.08866617
209	0x3cb45310	0.022012264
210	0x3ddf932e	0.10916744
211	0xbe417ce9	-0.18895306
212	0xbca81dfe	-0.020522114
213	0x3e3607e7	0.17776452
214	0xbe23fc43	-0.16014199
215	0x3cb3dd39	0.021956073
216	0xbe61ba9d	-0.22043844
217	0x3e0adac7	0.1356002
218	0xbd8a044e	-0.06739102
219	0xbdadec64	-0.084923536
220	0xbe083a90	-0.1330359
221	0xbdba7823	-0.091049455
222	0x3e221cd6	0.15831313
223	0x3dfccbf5	0.12343589
224	0x3d01ab77	0.031657662
225	0x3d11b107	0.035569217
226	0xbd57abe6	-0.05265417
227	0x3e257c0e	0.16160604
228	0x3e4c33d5	0.19941647
229	0x3e36edac	0.17864102
230	0x3df45bee	0.11931597
231	0xbe049c72	-0.12950304
232	0xbe3e1d23	-0.18565802
233	0xbdb6425a	-0.08899374
234	0x3dc1e1e3	0.094669126
235	0xbe015c3e	-0.12632844
236	0x3cdb4ad5	0.026769081
237	0xbd6b30a5	-0.057419438
238	0xbd3d5730	-0.046225727
239	0xbe1f05fb	-0.15529625
240	0xbd9b4185	-0.07580856
241	0x3bb11204	0.005403759
242	0xbe2e0ac0	-0.16996288
243	0x3a76f3e7	0.00094204996
244	0xbc926a50	-0.01787296
245	0xbe27f89a	-0.16403428
246	0x3dcbf8c2	0.09959556
247	0xbdad33bb	-0.084571324
248	0xbe1e73b3	-0.15473823
249	0x3e0ab660	0.13546133
250	0xbe1cfe1a	-0.15331307
251	0xbe5e6d9a	-0.21721497
252	0xbe371a3d	-0.17881103
253	0xbe166fc2	-0.1469107
254	0x3e57ca53	0.21073274
255	0xbe3e5487	-0.18586932

lstm.bias_ih_l0 f4 [80]
0	0xbe341a24	-0.17588097
1	0xbe1d5b68	-0.153669
2	0x3cf6ac59	0.030111479
3	0xbe376937	-0.1791123
4	0x3e558ff0	0.20855689
5	0x3dd91978	0.10600561
6	0xbd75d920	-0.06002152
7	0xbda7c864	-0.08192518
8	0xbe36ecae	-0.17863724
9	0xbe2d003f	-0.16894625
10	0xbd4c02b1	-0.049807254
11	0xbdcf7866	-0.10130386
12	0xbc0e8173	-0.008697855
13	0x3db6a224	0.089176446
14	0x3d64df4c	0.055877015
15	0xbe5c0025	-0.2148443
16	0x3db1458b	0.086558424
17	0xbd0758bd	-0.03304361
18	0x3e1eefff	0.15521239
19	0xbe2179c1	-0.15769102
20	0xbdba5cea	-0.09099753
21	0xbe10f245	-0.14154918
22	0xbddd1d84	-0.10796645
23	0x3e61ae00	0.22039032
24	0xbdfdf574	-0.12400332
25	0xbd160e72	-0.03663487
26	0x3e581905	0.21103294
27	0xbdc39e40	-0.09551668
28	0xbd221cd6	-0.03957828
29	0x3e13f64b	0.14449422
30	0xbe4bba93	-0.19895391
31	0xbbc52b36	-0.006017114
32	0x3e1056ae	0.14095566
33	0xbdc2beb3	-0.09509029
34	0xbde3f396	-0.11130445
35	0xbe3d93d8	-0.18513429
36	0x3df56822	0.119827524
37	0xbe4713c8	-0.1944114
38	0x3d6a4860	0.05719793
39	0x3dd3c87c	0.10340974
40	0x3e0233ad	0.12715025
41	0xbe5a997c	-0.21347612
42	0x3db518d8	0.08842629
43	0x39aa6e28	0.00032507
44	0xbe0b158c	-0.13582438
45	0xbdfcfdd6	-0.12353103
46	0xbce18a84	-0.02753187
47	0xbd94e62b	-0.072704636
48	0x3dab86c5	0.083753146
49	0xbe027ee7	-0.12743722
50	0x3c45b261	0.012066455
51	0x3d9592a3	0.07303359
52	0xbcf27fad	-0.029601896
53	0xbd8f8520	-0.070078135
54	0x3dbb72ad	0.09152732
55	0x3b0527f6	0.0020318008
56	0x3d67d9c5	0.056604166
57	0xbd69736b	-0.056994837
58	0x3dfb8dd6	0.122829124
59	0x3d80ebbc	0.06294963
60	0x3e557ef2	0.20849207
61	0xbd28b482	-0.04118777
62	0xbd71a0f6	-0.058991395
63	0x3d32c076	0.043640576
64	0x3e0dd90b	0.13852327
65	0xbdd4847f	-0.10376834
66	0x3e3bea99	0.1835121
67	0x3d59863a	0.053106524
68	0x3a8427b5	0.0010082634
69	0xbe0c6794	-0.13711387
70	0x3dc6cb91	0.09706796
71	0xbdec1b32	-0.115286246
72	0xbc8b3ba6	-0.016996216
73	0x3cdf8ca3	0.02728874
74	0xbd025e76	-0.031828366
75	0xbdf8c94b	-0.121477686
76	0xba868706	-0.0010263629
77	0x3da92b65	0.0826023
78	0x3e2a4053	0.166261
79	0xbba98e8d	-0.005174464

lstm.bias_hh_l0 f4 [80]
0	0x3d918c82	0.07106878
1	0x3e3f51ba	0.1868352
2	0xbd9b8ff0	-0.07595813
3	0x3e185792	0.14877155
4	0x3e098d8b	0.134329
5	0xbceacee0	-0.028663099
6	0xbc6d1ca3	-0.01447216
7	0xbdad4997	-0.08461302
8	0xbd55bdb3	-0.052182864
9	0xbd27c5b2	-0.04096002
10	0xbd3bd6c1	-0.045859102
11	0xbcc87ba1	-0.024473013
12	0x3db33829	0.08750946
13	0xbdf7b12f	-0.12094342
14	0xbe5d2358	-0.21595514
15	0xbd8d6977	-0.069048814
16	0xbe0bba97	-0.13645397
17	0xbd9ed21e	-0.077549204
18	0x3da0cd89	0.07851703
19	0xbe5c6e9b	-0.21526568
20	0x3e1d3984	0.15353972
21	0xbe412130	-0.18860316
22	0x3d7d6cc6	0.061871313
23	0xbe0bde45	-0.13659008
24	0x3c876909	0.016529577
25	0xbe4d7cce	-0.2006714
26	0x3d62b3cd	0.055347253
27	0x3c150e63	0.009097668
28	0xbd9be82e	-0.07612644
29	0xbc97fa13	-0.018551862
30	0x3df8d31b	0.1214964
31	0x3e4cd5a5	0.20003374
32	0xbc07ced5	-0.008289059
33	0x3dee4b09	0.116354056
34	0x3e4b0efc	0.19829935
35	0xbc4f1306	-0.012638813
36	0x3e321a72	0.173929
37	0x3e62526f	0.22101758
38	0x3e3e4f38	0.18584907
39	0x3e0845aa	0.13307825
40	0xbdb2d712	-0.08732428
41	0xbca17e28	-0.019713476
42	0xbd9a0256	-0.07519977
43	0x3e2a6403	0.16639714
44	0xbdb6c7ee	-0.08924852
45	0x3df2d0c6	0.118562266
46	0xbe3a76f8	-0.18209445
47	0x3e536874	0.20645314
48	0x3e322f2f	0.17400812
49	0xbdacdc7c	-0.084404916
50	0xbcab7261	-0.020928564
51	0xbe0df086	-0.13861284
52	0xbe454c46	-0.19267377
53	0x3e446b99	0.1918167
54	0x3c6edf8a	0.014579663
55	0xbdd3b6e1	-0.10337616
56	0x3d8f6503	0.07001688
57	0xbddca773	-0.10774126
58	0xbe00599d	-0.12534185
59	0x3df885ef	0.12134921
60	0xbc6908d7	-0.014223299
61	0xbdb92e6a	-0.09042056
62	0xbd1676fb	-0.036734562
63	0x3e049066	0.12945709
64	0xbdcd6116	-0.10028283
65	0x3d6c3526	0.057667874
66	0x3d68de45	0.056852598
67	0x3c2f0350	0.010681942
68	0xbd12c662	-0.035833724
69	0x3df72d6d	0.12069211
70	0xbe24a544	-0.16078669
71	0xbe2bbc90	-0.1677115
72	0x3dd30a36	0.10304682
73	0x3d243654	0.040090874
74	0xbd26b03a	-0.040695406
75	0xbdd26586	-0.1027327
76	0x3d46e52b	0.048558395
77	0xbaa5ee23	-0.0012659471
78	0xbbea4d68	-0.007150341
79	0x3e186570	0.14882445

net.0.weight f4 [128, 20]
0	0xbd1b823c	-0.037965998
1	0xbe0837c9	-0.1330253
2	0x3e3b1030	0.18267894
3	0x3e2b1883	0.16708569
4	0x3e2ac7f8	0.16677845
5	0xbe114587	-0.14186679
6	0x3e3448a7	0.1760584
7	0x3e4d4c98	0.2004875
8	0xbe35d56e	-0.17757198
9	0xbe13da4a	-0.1443874
10	0x3dd64f3a	0.1046433
11	0xbe1c2bb2	-0.15251043
12	0x3c170651	0.009217815
13	0xbe1c638e	-0.15272352
14	0x3e3262f9	0.17420568
15	0x3e34c4fc	0.17653269
16	0x3df9f832	0.122055426
17	0xbbc7bb9b	-0.0060953624
18	0xbe3efe7e	-0.18651769
19	0x3cdce31d	0.026963765
20	0xbdf17c90	-0.117913365
21	0xbe0f7740	-0.14010334
22	0xbd83a567	-0.06428032
23	0x3e48943a	0.19587794
24	0x3bda31c6	0.0066587655
25	0x3e5f3d10	0.21800637
26	0xbe383244	-0.17987925
27	0x3e50f941	0.20407583
28	0x3da4f201	0.08053971
29	0x3d80c151	0.06286872
30	0xbe09ef34	-0.13470155
31	0x3e31be81	0.17357828
32	0x3e2f3858	0.17111337
33	0xbe43ee81	-0.19133951
34	0x3e319c3e	0.17344758
35	0x3d23ed43	0.040021192
36	0x3d41ffa8	0.047362953
37	0x3dd91b9b	0.106009685
38	0x3bc0de36	0.0058858646
39	0x3d560834	0.052253917
40	0xbe16cfcb	-0.14727704
41	0xbe2e2f44	-0.17010218
42	0xbe60508a	-0.21905723
43	0xbe0ae5e9	-0.13564266
44	0xbe3f3b24	-0.18674904
45	0xbe170f70	-0.14751983
46	0xbdf5fe2f	-0.12011372
47	0x3e03850e	0.12843725
48	0x3e2e2619	0.1700672
49	0x3ceab458	0.028650448
50	0x3e002833	0.12515335
51	0xbda7807d	-0.08178804
52	0x3e19a24f	0.15003322
53	0xbe016129	-0.1263472
54	0xbc21c82d	-0.009874386
55	0x3e530dac	0.20610684
56	0x3e38ffba	0.18066302
57	0x3e42177f	0.18954276
58	0x3e1475d7	0.14498077
59	0x3e54f944	0.20798212
60	0x3d1b8774	0.037970975
61	0xbdeb3e10	-0.11486447
62	0xbe34ff62	-0.17675546
63	0xbda26fe9	-0.079315014
64	0xbe0b7912	-0.13620403
65	0x3e090aca	0.13383022
66	0x39ad5a4d	0.0003306441
67	0xbccbb15e	-0.024864849
68	0xbe0526e5	-0.13003118
69	0xbe233b67	-0.15940629
70	0x3e140f9e	0.14459082
71	0x3e6361bd	0.22205253
72	0x3b0dcb62	0.0021636118
73	0xbd7dfdae	-0.062009506
74	0x3bd6d339	0.0065559414
75	0x3e1ee7f2	0.15518168
76	0x3e388c8b	0.18022363
77	0x3dd52204	0.104068786
78	0xbe5a44d0	-0.21315312
79	0x3dc49401	0.09598542
80	0x3cc201fc	0.023682587
81	0xbe4ac7da	-0.198028
82	0xbdf5471d	-0.119764544
83	0x3ca782a0	0.020448029
84	0x3d9a0234	0.075199515
85	0x3e4a82b9	0.19776429
86	0x3d559dac	0.05215232
87	0x3da3cbd7	0.07997864
88	0xbdd30b92	-0.10304941
89	0x3ca6ec08	0.02037622
90	0x3e42fdd9	0.19042148
91	0xbd928815	-0.07154862
92	0x3e3862fb	0.18006508
93	0xbdf3058e	-0.11866294
94	0x3d42ae0c	0.047529265
95	0xbdaaccb8	-0.08339828
96	0x3d6c2fcd	0.057662774
97	0xbddc1da4	-0.10747841
98	0x3dc222aa	0.09479268
99	0x3e2c6ac8	0.16837609
100	0x3e10f402	0.14155582
101	0x3c9c3ab3	0.019070959
102	0xbdc47624	-0.09592846
103	0xbe1762d7	-0.14783798
104	0x3de80925	0.11329869
105	0x3d77f60f	0.060537394
106	0x3e020f9e	0.1270127
107	0xbd3b33f3	-0.04570384
108	0xbde830b5	-0.11337415
109	0xbbd7d009	-0.006586079
110	0x3da51dee	0.08062349
111	0x3e1f3f70	0.15551543
112	0xbe495b7f	-0.19663809
113	0x3e124f52	0.14288071
114	0x3d39c46b	0.045353334
115	0x3e4983b4	0.19679147
116	0xbe19d667	-0.15023194
117	0x3d5b3f8d	0.053527404
118	0x3e351321	0.17683078
119	0xbd9e7688	-0.07737452
120	0xbdf4f114	-0.119600445
121	0xbddf81ea	-0.10913451
122	0xbe3f02a0	-0.18653345
123	0x3e28c1ed	0.16480227
124	0xbe29355c	-0.16524261
125	0xbd50281e	-0.05081951
126	0xbb5bf6c9	-0.0033563843
127	0x3b1e3834	0.0024142386
128	0x3e45b5e2	0.19307664
129	0xbe014541	-0.12624075
130	0xbe3a9d9f	-0.1822419
131	0xbe439ab6	-0.19101986
132	0xbd9bdcb4	-0.07610455
133	0x3e4af376	0.19819435
134	0x3dadd08c	0.08487043
135	0xbe0cbf95	-0.13744958
136	0xbd5d0673	-0.05396123
137	0x3cccacea	0.024984796
138	0xbe476c1d	-0.19474836
139	0x3d88cccc	0.06679687
140	0x3b5c8e9e	0.0033654342
141	0xbe31e792	-0.17373493
142	0xbd737ca3	-0.059445035
143	0xbe62dee9	-0.22155346
144	0xbd6e060e	-0.058111243
145	0xbda7081f	-0.08155846
146	0x3e0aa29b	0.13538592
147	0xbe5b020f	-0.21387504
148	0x3c6ec560	0.014573425
149	0xbe377d69	-0.17918934
150	0xbe1a81b2	-0.15088537
151	0x3d41c830	0.047310054
152	0x3d3942f0	0.045229852
153	0xbdbd0756	-0.09229915
154	0x3c9ff03e	0.019523736
155	0x3e59428f	0.21216796
156	0x3d3c5115	0.045975763
157	0xbe389803	-0.18026738
158	0x3d876335	0.06610719
159	0xbe1f7471	-0.15571763
160	0x3ddb3e9c	0.10705301
161	0xbd5eceae	-0.054396324
162	0xbcdf3686	-0.027247678
163	0x3c0718b5	0.008245637
164	0xbdd7bbbf	-0.105338566
165	0x3dd0b9a9	0.10191662
166	0xbd9a25ca	-0.07526739
167	0xbd50f9e0	-0.05101955
168	0x3e2aba60	0.16672659
169	0xbde4b4f8	-0.111673295
170	0x3e31a08c	0.173464
171	0xbbc9c974	-0.0061580483
172	0x3e434fc3	0.19073395
173	0xbdde8269	-0.108647175
174	0x3e23e31b	0.16004603
175	0xbe55d8bc	-0.20883459
176	0xbd406984	-0.046975628
177	0xbe34dbfa	-0.1766204
178	0x3e410d6b	0.18852775
179	0x3d9fac19	0.07796497
180	0x3d915d7a	0.07097907
181	0xbe4314d0	-0.19050908
182	0xbda4cc7c	-0.08046815
183	0x3dbd77ba	0.09251352
184	0xbe10714e	-0.14105722
185	0xbce2283c	-0.027607076
186	0x3d87bec9	0.06628186
187	0x3e37791f	0.17917298
188	0xbd922c8c	-0.07137403
189	0x3d6eb7b2	0.058280654
190	0xbe364632	-0.17800215
191	0xbc753bca	-0.014967868
192	0xbe05a4e9	-0.1305119
193	0xbe4c7bc0	-0.19969082
194	0xbd99a944	-0.07502988
195	0xbe55f475	-0.20894034
196	0x3e0550aa	0.13019052
197	0xb8be102a	-9.062917e-05
198	0x3ad60e7c	0.0016331221
199	0x3cb060dc	0.021530561
200	0x3d6480a2	0.055786736
201	0xbdad5313	-0.08463111
202	0x3e02fefd	0.12792583
203	0xbe494085	-0.19653518
204	0xbe5dab89	-0.21647467
205	0xbdaa5183	-0.083163284
206	0x3dc5244e	0.09626065
207	0xbde036a3	-0.10947921
208	0x3ddab1ee	0.10678469
209	0x3b9059d5	0.00440524
210	0xbddc80de	-0.10766767
211	0xbd83c48a	-0.06433971
212	0xbd163c45	-0.03667857
213	0x3e446f6e	0.19183132
214	0x3e55bcac	0.20872754
215	0x3df2d98a	0.118578985
216	0x3c947460	0.018121898
217	0xbe068ad0	-0.1313889
218	0xbd8b6931	-0.06807173
219	0x39b7e9fa	0.00035078806
220	0x3e3a3a99	0.18186416
221	0xbd3d4abe	-0.046213858
222	0x3c489a5a	0.0122438315
223	0x3e2985b6	0.16554913
224	0xbca35987	-0.01994015
225	0xbd32f2a7	-0.043688443
226	0xbde74185	-0.11291794
227	0xbd710625	-0.05884375
228	0xbd6a8260	-0.05725324
229	0xbdd3a948	-0.10335022
230	0x3dccc7d2	0.0999905
231	0xbe5d4563	-0.216085
232	0xbe578392	-0.21046284
233	0x3dc1a058	0.09454411
234	0xbd93ff52	-0.07226433
235	0xbe4c6e56	-0.19963965
236	0xbd19b94e	-0.037530236
237	0x3e407665	0.18795164
238	0xbd449ded	-0.048002172
239	0x3d2d002c	0.042236492
240	0xbe5eea3f	-0.21769045
241	0x3e12eaf8	0.14347446
242	0xbe4c5850	-0.19955564
243	0xbdd7ce50	-0.10537398
244	0x3e4d9024	0.20074517
245	0x3df75030	0.120758414
246	0x3e441349	0.19147982
247	0xbe08bc56	-0.13353094
248	0x3dfd69d1	0.123736985
249	0x3e4f9657	0.20272194
250	0xbc564ad8	-0.013079368
251	0xbcf6b45f	-0.030115305
252	0x3de2ef43	0.11080792
253	0x3e5cff6f	0.21581815
254	0xbb72a976	-0.0037027276
255	0x3dc5843a	0.09644361

net.0.bias f4 [128]
0	0x3e17c862	0.14822534
1	0x3e0d65ac	0.13808316
2	0xbe63551d	-0.22200437
3	0x3dc31688	0.09525782
4	0xbcc0938b	-0.023507854
5	0xbe1622df	-0.1466174
6	0xbe0237a7	-0.12716542
7	0x3d82e032	0.06390418
8	0xbe5ee27f	-0.21766089
9	0x3df48c28	0.11940795
10	0xbad8a811	-0.001652958
11	0xbd37343e	-0.044727556
12	0x3b4f11a1	0.00315962
13	0xbe01d389	-0.1267835
14	0xbe18ec18	-0.14933813
15	0x3e223577	0.15840708
16	0xbdadb953	-0.084826134
17	0xbe056be3	-0.13029437
18	0xbdd2686e	-0.10273825
19	0x3cb7e4fe	0.02244806
20	0xbdcec9f0	-0.1009711
21	0xbba66807	-0.005078319
22	0x3e2a2ca0	0.16618586
23	0xbdee4242	-0.116337314
24	0xbe27c118	-0.16382253
25	0xbe337bac	-0.17527646
26	0x3b212456	0.0024588308
27	0xbc07a542	-0.008279147
28	0x3e1e88e6	0.1548191
29	0x3e2d1392	0.16901997
30	0xbe357de4	-0.17723805
31	0x3cf75ddd	0.030196125
32	0x3b8a308e	0.004217214
33	0x3dfd9e6b	0.123837315
34	0xbe52b897	-0.20578228
35	0xbc8dd760	-0.017314613
36	0x3c10661d	0.008813408
37	0x3e4ca553	0.19984941
38	0x3dce6148	0.10077149
39	0xbd12995a	-0.03579078
40	0x3e4101aa	0.18848291
41	0x3d4f53fd	0.050617207
42	0xbafec0b7	-0.0019436096
43	0xbcadb173	-0.021202778
44	0x3e3bc2c0	0.1833601
45	0xbd5ab4ef	-0.053395208
46	0x3d8955b1	0.067057975
47	0x3d91d785	0.07121185
48	0xbe2decbe	-0.16984841
49	0x3e2df8e7	0.1698948
50	0xbd625ad9	-0.05526242
51	0x3d573bb3	0.052547168
52	0xbdd5505a	-0.104157165
53	0xbe403f86	-0.18774232
54	0x3df2af7d	0.11849878
55	0xbe4e4369	-0.20142902
56	0xbe328865	-0.17434843
57	0xbdc67376	-0.09689991
58	0xbe08b529	-0.13350357
59	0xbe0c794a	-0.13718143
60	0x3e41e715	0.18935807
61	0xbe1d8c27	-0.15385495
62	0x3d44c822	0.048042424
63	0x3d166faa	0.036727585
64	0x3e18f2ee	0.1493642
65	0xbe41b5f2	-0.18917063
66	0x3d8a71a9	0.0675996
67	0xbddd5fd2	-0.10809292
68	0xbe0741f0	-0.13208747
69	0xbb801d28	-0.0039097257
70	0xbde01fda	-0.10943575
71	0xbe0873c1	-0.13325407
72	0x3e284bda	0.16435185
73	0x3db29be3	0.08721139
74	0x3ddf29f2	0.10896672
75	0xbd42d96b	-0.047570627
76	0x3e070464	0.13185269
77	0x3de75b1c	0.112966746
78	0x3da5481f	0.08070397
79	0x3d69e26c	0.0571007
80	0xbdb386d1	-0.087659486
81	0xba9f45ac	-0.0012151501
82	0x3dfd9541	0.123819835
83	0xbe4cff58	-0.20019281
84	0xbcc67425	-0.024225304
85	0x3dcf552d	0.10123668
86	0x3df8f92c	0.12156901
87	0xbbaff7cd	-0.0053701163
88	0x3df76f7f	0.12081813
89	0x3d24c3bf	0.04022574
90	0x3d6117c3	0.0549543
91	0x3d868c9d	0.065697886
92	0x3e60cd9c	0.21953434
93	0xbe486ccd	-0.19572754
94	0xbd7394a6	-0.059467934
95	0x3c77d3df	0.015126198
96	0x3e386911	0.1800883
97	0xbdd1f6aa	-0.102521256
98	0xbd043e98	-0.032286257
99	0xbe4d4eb5	-0.20049556
100	0xbd88b904	-0.06675914
101	0xbe0d2db2	-0.13786963
102	0x3e1aae95	0.1510566
103	0xbd8c924b	-0.06863841
104	0xbd082498	-0.033238024
105	0xbe1a1d6b	-0.15050285
106	0x3e5b4e54	0.21416599
107	0x3e2e1b9f	0.17002724
108	0x3ce1e08e	0.027572896
109	0x3e46bece	0.19408724
110	0xbd57004e	-0.052490525
111	0xbcdbb204	-0.026818283
112	0xbd77fdcf	-0.060544785
113	0xbe2354a1	-0.15950252
114	0x3aaea477	0.0013324161
115	0xbbec0b47	-0.007203493
116	0xbd7a1f2a	-0.061064877
117	0xbe355012	-0.17706326
118	0x3e57d089	0.21075644
119	0xbe48dfde	-0.19616649
120	0xbc48f4a8	-0.012265362
121	0xbd2c616e	-0.042085104
122	0xbe3b2774	-0.18276769
123	0x3dc0ce12	0.09414305
124	0xbd883785	-0.066512145
125	0xbe3a4d81	-0.18193628
126	0x3d18e1ff	0.0373249
127	0xbd987d25	-0.074457444

net.2.weight f4 [64, 128]
0	0xbd9f67d8	-0.077834785
1	0xbcdbfe8f	-0.026854781
2	0x3c930e2a	0.01795109
3	0xbcc2235a	-0.023698498
4	0xbc8c9c93	-0.017164504
5	0x3cb1f459	0.02172296
6	0x3d617345	0.05504157
7	0x3c82d746	0.015971791
8	0x3bdc45a5	0.0067221695
9	0xbd688456	-0.05676683
10	0xbd957e53	-0.07299485
11	0xbd34dd6b	-0.044156473
12	0xbbc37cc6	-0.005965802
13	0xbd0a5b8b	-0.03377871
14	0x3c6a9ffe	0.014320372
15	0xbca6ee65	-0.020377347
16	0xbc57d4f8	-0.013173334
17	0x3d5bba4f	0.053644475
18	0xbda186ce	-0.0788704
19	0x3d459299	0.04823551
20	0xbcad344d	-0.021143103
21	0x3d13d65d	0.036093105
22	0xbc9ea18a	-0.019364137
23	0xbd737878	-0.05944106
24	0xbcf32dbf	-0.0296849
25	0xba15736d	-0.00057010987
26	0xbc6935ff	-0.014234065
27	0xbd3bbeb6	-0.045836173
28	0x3c749971	0.014929161
29	0x3c2ead58	0.010661446
30	0xbc9fccef	-0.0195069
31	0x3d4f92b3	0.050677013
32	0x3d364dad	0.04450767
33	0x3da2efbf	0.07955884
34	0xbd925716	-0.071455166
35	0xbdb3834a	-0.08765276
36	0xbbe900f7	-0.0071107107
37	0x3d106d66	0.03526058
38	0xbd5c36a7	-0.053763058
39	0xbd95427a	-0.0728807
40	0xbcfbd55b	-0.030741384
41	0x3d1e5047	0.038650777
42	0x3da2d0b2	0.07949962
43	0xbd7c935b	-0.061663967
44	0x39163fc8	0.00014328875
45	0xbd1e200d	-0.038604785
46	0x3d56ba31	0.05242366
47	0x3b119f33	0.0022220134
48	0xbce20c3f	-0.02759373
49	0x3cc58814	0.024112739
50	0x3da96b7b	0.082724534
51	0xbb1d75af	-0.0024026444
52	0x3d2864b5	0.041111667
53	0x3d4690a5	0.048477788
54	0x3d7a472a	0.061103024
55	0xbceabe66	-0.028655242
56	0xbd2079ec	-0.039178774
57	0x3c45589d	0.012045053
58	0x3d2519ed	0.040307928
59	0xbd271796	-0.040793978
60	0x3cf34f44	0.029700883
61	0x3d7ba7b9	0.06143925
62	0xbd833c29	-0.06407959
63	0x3d2b99b7	0.04189464
64	0xbd40e1da	-0.04709039
65	0x3da3e8df	0.08003401
66	0xbd2ba280	-0.04190302
67	0x3d01042f	0.03149813
68	0x3d5a2375	0.05325647
69	0x3d31b710	0.043387473
70	0xbd22e5cf	-0.039769944
71	0x3d0663df	0.03281009
72	0x3c7a0874	0.015260804
73	0xbd81e194	-0.06341854
74	0x3d8a289e	0.06746028
75	0xbc66cfc9	-0.014087626
76	0xbd4ed9b6	-0.050500594
77	0xbd87d173	-0.06631746
78	0xbd1a2270	-0.0376305
79	0xbbd00737	-0.0063485163
80	0xbd7ccea7	-0.061720517
81	0x3d16d1b0	0.036821067
82	0x3db24969	0.08705408
83	0x3cb6a208	0.02229406
84	0x3d3b3d22	0.045712598
85	0x3b9235fd	0.0044620023
86	0xbd3b1468	-0.045673758
87	0x3bfe2ecb	0.007757043
88	0x3db07d32	0.08617629
89	0x3d2b5c8a	0.0418363
90	0xbcf6d803	-0.0301323
91	0xbc1f1e09	-0.009711751
92	0x3b41ac35	0.0029552106
93	0xbda76bcf	-0.0817486
94	0x3d98fa61	0.07469631
95	0x3d819ff5	0.063293375
96	0x3d9cf5c0	0.076640606
97	0xbcb1d816	-0.021709483
98	0x3cab6695	0.020922938
99	0x3d1c4ca4	0.038159028
100	0xbd0ac5d7	-0.03388008
101	0x3ce2f63c	0.027705304
102	0xbd3da188	-0.046296626
103	0xbdad0cae	-0.08449684
104	0x3d1db3b5	0.03850146
105	0xbd19850d	-0.037480403
106	0x3d7248e6	0.059151553
107	0xbd901091	-0.0703441
108	0xbd41ceb6	-0.047316276
109	0x380dafc0	3.37807e-05
110	0xbcb0d67a	-0.021586645
111	0xbdae5b72	-0.085135356
112	0xbd7de3d7	-0.061984863
113	0x3c84db8c	0.01621797
114	0xbc634d0e	-0.013873352
115	0xbd68e3e2	-0.05685795
116	0xbd122b35	-0.035685737
117	0xbd9ae6ca	-0.07563551
118	0xbcce3492	-0.025171552
119	0xbbb365f7	-0.0054748016
120	0x3daf7d2b	0.08568796
121	0x3d9bdda3	0.07610633
122	0x3d932072	0.07183923
123	0x3d930f88	0.07180697
124	0xbccc3d38	-0.024931535
125	0xbd96f59e	-0.073710665
126	0xbd8db090	-0.06918442
127	0xbda96175	-0.082705416
128	0xbd888fb8	-0.06668037
129	0xbda4dd75	-0.08050052
130	0x3afbd1bd	0.0019212287
131	0xbcd25465	-0.025675008
132	0x3d0585b8	0.032598227
133	0x3d84c260	0.064823866
134	0xbd9e96f8	-0.07743639
135	0x3d4758d1	0.048668686
136	0xbd3e5eb2	-0.046477027
137	0xbcf4d6ac	-0.02988752
138	0xbd9c8522	-0.076425806
139	0xbd449dc4	-0.04800202
140	0x3dac5f0c	0.08416566
141	0x3d6e52d6	0.058184467
142	0xbd8f9f90	-0.07012856
143	0x3cb39612	0.021922145
144	0x3b9b88c5	0.004746529
145	0xbd77df56	-0.060515724
146	0x3ceab71c	0.028651766
147	0xbdb40f23	-0.087919496
148	0x3d89b4b8	0.067239225
149	0xbd76a8f6	-0.060219727
150	0x3ce20f5f	0.02759522
151	0x3da825e4	0.08210352
152	0xbc4146c6	-0.011796659
153	0x3d757d65	0.05993404
154	0x3d2d8b59	0.04236922
155	0xbda88d74	-0.08230105
156	0x3da5b39e	0.080909
157	0x3d93322d	0.07187305
158	0x3d9b3d52	0.07580055
159	0x3d35110c	0.04420571
160	0x38b8277a	8.781157e-05
161	0x3d8fb2b4	0.07016507
162	0x3d799b20	0.060938954
163	0xbd6dfb83	-0.05810119
164	0x3d8d61b8	0.06903404
165	0x3d22b848	0.039726526
166	0xbd45ce56	-0.04829248
167	0xbd1a6fe7	-0.037704375
168	0x3d831c1a	0.06401844
169	0xbd667b7a	-0.0562701
170	0x3d9a3505	0.07529644
171	0xbd54fd13	-0.051999163
172	0x3d95c13c	0.07312247
173	0x3d5e5f0f	0.054289874
174	0xbd09557f	-0.0335288
175	0xbd172c46	-0.036907457
176	0xbca85da3	-0.020552462
177	0x3d95459e	0.07288669
178	0xbd3154f0	-0.043293893
179	0x3cc007c8	0.02344121
180	0xbd1f865b	-0.03894649
181	0xbd6f076c	-0.058356687
182	0x3b1eb007	0.0024213807
183	0x3d970955	0.07374827
184	0x3d7a8dc0	0.06117034
185	0xbd4d8932	-0.050179668
186	0x3d8488a9	0.06471378
187	0x3cfb32d7	0.03066389
188	0xbc8251d4	-0.01590816
189	0xbc803c42	-0.015653733
190	0xbd8eac34	-0.06966439
191	0x3d02acde	0.03190314
192	0x3ce2a2b3	0.027665472
193	0x3ce59cce	0.028028872
194	0xbbdc332b	-0.006719967
195	0x3c0596a5	0.008153592
196	0xbd9390fb	-0.07205387
197	0xbd4e5612	-0.05037505
198	0xbda0cc97	-0.078515224
199	0xbd7403d5	-0.059573967
200	0xbb9c8ad0	-0.00477729
201	0xbdb232e0	-0.0870111
202	0x3be8af0d	0.007100946
203	0x3c0c383c	0.008558329
204	0xbcdf7be5	-0.027280757
205	0xbce87aa4	-0.028378792
206	0xbc32e2cc	-0.01091833
207	0xbc4510e0	-0.012027949
208	0x3c2c253e	0.010506926
209	0xbc594d1f	-0.013263016
210	0xbd9b4999	-0.07582397
211	0x3d6e3776	0.05815836
212	0x3da0a4b5	0.078439154
213	0xbb7a3447	-0.0038178132
214	0xbb3f221d	-0.002916462
215	0x3a7cab4c	0.00096385623
216	0xbc18d88f	-0.009328975
217	0x3d5dd380	0.05415678
218	0xbd23077f	-0.03980207
219	0x3ce9814c	0.028504036
220	0x3d813be2	0.0631025
221	0x3d69d450	0.057087243
222	0xbd0a9e77	-0.03384253
223	0xbcdaa7df	-0.026691375
224	0x3d8fbe53	0.07018723
225	0x3da5c113	0.080934666
226	0x3d69c6da	0.057074405
227	0xbd8386fa	-0.06422229
228	0x3daae6c2	0.08344795
229	0x3d2137ec	0.039359972
230	0x3db151a4	0.0865815
231	0xbda15937	-0.078783445
232	0xbd21584f	-0.03939086
233	0x3d907562	0.07053639
234	0x3d818b61	0.063254125
235	0xbcb79e12	-0.022414241
236	0xbd8485bc	-0.0647082
237	0xbbbbfa42	-0.00573662
238	0x3d9fc550	0.07801306
239	0x3d8b8864	0.06813124
240	0x3d7542b1	0.059878055
241	0x3da06efc	0.078336686
242	0x3d567cd6	0.052365147
243	0x3daca105	0.084291495
244	0x3cd1c408	0.02560617
245	0xbd41d730	-0.04732436
246	0xbd93b8fb	-0.072130166
247	0xbd968384	-0.07349303
248	0x3d848273	0.06470194
249	0xbd93c64f	-0.07215559
250	0x3d8ac683	0.06776144
251	0x3d3b32d6	0.045702778
252	0xbd91ecab	-0.07125219
253	0xbdb0bc7b	-0.086297
254	0xbbe79ec5	-0.0070684873
255	0x3d721f87	0.059112098

net.2.bias f4 [64]
0	0xbd9820e8	-0.07428151
1	0xbce121af	-0.027481882
2	0x3cc1afb4	0.023643352
3	0xbb243ef9	-0.0025061949
4	0xbcae91fa	-0.021309841
5	0xbd4521fe	-0.04812812
6	0xbc0d4d33	-0.008624363
7	0x3d6a662f	0.057226356
8	0xbd28567e	-0.04109811
9	0xbd0990b7	-0.033585276
10	0x3da104ce	0.078622445
11	0xbd810d46	-0.0630136
12	0xbd85a3e6	-0.06525402
13	0xbd4bf3f6	-0.049793206
14	0xbc4cc3a2	-0.012497814
15	0x3d9bd523	0.07609012
16	0x3c9e0b32	0.019292448
17	0xbd3fd4d5	-0.04683383
18	0xbd380896	-0.044930063
19	0x3ce519b2	0.027966354
20	0xbc0544bd	-0.008134064
21	0xbd0e3f50	-0.03472835
22	0xbcc80211	-0.024415048
23	0x3cf5ff37	0.030028922
24	0xbd876c54	-0.06612459
25	0x3cb7f64b	0.022456309
26	0x3cdd2062	0.02699298
27	0xbd462b11	-0.048380915
28	0xbd86f54f	-0.06589758
29	0xbd9e6a54	-0.07735124
30	0xbd2332f9	-0.039843533
31	0xbd26612f	-0.040620025
32	0x3d622bd9	0.055217598
33	0xbd5d6a7a	-0.054056622
34	0xbd1cb41b	-0.0382577
35	0xbd747da0	-0.059690118
36	0xbd90c3bf	-0.070685856
37	0x3d14c7b1	0.036323253
38	0xbc284265	-0.010269736
39	0x3d56cf8b	0.052444022
40	0x3d6f138f	0.058368262
41	0x3d4042cb	0.0469387
42	0x3d9e2ff3	0.07723989
43	0xbd8b9385	-0.068152465
44	0xbd3a359e	-0.04546129
45	0x3d33595b	0.043786388
46	0xbd1edb90	-0.03878361
47	0xbc0228f6	-0.007944336
48	0x3d8b4719	0.0680067
49	0x3d43867a	0.04773567
50	0xbd145514	-0.03621395
51	0x3c9a0d71	0.018805237
52	0xbd4834f2	-0.048878618
53	0x3c770044	0.015075747
54	0x3d8d96b9	0.06913514
55	0xbd937327	-0.07199698
56	0xbc6a9378	-0.014317386
57	0x3da5071e	0.08057998
58	0xbd84ae80	-0.06478596
59	0x3d1d010b	0.038331073
60	0x3c937290	0.017998964
61	0xbd30b2e1	-0.043139342
62	0xbd922bd2	-0.07137264
63	0x3d8e8529	0.06958992

net.4.weight f4 [3, 64]
0	0xbdfe8004	-0.12426761
1	0x3d8327d2	0.064040795
2	0xbbafd90a	-0.0053664492
3	0x3d12e87c	0.035866246
4	0xbdefde00	-0.11712265
5	0x3d81d30d	0.06339083
6	0x3d9975f1	0.07493199
7	0x3c8e9d9a	0.017409135
8	0xbd8974a1	-0.06711698
9	0x3dbaab46	0.09114699
10	0x3d81f5d2	0.06345715
11	0xbc183023	-0.00928882
12	0x3d378830	0.044807613
13	0x3c22d02d	0.009937328
14	0x3cbdf795	0.023189345
15	0xbdbcc9bc	-0.09218165
16	0xbdac3e96	-0.08410375
17	0xbdbe5cf1	-0.09295071
18	0x3d48f4f5	0.049061734
19	0xbd11beb2	-0.03558225
20	0x3d976267	0.07391816
21	0xbc424450	-0.011857107
22	0xbb07d4e9	-0.002072627
23	0x3db16e1e	0.08663581
24	0x3c1b3a3a	0.0094743315
25	0xbdd563b2	-0.10419406
26	0xbd24c5d6	-0.040227734
27	0x3db05902	0.08610727
28	0xbcff397f	-0.031155346
29	0x3c5e0024	0.013549838
30	0x3dd91113	0.1059896
31	0xbc1eab23	-0.009684357
32	0xbdc40fde	-0.09573339
33	0xbcf83bc7	-0.030301942
34	0xbd0237be	-0.03179144
35	0xbd84997c	-0.06474587
36	0xbd7c5157	-0.06160101
37	0xbd80a102	-0.0628071
38	0x3cc93227	0.024560047
39	0x3d5f838f	0.054568823
40	0x3d0df06f	0.034653123
41	0x3bb35351	0.0054725786
42	0x3d544b0f	0.051829394
43	0xbda0be47	-0.078487925
44	0xbd633a89	-0.055475745
45	0xbd8142fd	-0.06311605
46	0xbdcd3cbe	-0.10021351
47	0x3dd021f1	0.10162724
48	0x3de55b9b	0.11199113
49	0x3dd92b26	0.10603933
50	0xbd5fb02b	-0.054611366
51	0x3c4bcd17	0.012439034
52	0xbda6d116	-0.08145349
53	0x3d725fd7	0.05917343
54	0xbca9908c	-0.020698808
55	0x3d719d24	0.05898775
56	0x3dcc67b7	0.099807195
57	0x3cec74c9	0.028864281
58	0xbd4c69b7	-0.049905505
59	0x3d2daaa2	0.042399056
60	0xbc64b5f7	-0.013959399
61	0x3d9af586	0.07566361
62	0xbcc03ac2	-0.023465518
63	0xbda71f59	-0.08160276
64	0xbddd0400	-0.107917786
65	0x3cca37c0	0.024684787
66	0xbc86e9d8	-0.016468927
67	0x3d90d4c0	0.07071829
68	0x3cbcd180	0.023049116
69	0xbd369ef4	-0.044585183
70	0xbca322a8	-0.019913986
71	0xbdadad94	-0.08480373
72	0x3b6fbb80	0.0036580265
73	0xbce41678	-0.027842745
74	0xbdf5d3e6	-0.12003307
75	0x3d17ba58	0.037042946
76	0xbc389700	-0.01126647
77	0xbdcb0c2c	-0.09914431
78	0xbd466950	-0.048440278
79	0xbc949c18	-0.018140838
80	0x3d751c94	0.059841707
81	0xbc3799f0	-0.011206135
82	0xbd86ba60	-0.06578517
83	0x3d4cda14	0.050012663
84	0x3dfe325c	0.12411949
85	0x3ddce6a4	0.10786179
86	0x3c92be28	0.01791294
87	0xbda16746	-0.07881026
88	0x3b4e9f40	0.0031528026
89	0xbdc68fba	-0.096953824
90	0xbdc79a7a	-0.09746261
91	0xbde7934a	-0.1130739
92	0xbc725cc0	-0.014792621
93	0xbcf25238	-0.02958022
94	0x3dcbe982	0.099566475
95	0x3c94bbb0	0.018155903
96	0xbd2f076c	-0.042731687
97	0xbd82bc54	-0.06383577
98	0xbc780350	-0.0151375085
99	0xbde8bdc0	-0.11364317
100	0xbcf4e290	-0.02989319
101	0xbded43c2	-0.115851894
102	0xbdb0f6ae	-0.086408004
103	0x3d931f96	0.07183759
104	0x3da877ee	0.08226
105	0xbc128140	-0.008941948
106	0xbd92b8e0	-0.07164168
107	0x3d440a98	0.047861665
108	0xbd4c3268	-0.04985276
109	0xbcda9968	-0.026684478
110	0x3d8a41ee	0.06750856
111	0x3d44295c	0.047891006
112	0xbcaaf398	-0.020868108
113	0x3d3e6b8c	0.046489283
114	0xbdb6911a	-0.08914395
115	0xbd970928	-0.07374793
116	0xbd9ca788	-0.076491416
117	0xbd6d7e94	-0.057982042
118	0xbdee9ce8	-0.11651021
119	0x3df9995e	0.121874556
120	0xbde1c834	-0.11024514
121	0x3da383d2	0.07984127
122	0x3d12f9c8	0.03588274
123	0xbdbdac4e	-0.0926138
124	0xbdca7e80	-0.09887409
125	0xbd4c5508	-0.04988578
126	0xbdd1e970	-0.10249603
127	0xbd85e43e	-0.06537674
128	0xbc8410f0	-0.016121358
129	0x3cfb05bb	0.030642381
130	0x3d45b7a5	0.04827084
131	0x3b0ad88f	0.0021186208
132	0xbda949af	-0.08266007
133	0x3c867446	0.016412865
134	0x3c93f234	0.018059827
135	0xbdaba31f	-0.08380722
136	0x3dea1ea9	0.11431629
137	0xbddce7c4	-0.10786393
138	0xbc9e94f9	-0.019358145
139	0xbdd041b2	-0.101687804
140	0x3d328fb4	0.043594077
141	0x3c876029	0.016525345
142	0xbd38e4f2	-0.045140214
143	0xbd613548	-0.054982454
144	0x3c5978a6	0.013273394
145	0x3db30bf3	0.087425135
146	0xbb5cb6d4	-0.003367831
147	0x3dab5c50	0.083672166
148	0xbb12ee9a	-0.002242005
149	0x3da33a3d	0.079700924
150	0x3c58ef52	0.013240652
151	0x3ded21d6	0.11578719
152	0xbdd793fe	-0.10526274
153	0x3db41738	0.08793491
154	0x3d44a60e	0.048009925
155	0x3c8bc680	0.017062426
156	0x3ca09539	0.019602405
157	0xbd3932b6	-0.045214377
158	0x3dd5d9a6	0.10441904
159	0xbd8d201b	-0.06890889
160	0x3c8a069b	0.016848853
161	0xbd2338fb	-0.039849263
162	0x3d75ccc3	0.06000973
163	0xbbeeebcb	-0.0072912923
164	0xbde09cdd	-0.10967419
165	0xbc1b3376	-0.009472718
166	0xbda7aa3c	-0.081867665
167	0x3dbff229	0.0937236
168	0x3df4155b	0.11918136
169	0x3b9f1faa	0.0048560696
170	0x3de78b3e	0.11305855
171	0xbd5fdbf4	-0.054653123
172	0x3d1daff9	0.0384979
173	0xbdc14318	-0.09436625
174	0x3b949235	0.004534031
175	0x3df209f6	0.11818306
176	0xbd4ec057	-0.0504764
177	0xbd8b3267	-0.06796723
178	0xbbabb688	-0.0052402653
179	0xbd5c5845	-0.053795118
180	0xbd5f78a0	-0.054558396
181	0x3d30803f	0.043091055
182	0x3d5baabc	0.053629622
183	0x3dd5e66b	0.10444339
184	0x3d0d5d46	0.03451278
185	0xbd68aea3	-0.05680717
186	0xbddcd014	-0.10781875
187	0x3a9f32aa	0.0012145836
188	0xbdcff700	-0.101545334
189	0xbd9784c4	-0.0739837
190	0x3d69eb6c	0.05710928
191	0x3b307d2f	0.0026930084

net.4.bias f4 [3]
0	0x3ddaf810	0.106918454
1	0xbde2c4fa	-0.110727265
2	0xbd100c14	-0.03516777
