uniform/00_uniformtest/model_ep1100.pth (torch, 61307 bytes, 10 tensors)

lstm.weight_ih_l0 f4 [80, 20]
-0.20614457 -0.06785561 0.11688185 0.1255432 -0.0737766 0.2141046 -0.01776844 -0.040199097
-0.19863111 0.09262312 0.058782015 0.18013927 -0.03602642 0.05333734 -0.19138293 0.1415894
0.07740518 -0.13869515 -0.0045479946 0.0822796 0.015166095 0.082069606 0.014990939 -0.18451646
0.09852252 -0.08498977 -0.17752124 -0.016614342 0.037245214 0.058196995 0.19158895 -0.20316409
0.17447655 -0.20997736 0.003486899 0.1332719 -0.10703106 -0.08154728 0.19037072 0.14225197
0.1884902 0.11228928 -0.027539201 0.050310895 0.08690871 0.121869534 0.07038911 0.02453115
-0.20391747 0.04890735 0.19429481 0.0042852196 -0.019529337 -0.21524246 0.08932948 -0.14754462
-0.17663251 0.16480894 -0.19459282 0.09336733 0.20111184 -0.079716414 0.09202013 -0.0920707
-0.13212162 0.19869262 -0.09904344 0.15633841 0.0930116 0.016990833 0.017910918 -0.12873873
0.125838 0.09093449 0.066850014 -0.16113836 -0.20480959 -0.10728888 -0.05479526 0.008238039
-0.08666377 -0.13830043 0.11170469 0.028615464 0.14832252 -0.08629227 0.050334726 -0.17964704
-0.17117392 -0.053905163 0.013058725 0.12551905 0.030418182 0.10736403 -0.13512868 -0.100934945
0.040908094 0.04014672 0.10274241 0.08717581 -0.05253499 0.029035429 -0.20491579 -0.12418362
0.22224331 -0.08322339 -0.18715662 -0.13669713 0.18209206 0.13345136 0.18711498 -0.06053134
-0.20565243 0.069456436 -0.12331682 0.04580896 0.056924865 0.08014782 -0.048936643 -0.034775212
0.042806216 0.104037754 0.18754344 -0.16325685 -0.173025 0.067286156 -0.18429555 0.14769702
0.030785982 -0.1301232 -0.16380414 0.11096605 -0.05275053 -0.19014943 -0.017402988 -0.17093071
0.2068974 0.082398914 -0.04228914 -0.1768218 0.057110097 -0.18900612 -0.2085602 0.12706348
0.19756225 -0.014667521 0.14400855 -0.20216286 -0.1771292 -0.12375211 0.09960334 0.15719709
-0.07035789 0.012144131 0.044654943 -0.15970372 0.16469905 0.115658686 -0.13189323 0.029125579
-0.10117018 -0.091773756 0.049210347 -0.11555827 0.126869 -0.024241932 -0.20803148 0.058489196
-0.16367486 0.21458517 0.053193342 0.16052823 -0.013994563 -0.0036962018 0.21640599 -0.039520357
-0.14615081 0.11239719 0.016156312 0.21954426 -0.11370437 0.12247665 0.21043772 0.1971627
-0.083819844 0.0035415704 -0.08638599 0.021600561 0.18464637 0.11657099 -0.090070836 -0.13727432
0.16697243 0.11825487 -0.12356448 -0.15949726 0.06928768 -0.083286 0.10585218 0.11400177
-0.15525408 0.15442838 -0.012657765 0.0929318 0.014212583 -0.04114653 -0.14883114 -0.14335352
0.14914687 0.18853524 -0.13777506 0.10505884 -0.18357228 0.1415476 0.0846433 -0.15004443
-0.16994649 -0.19383377 0.1518986 0.13936184 0.09901078 0.13803633 0.012620233 -0.07429536
-0.04928168 -0.12738116 -0.05495941 0.030976467 0.19584256 -0.10713407 -0.18333189 0.0029121954
-0.1037946 -0.1017395 0.14998414 0.11891914 -0.09529405 -0.031443585 -0.21550515 -0.012246543
-0.16039167 -0.1427386 0.08228571 0.19851345 0.14980042 0.10728395 -0.064382225 0.1143555
-0.040006775 -0.08416024 0.05133571 0.18509382 -0.06157391 -0.0019661204 0.10790184 -0.09716096
00000000: 9017 53be e2f7 8abd c05f ef3d 668e 003e
00000010: 3018 97bd 3c3e 5b3e 1f8f 91bc cfa7 24bd
00000020: f465 4bbe 31b1 bd3d 69c5 703d 6e76 383e
00000030: 7090 13bd 4178 5a3d e3f9 43be d0fc 103e
00000040: 9b86 9e3d 1a06 0ebe 5807 95bb 3582 a83d
00000050: 377b 783c 1c14 a83d 8e9c 753c e2f1 3cbe
00000060: 2dc6 c93d 1e0f aebd 21c8 35be cd1a 88bc
00000070: 708e 183d f95f 6e3d e52f 443e 3f0a 50be
00000080: fba9 323e 4e04 57be 7584 643b 6e78 083e
00000090: 1a33 dbbd 4302 a7bd 8bf0 423e 80aa 113e
000000a0: 9303 413e ecf7 e53d e499 e1bc cc12 4e3d
000000b0: 32fd b13d bc96 f93d 2a28 903d 8df5 c83c
000000c0: becf 50be 1353 483d 38f5 463e 076b 8c3b
000000d0: fdfb 9fbc 8568 5cbe 60f2 b63d f015 17be
000000e0: 27df 34be adc3 283e 5743 47be 5f37 bf3d
000000f0: 43f0 4d3e 5c42 a3bd 0d75 bc3d 908f bcbd
00000100: e44a 07be 1476 4b3e 49d7 cabd 2d17 203e
00000110: de7c be3d 5c30 8b3c ebb9 923c 16d4 03be
00000120: addb 003e dd3b ba3d a9e8 883d 7401 25be
00000130: 9bb9 51be 46ba dbbd ff70 60bd d7f8 063c
00000140: c67c b1bd a19e 0dbe 6ec5 e43d fa6a ea3c
00000150: dce1 173e 00ba b0bd c92b 4e3d 65f5 37be
00000160: 3748 2fbe a9cb 5cbd 43f4 553c 1188 003e
00000170: 8d2f f93c ace1 db3d 2c5f 0abe fbb6 cebd
00000180: 3f8f 273d e370 243d 9d6a d23d 3b89 b23d
00000190: ee2e 57bd b5db ed3c 72d5 51be fb53 febd
000001a0: c093 633e 0671 aabd fca5 3fbe 55fa 0bbe
000001b0: 5776 3a3e 79a7 083e 129b 3f3e b6ef 77bd
000001c0: 8d96 52be 2d3f 8e3d 878d fcbd 2da2 3b3d
000001d0: 0c2a 693d 8a24 a43d ca71 48bd 7470 0ebd
000001e0: 9255 2f3d bf11 d53d 630b 403e ce2c 27be
000001f0: 772d 31be 53cd 893d f9b7 3cbe e33d 173e
00000200: e232 fc3c 043f 05be 46bc 27be 2b42 e33d
00000210: f110 58bd 88b6 42be b690 8ebc 7608 2fbe
00000220: e9dc 533e c3c0 a83d 6137 2dbd c610 35be
00000230: 47ec 693d d28a 41be ce90 55be ee1c 023e
00000240: c24d 4a3e 0b50 70bc fa76 133e c803 4fbe
00000250: 5b61 35be bf71 fdbd d6fc cb3d 46f8 203e
00000260: cc17 90bd 2df8 463c 1ae8 363d 5f89 23be
00000270: dea6 283e 76de ec3d 050f 07be c498 ee3c
00000280: 5032 cfbd e1f3 bbbd ca90 493d d0a9 ecbd
00000290: f2e9 013e 0497 c6bc 3406 55be 5e92 6f3d
000002a0: 629a 27be 37bc 5b3e 43e1 593d 8361 243e
000002b0: 7449 65bc fa3b 72bb 8899 5d3e 19e0 21bd
000002c0: 8fa8 15be 7f30 e63d 3e5a 843c 36d0 603e
000002d0: d6dd e8bd 0ad5 fa3d fc7c 573e 05e5 493e
000002e0: bda9 abbd b119 683b 23eb b0bd a9f3 b03c
000002f0: f013 3d3e c5bc ee3d 0f77 b8bd a491 0cbe
00000300: d2fa 2a3e 9c2f f23d 600f fdbd 4053 23be
00000310: b3e6 8d3d da91 aabd 07c9 d83d c379 e93d
00000320: edfa 1ebe 7922 1e3e 8462 4fbc 0753 be3d
00000330: e5db 683c 4489 28bd 3167 18be 44cb 12be
00000340: f5b9 183e 620f 413e e814 0dbe 1729 d73d
00000350: 5ffa 3bbe dbf1 103e 7759 ad3d 3fa5 19be
00000360: 7406 2ebe 5c7c 46be 4e8b 1b3e dfb4 0e3e
00000370: 2ac6 ca3d 6559 0d3e 18c5 4e3c 2a28 98bd
00000380: 96db 49bd 3570 02be 1e1d 61bd 5cc2 fd3c
00000390: f48a 483e 1b69 dbbd 5bbb 3bbe 88da 3e3b
000003a0: 4392 d4bd cd5c d0bd 7195 193e e18b f33d
000003b0: 8729 c3bd fdca 00bd 62ad 5cbe b9a5 48bc
000003c0: b73d 24be 112a 12be 6985 a83d 1c47 4b3e
000003d0: 4865 193e b0b7 db3d d4da 83bd 3733 ea3d
000003e0: 25de 23bd 345c acbd 6545 523d 3c89 3d3e
000003f0: ed34 7cbd 07da 00bb a4fb dc3d 53fc c6bd

lstm.weight_hh_l0 f4 [80, 20]
-0.00033978414 0.14353172 -0.10843528 0.091226615 0.09833774 0.009787526 0.0002670932 -0.1458521
0.101901785 -0.079326466 -0.0012332401 -0.18426472 -0.014314649 -0.11285642 -0.15051405 0.13664046
-0.2126693 -0.1322719 -0.09151927 0.17099981 0.004499134 -0.1796018 -0.021548476 0.16580337
0.09959702 -0.014409144 -0.06050479 0.099795 0.07774891 -0.03331497 0.21799783 -0.04979438
0.21130532 0.11436203 -0.08146174 -0.21164542 -0.010139172 -0.113910474 -0.012300681 -0.09926753
-0.09828629 -0.11818818 -0.08072772 -0.21030481 0.07109669 -0.1957913 -0.13939421 0.11520172
-0.026680237 -0.20768474 -0.056517504 0.16114567 -0.17081083 0.13415469 0.090585776 0.06314208
-0.20938203 0.14300987 0.20866072 -0.17071189 -0.08034768 -0.0028218583 0.22249934 -0.20868975
-0.13680372 0.011168014 0.1260111 0.19596039 0.18969062 0.11770903 -0.1618971 -0.20958741
-0.14502504 -0.18035577 -0.031818822 -0.22230724 0.15773721 -0.08774006 -0.08093209 -0.15441118
-0.1472215 0.17762275 -0.054651693 -0.14059 -0.015252328 -0.08888579 0.15623564 0.05973246
0.1715997 0.07642829 0.08576959 0.19700733 0.036685597 0.18208961 0.11888198 -0.08288379
-0.1795252 0.18997808 -0.21498965 0.1509509 -0.07560857 -0.06419982 -0.123637095 -0.13730115
0.10840561 -0.023757087 0.017668001 -0.051182546 0.15986735 -0.10639892 0.16382107 -0.08225777
-0.09318466 -0.03621565 -0.084161386 0.01971081 -0.13789192 -0.04008 0.13267435 -0.040249903
-0.1434654 0.13764805 0.18994674 0.08549925 0.022597043 0.13845903 0.17919967 0.15633039
0.12737605 -0.17069104 0.062097754 -0.04858769 -0.13517605 0.023439772 0.21393485 0.20707586
0.13629574 0.17199023 0.03195922 -0.14135385 -0.13730085 0.09189056 0.07260283 0.16458637
-0.0042856196 0.18654726 -0.1214421 -0.1358139 0.08044788 0.21482241 -0.024775986 0.21869494
0.20213048 -0.18233898 -0.14923234 -0.13860571 -0.16535659 -0.16858222 -0.20627192 -0.09507547
0.15299004 -0.09167872 0.19853178 -0.20757134 -0.16064966 0.11227939 0.22293787 -0.17991045
0.06290866 0.16504717 0.13806705 -0.21930066 0.14572312 0.08695237 -0.007086153 -0.17968908
0.01206091 -0.06392969 0.20800045 -0.044451904 -0.1483362 0.11739089 -0.17878672 -0.2063216
0.16205022 0.0134039465 -0.034810852 0.09355813 0.14965533 -0.049793582 0.18057701 0.15457763
0.061151627 -0.103806034 0.14328721 -0.04542005 0.061936967 0.16104469 -0.08048184 0.20590225
-0.18072826 0.17996009 -0.047766604 0.11958578 -0.069737315 -0.006632548 -0.014408185 -0.11051647
0.08866617 0.022012264 0.10916744 -0.18895306 -0.020522114 0.17776452 -0.16014199 0.021956073
-0.22043844 0.1356002 -0.06739102 -0.084923536 -0.1330359 -0.091049455 0.15831313 0.12343589
0.031657662 0.035569217 -0.05265417 0.16160604 0.19941647 0.17864102 0.11931597 -0.12950304
-0.18565802 -0.08899374 0.094669126 -0.12632844 0.026769081 -0.057419438 -0.046225727 -0.15529625
-0.07580856 0.005403759 -0.16996288 0.00094204996 -0.01787296 -0.16403428 0.09959556 -0.084571324
-0.15473823 0.13546133 -0.15331307 -0.21721497 -0.17881103 -0.1469107 0.21073274 -0.18586932
00000000: 0e25 b2b9 fbf9 123e 5113 debd 05d5 ba3d
00000010: 4c65 c93d dc5b 203c a408 8c39 415a 15be
00000020: e2b1 d03d ea75 a2bd aca4 a1ba e4af 3cbe
00000030: fd87 6abc 4421 e7bd 5b20 1abe 7aeb 0b3e
00000040: fbc5 59be 4972 07be 746e bbbd 931a 2f3e
00000050: 796d 933b 89e9 37be 6e86 b0bc 5cc8 293e
00000060: 86f9 cb3d 5514 6cbc dfd3 77bd 5261 cc3d
00000070: d23a 9f3d 4775 08bd d33a 5f3e 31f5 4bbd
00000080: 6c60 583e a436 ea3d 6ad5 a6bd 94b9 58be
00000090: c51e 26bc e549 e9bd cc88 49bc c64c cbbd
000000a0: 534a c9bd a50c f2bd 9354 a5bd 255a 57be
000000b0: 249b 913d 847d 48be 5bbd 0ebe e1ee eb3d
000000c0: 8390 dabc 4fab 54be e67e 67bd 5f03 253e
000000d0: 09e9 2ebe d95f 093e 0985 b93d a350 813d
000000e0: 3e68 56be 2e71 123e 28ab 553e 19cf 2ebe
000000f0: 538d a4bd edee 38bb ded6 633e c4b2 55be
00000100: 4616 0cbe 0cfa 363c 0e09 013e d7a9 483e
00000110: 423e 423e 6f11 f13d 5ac8 25be 159e 56be
00000120: 7281 14be 2faf 38be 7454 02bd 82a4 63be
00000130: dd85 213e 10b1 b3bd b9bf a5bd f71d 1ebe
00000140: 3cc1 16be bde2 353e 74da 5fbd d3f6 0fbe
00000150: e6e4 79bc c109 b6bd 3cfc 1f3e 06aa 743d
00000160: d5b7 2f3e 6f86 9c3d f8a7 af3d 4abc 493e
00000170: a343 163d b375 3a3e 6578 f33d fabe a9bd
00000180: 74d5 37be 9d89 423e 3f26 5cbe df92 1a3e
00000190: aad8 9abd 327b 83bd 7235 fdbd ac98 0cbe
000001a0: c303 de3d 399e c2bc 7cbc 903c caa4 51bd
000001b0: 44b4 233e ade7 d9bd b6c0 273e c376 a8bd
000001c0: 99d7 bebd dd56 14bd ce5c acbd 9178 a13c
000001d0: 8a33 0dbe ed2a 24bd c9db 073e 15dd 24bd
000001e0: 98e8 12be 9cf3 0c3e 6681 423e 3b1a af3d
000001f0: 6f1d b93c 34c8 0d3e 1e80 373e 1315 203e
00000200: de6e 023e a2c9 2ebe 375a 7e3d e303 47bd
00000210: 976b 0abe c404 c03c bd11 5b3e b20b 543e
00000220: 1c91 0b3e 351e 303e ace7 023d 10bf 10be
00000230: 9898 0cbe 1e31 bc3d cbb0 943d 5489 283e
00000240: 626e 8cbb 3f06 3f3e a3b6 f8bd cd12 0bbe
00000250: dcc1 a43d 68fa 5b3e 02f7 cabc 91f1 5f3e
00000260: 4bfb 4e3e 12b7 3abe 5dd0 18be a8ee 0dbe
00000270: 3d53 29be d1a0 2cbe f238 53be eeb6 c2bd
00000280: 6ca9 1c3e 0ec2 bbbd ea4b 4b3e 958d 54be
00000290: 5881 24be bdf2 e53d d349 643e 723a 38be
000002a0: 41d6 803d 2002 293e 7361 0d3e 5a90 60be
000002b0: 7138 153e 1614 b23d f632 e8bb 6a00 38be
000002c0: 209b 453c 92ed 82bd 12fe 543e 3313 36bd
000002d0: 72e5 17be a36a f03d de13 37be f845 53be
000002e0: 7ef0 253e 3a9c 5b3c d395 0ebd 689b bf3d
000002f0: 3f3f 193e 5bf4 4bbd 2ee9 383e 9949 1e3e
00000300: 217a 7a3d 4298 d4bd e2b9 123e 600a 3abd
00000310: 9eb1 7d3d e6e8 243e aad3 a4bd 0ad8 523e
00000320: d410 39be 7547 383e eaa6 43bd 64e9 f43d
00000330: 70d2 8ebd d855 d9bb 4f10 6cbc 7656 e2bd
00000340: 9c96 b53d 1053 b43c 2e93 df3d e97c 41be
00000350: fe1d a8bc e707 363e 43fc 23be 39dd b33c
00000360: 9dba 61be c7da 0a3e 4e04 8abd 64ec adbd
00000370: 903a 08be 2378 babd d61c 223e f5cb fc3d
00000380: 77ab 013d 07b1 113d e6ab 57bd 0e7c 253e
00000390: d533 4c3e aced 363e ee5b f43d 729c 04be
000003a0: 231d 3ebe 5a42 b6bd e3e1 c13d 3e5c 01be
000003b0: d54a db3c a530 6bbd 3057 3dbd fb05 1fbe
000003c0: 8541 9bbd 0412 b13b c00a 2ebe e7f3 763a
000003d0: 506a 92bc 9af8 27be c2f8 cb3d bb33 adbd
000003e0: b373 1ebe 60b6 0a3e 1afe 1cbe 9a6d 5ebe
000003f0: 3d1a 37be c26f 16be 53ca 573e 8754 3ebe

lstm.bias_ih_l0 f4 [80]
-0.17588097 -0.153669 0.030111479 -0.1791123 0.20855689 0.10600561 -0.06002152 -0.08192518
-0.17863724 -0.16894625 -0.049807254 -0.10130386 -0.008697855 0.089176446 0.055877015 -0.2148443
0.086558424 -0.03304361 0.15521239 -0.15769102 -0.09099753 -0.14154918 -0.10796645 0.22039032
-0.12400332 -0.03663487 0.21103294 -0.09551668 -0.03957828 0.14449422 -0.19895391 -0.006017114
0.14095566 -0.09509029 -0.11130445 -0.18513429 0.119827524 -0.1944114 0.05719793 0.10340974
0.12715025 -0.21347612 0.08842629 0.00032507 -0.13582438 -0.12353103 -0.02753187 -0.072704636
0.083753146 -0.12743722 0.012066455 0.07303359 -0.029601896 -0.070078135 0.09152732 0.0020318008
0.056604166 -0.056994837 0.122829124 0.06294963 0.20849207 -0.04118777 -0.058991395 0.043640576
0.13852327 -0.10376834 0.1835121 0.053106524 0.0010082634 -0.13711387 0.09706796 -0.115286246
-0.016996216 0.02728874 -0.031828366 -0.121477686 -0.0010263629 0.0826023 0.166261 -0.005174464
00000000: 241a 34be 685b 1dbe 59ac f63c 3769 37be
00000010: f08f 553e 7819 d93d 20d9 75bd 64c8 a7bd
00000020: aeec 36be 3f00 2dbe b102 4cbd 6678 cfbd
00000030: 7381 0ebc 24a2 b63d 4cdf 643d 2500 5cbe
00000040: 8b45 b13d bd58 07bd ffef 1e3e c179 21be
00000050: ea5c babd 45f2 10be 841d ddbd 00ae 613e
00000060: 74f5 fdbd 720e 16bd 0519 583e 409e c3bd
00000070: d61c 22bd 4bf6 133e 93ba 4bbe 362b c5bb
00000080: ae56 103e b3be c2bd 96f3 e3bd d893 3dbe
00000090: 2268 f53d c813 47be 6048 6a3d 7cc8 d33d
000000a0: ad33 023e 7c99 5abe d818 b53d 286e aa39
000000b0: 8c15 0bbe d6fd fcbd 848a e1bc 2be6 94bd
000000c0: c586 ab3d e77e 02be 61b2 453c a392 953d
000000d0: ad7f f2bc 2085 8fbd ad72 bb3d f627 053b
000000e0: c5d9 673d 6b73 69bd d68d fb3d bceb 803d
000000f0: f27e 553e 82b4 28bd f6a0 71bd 76c0 323d
00000100: 0bd9 0d3e 7f84 d4bd 99ea 3b3e 3a86 593d
00000110: b527 843a 9467 0cbe 91cb c63d 321b ecbd
00000120: a63b 8bbc a38c df3c 765e 02bd 4bc9 f8bd
00000130: 0687 86ba 652b a93d 5340 2a3e 8d8e a9bb

lstm.bias_hh_l0 f4 [80]
0.07106878 0.1868352 -0.07595813 0.14877155 0.134329 -0.028663099 -0.01447216 -0.08461302
-0.052182864 -0.04096002 -0.045859102 -0.024473013 0.08750946 -0.12094342 -0.21595514 -0.069048814
-0.13645397 -0.077549204 0.07851703 -0.21526568 0.15353972 -0.18860316 0.061871313 -0.13659008
0.016529577 -0.2006714 0.055347253 0.009097668 -0.07612644 -0.018551862 0.1214964 0.20003374
-0.008289059 0.116354056 0.19829935 -0.012638813 0.173929 0.22101758 0.18584907 0.13307825
-0.08732428 -0.019713476 -0.07519977 0.16639714 -0.08924852 0.118562266 -0.18209445 0.20645314
0.17400812 -0.084404916 -0.020928564 -0.13861284 -0.19267377 0.1918167 0.014579663 -0.10337616
0.07001688 -0.10774126 -0.12534185 0.12134921 -0.014223299 -0.09042056 -0.036734562 0.12945709
-0.10028283 0.057667874 0.056852598 0.010681942 -0.035833724 0.12069211 -0.16078669 -0.1677115
0.10304682 0.040090874 -0.040695406 -0.1027327 0.048558395 -0.0012659471 -0.007150341 0.14882445
00000000: 828c 913d ba51 3f3e f08f 9bbd 9257 183e
00000010: 8b8d 093e e0ce eabc a31c 6dbc 9749 adbd
00000020: b3bd 55bd b2c5 27bd c1d6 3bbd a17b c8bc
00000030: 2938 b33d 2fb1 f7bd 5823 5dbe 7769 8dbd
00000040: 97ba 0bbe 1ed2 9ebd 89cd a03d 9b6e 5cbe
00000050: 8439 1d3e 3021 41be c66c 7d3d 45de 0bbe
00000060: 0969 873c ce7c 4dbe cdb3 623d 630e 153c
00000070: 2ee8 9bbd 13fa 97bc 1bd3 f83d a5d5 4c3e
00000080: d5ce 07bc 094b ee3d fc0e 4b3e 0613 4fbc
00000090: 721a 323e 6f52 623e 384f 3e3e aa45 083e
000000a0: 12d7 b2bd 287e a1bc 5602 9abd 0364 2a3e
000000b0: eec7 b6bd c6d0 f23d f876 3abe 7468 533e
000000c0: 2f2f 323e 7cdc acbd 6172 abbc 86f0 0dbe
000000d0: 464c 45be 996b 443e 8adf 6e3c e1b6 d3bd
000000e0: 0365 8f3d 73a7 dcbd 9d59 00be ef85 f83d
000000f0: d708 69bc 6a2e b9bd fb76 16bd 6690 043e
00000100: 1661 cdbd 2635 6c3d 45de 683d 5003 2f3c
00000110: 62c6 12bd 6d2d f73d 44a5 24be 90bc 2bbe
00000120: 360a d33d 5436 243d 3ab0 26bd 8665 d2bd
00000130: 2be5 463d 23ee a5ba 684d eabb 7065 183e

net.0.weight f4 [128, 20]
-0.038587205 -0.13591275 0.18268324 0.16713963 0.16677725 -0.14383435 0.17885426 0.20409918
-0.17756768 -0.1443465 0.10464231 -0.15018474 0.010897345 -0.15375258 0.17073786 0.17653364
0.12529233 -0.0028053308 -0.18397954 0.0269769 -0.119817294 -0.14173745 -0.06428131 0.19585973
0.00665962 0.21780048 -0.18267328 0.19986653 0.08053873 0.06283488 -0.13470143 0.17378017
0.16992089 -0.19255741 0.17380984 0.040019218 0.044679325 0.10212412 0.006044375 0.05225143
-0.13699716 -0.16138242 -0.21905233 -0.13573277 -0.18674937 -0.15404813 -0.11408455 0.13030158
0.17007211 0.028597292 0.12515603 -0.08233759 0.15370792 -0.1205566 -0.012704104 0.20610821
0.18521377 0.1926238 0.1447531 0.20798835 0.041698422 -0.11160785 -0.1767552 -0.079371125
-0.13620372 0.13676928 0.0017429177 -0.024619859 -0.13003093 -0.15943037 0.14459166 0.21892194
0.0027672797 -0.05731372 0.008242286 0.15518647 0.18437807 0.106221065 -0.21422046 0.09598442
0.027888032 -0.19717713 -0.119763196 0.020491432 0.07519893 0.19662501 0.05477287 0.08381972
-0.103048064 0.020421779 0.19042096 -0.0711747 0.18303587 -0.1182128 0.046365995 -0.08339717
0.060063083 -0.10492846 0.09510653 0.16837625 0.1336339 0.020586498 -0.095920146 -0.1477402
0.113297515 0.063467436 0.12355551 -0.048977174 -0.11336584 -0.006506714 0.08062239 0.15671037
-0.20062137 0.14202572 0.04516486 0.1967869 -0.15524349 0.04989893 0.17773406 -0.07737265
-0.12123701 -0.111267366 -0.18653515 0.16472815 -0.16524261 -0.051286288 -0.006921898 -0.0015597574
0.19307494 -0.12627651 -0.1822419 -0.19057654 -0.07753473 0.1939536 0.08452248 -0.13745107
-0.058349233 0.019748198 -0.1942748 0.066789806 0.003210847 -0.17435566 -0.059445295 -0.22156674
-0.058111377 -0.07855807 0.13445407 -0.21471985 0.01457072 -0.17920782 -0.15088537 0.044690374
0.045751862 -0.092891194 0.019410232 0.21216789 0.045890618 -0.18066609 0.06532121 -0.1557176
0.10382347 -0.05539874 -0.027250256 0.008223024 -0.105338715 0.102451526 -0.07589929 -0.052865513
0.1667259 -0.11168836 0.17346413 -0.006525239 0.18842234 -0.1092982 0.16039832 -0.20883459
-0.04769645 -0.17760731 0.18817866 0.07796485 0.061443917 -0.193029 -0.080433525 0.09277449
-0.14105871 -0.015818654 0.06858392 0.18394959 -0.071339406 0.058430232 -0.17800309 -0.011471571
-0.12671942 -0.19560975 -0.072622955 -0.20893022 0.13758071 0.008569164 0.005504452 0.021563202
0.056534298 -0.08403748 0.1279243 -0.19652745 -0.21647434 -0.08736022 0.09782821 -0.107813664
0.106784225 0.0044053937 -0.107667364 -0.06208575 -0.03658932 0.19228438 0.20905787 0.118578166
0.019706633 -0.13017268 -0.06743037 0.00035434603 0.18494183 -0.04554027 0.0122496 0.16554742
-0.019939192 -0.03445433 -0.11292206 -0.05647258 -0.05725267 -0.103330985 0.09999016 -0.21815038
-0.21019205 0.0939436 -0.063824065 -0.19964127 -0.03866613 0.18682909 -0.049705822 0.04223362
-0.22154337 0.14384457 -0.19954796 -0.10525185 0.20074438 0.11690854 0.1958 -0.13257602
0.123755455 0.20278902 -0.013081598 -0.026226437 0.108590126 0.21782728 -0.007619354 0.09645894
00000000: 9e0d 1ebd b62c 0bbe 5111 3b3e a726 2b3e
00000010: a8c7 2a3e 5049 13be 9225 373e 60ff 503e
00000020: 4dd4 35be 92cf 13be b54e d63d 07ca 19be
00000030: c78a 323c 5171 1dbe e8d5 2e3e 3cc5 343e
00000040: a24c 003e a4d9 37bb 2265 3cbe a9fe dc3c
00000050: c562 f5bd 9f23 11be eba5 83bd 748f 483e
00000060: f138 da3b 1707 5f3e b40e 3bbe d0a9 4c3e
00000070: 7df1 a43d 93af 803d 2cef 09be 6ef3 313e
00000080: beff 2d3e c52d 45be 35fb 313e 31eb 233d
00000090: ab01 373d 7326 d13d e40f c63b 9805 563d
000000a0: fc48 0cbe 6f41 25be 414f 60be 88fd 0abe
000000b0: 3a3b 3fbe cbbe 1dbe 29a5 e9bd c76d 053e
000000c0: 6227 2e3e de44 ea3c e728 003e 9ca0 a8bd
000000d0: 9c65 1d3e 61e6 f6bd e024 50bc 080e 533e
000000e0: aea8 3d3e 2c3f 453e 283a 143e e6fa 543e
000000f0: f7cb 2a3d a892 e4bd 51ff 34be 548d a2bd
00000100: fd78 0bbe 3f0d 0c3e 9d72 e43a 96af c9bc
00000110: d426 05be b741 23be d60f 143e 132d 603e
00000120: 405b 353b cbc1 6abd a70a 073c 34e9 1e3e
00000130: 9bcd 3c3e 6e8a d93d 9c5c 5bbe 7b93 c43d
00000140: 7175 e43c cde8 49be 6846 f5bd a6dd a73c
00000150: e601 9a3d 1158 493e 8459 603d aca9 ab3d
00000160: dd0a d3bd 934b a73c b6fd 423e 0bc4 91bd
00000170: c16d 3b3e 8d19 f2bd 45ea 3d3d 23cc aabd
00000180: b504 763d bce4 d6bd 36c7 c23d d36a 2c3e
00000190: 53d7 083e 04a5 a83c c871 c4bd 3549 17be
000001a0: 8708 e83d 37fb 813d ac0a fd3d 4a9c 48bd
000001b0: 592c e8bd 4636 d5bb 5a1d a53d af78 203e
000001c0: b06f 4dbe 316f 113e cafe 383d 8182 493e
000001d0: 26f8 1ebe d262 4c3d ebff 353e 8d75 9ebd
000001e0: 1c4b f8bd 25e0 e3bd 1203 3fbe 7fae 283e
000001f0: 5c35 29be 9211 52bd 17d1 e2bb c670 ccba
00000200: 70b5 453e a14e 01be 9f9d 3abe 7f26 43be
00000210: 87ca 9ebd c69b 463e 1f1a ad3d f9bf 0cbe
00000220: 9bff 6ebd f9c6 a13c f9ef 46be 18c9 883d
00000230: 136d 523b 4a8a 32be e97c 73bd 64e2 62be
00000240: 3206 6ebd 0ee3 a0bd 54ae 093e 85df 5bbe
00000250: 07ba 6e3c 4182 37be b281 1abe 410d 373d
00000260: 4e66 3b3d bd3d bebd 3502 9f3c 8a42 593e
00000270: cdf7 3b3d 8800 39be 20c7 853d 6f74 1fbe
00000280: 66a1 d43d cae9 62bd ee3b dfbc ddb9 063c
00000290: d3bb d7bd 1bd2 d13d 1671 9bbd 8289 58bd
000002a0: 32ba 2a3e debc e4bd 95a0 313e acd1 d5bb
000002b0: c9f1 403e bcd7 dfbd 753f 243e bcd8 55be
000002c0: 5a5d 43bd b1de 35be e8b1 403e 09ac 9f3d
000002d0: 9eac 7b3d 65a9 45be 55ba a4bd 8d00 be3d
000002e0: b271 10be 1f96 81bc ba75 8c3d 485d 3c3e
000002f0: 651a 92bd 8a54 6f3d 7146 36be 42f3 3bbc
00000300: bcc2 01be ec4d 48be 58bb 94bd cef1 55be
00000310: f5e1 0c3e ae65 0c3c b15e b43b 50a5 b03c
00000320: 8290 673d d81b acbd 96fe 023e 7e3e 49be
00000330: 73ab 5dbe eae9 b2bd 285a c83d 69cd dcbd
00000340: b0b1 da3d 1f5b 903b b580 dcbd a14d 7ebd
00000350: afde 15bd 32e6 443e 4413 563e 1cd9 f23d
00000360: ce6f a13c fd4b 05be ef18 8abd 85c7 b939
00000370: 6461 3d3e 6f88 3abd 8cb2 483c 4385 293e
00000380: 8457 a3bc fc1f 0dbd ae43 e7bd cb4f 67bd
00000390: c781 6abd 329f d3bd a4c7 cc3d d062 5fbe
000003a0: 963c 57be 8165 c03d 31b6 82bd c36e 4cbe
000003b0: 6060 1ebd 2050 3f3e 5598 4bbd 29fd 2c3d
000003c0: 44dc 62be fe4b 133e 4d56 4cbe 488e d7bd
000003d0: ef8f 4d3e bf6d ef3d cc7f 483e 02c2 07be
000003e0: 8073 fd3d eda7 4f3e 3354 56bc d3d8 d6bc
000003f0: 8064 de3d 1d0e 5f3e c6ab f9bb 448c c53d

net.0.bias f4 [128]
0.14822964 0.13808315 -0.22199947 0.09525384 -0.02350026 -0.14662254 -0.12716712 0.06390392
-0.21766157 0.119442575 -0.0016508271 -0.044726986 0.003183909 -0.12678467 -0.14933674 0.15840626
-0.08482874 -0.13029918 -0.10273629 0.022475112 -0.10097142 -0.005081637 0.16618374 -0.116337314
-0.16382305 -0.17528225 0.0024147797 -0.008268072 0.15481749 0.16901499 -0.17723706 0.030134885
0.0042191204 0.12383244 -0.20578207 -0.017302295 0.008811818 0.19984755 0.10077552 -0.03580793
0.18848325 0.050610177 -0.001953082 -0.02119206 0.18336204 -0.053397626 0.06708129 0.07121191
-0.16984873 0.16989195 -0.055268977 0.052517448 -0.104159094 -0.18774405 0.118474536 -0.20143574
-0.17435782 -0.096905306 -0.1335087 -0.1371832 0.18935853 -0.15385537 0.048039015 0.03672637
0.14936262 -0.18917128 0.06759414 -0.1080916 -0.13208707 -0.0039007924 -0.109432116 -0.13325407
0.1643518 0.08721673 0.10897197 -0.047586817 0.1318532 0.11297317 0.08070447 0.057095442
-0.08764387 -0.0011934425 0.12384072 -0.20019253 -0.024226958 0.10126762 0.12156175 -0.0053804535
0.120817 0.040224083 0.054954495 0.06569557 0.21953426 -0.19572751 -0.059465803 0.015123909
0.18008977 -0.10252036 -0.032288365 -0.2004954 -0.06675723 -0.13787226 0.15105678 -0.068637975
-0.033237252 -0.15050408 0.21417038 0.17002876 0.027580043 0.19408388 -0.052502267 -0.026827428
-0.060559727 -0.1595039 0.0013353406 -0.00720439 -0.061078914 -0.17706643 0.21075715 -0.19616543
-0.012265362 -0.04208005 -0.1827683 0.09413106 -0.06650906 -0.18194085 0.03732977 -0.07445731
00000000: 83c9 173e ab65 0d3e d453 63be 7214 c33d
00000010: 9e83 c0bc 3824 16be 1938 02be 0fe0 823d
00000020: ade2 5ebe 4f9e f43d 9160 d8ba a533 37bd
00000030: 21a9 503b d7d3 01be bbeb 18be 4035 223e
00000040: b1ba adbd 266d 05be 6767 d2bd ba1d b83c
00000050: 1bca cebd dc83 a6bb 122c 2a3e 4242 eebd
00000060: 3bc1 27be 317d 33be 4841 1e3b cf76 07bc
00000070: 7a88 1e3e 4412 2d3e a27d 35be 6fdd f63c
00000080: 8c40 8a3b dd9b fd3d 89b8 52be 8bbd 8dbc
00000090: 725f 103c d6a4 4c3e 6563 ce3d 56ab 12bd
000000a0: c101 413e 9e4c 4f3d 8ffe ffba f99a adbc
000000b0: 42c3 3b3e 78b7 5abd ea61 893d 8dd7 913d
000000c0: d3ec 2dbe 28f8 2d3e b961 62bd 891c 573d
000000d0: 5d51 d5bd fa3f 40be c7a2 f23d 2c45 4ebe
000000e0: db8a 32be 4a76 c6bd 81b6 08be c179 0cbe
000000f0: 34e7 413e 438c 1dbe 8fc4 443d 646e 163d
00000100: 84f2 183e 1eb6 41be cc6e 8a3d 215f ddbd
00000110: d541 07be 70a4 7fbb f21d e0bd c173 08be
00000120: d74b 283e af9e b23d b22c df3d 65ea 42bd
00000130: 8604 073e 7a5e e73d 6348 a53d e9dc 693d
00000140: a17e b3bd 496d 9cba 34a0 fd3d 45ff 4cbe
00000150: 9d77 c6bc 6665 cf3d 5ef5 f83d 844e b0bb
00000160: e76e f73d 02c2 243d f717 613d 668b 863d
00000170: 97cd 603e cb6c 48be 6a92 73bd 46ca 773c
00000180: 7469 383e 32f6 d1bd ce40 04bd ab4e 4dbe
00000190: 04b8 88bd 632e 0dbe a1ae 1a3e 1192 8cbd
000001a0: c923 08bd be1d 1abe 7b4f 5b3e 051c 2e3e
000001b0: 8bef e13c edbd 463e 9e0c 57bd 32c5 dbbc
000001c0: 7a0d 78bd fe54 23be 9806 af3a ce12 ecbb
000001d0: e22d 7abd e750 35be b9d0 573e 97df 48be
000001e0: a8f4 48bc 215c 2cbd 9d27 3bbe c9c7 c03d
000001f0: e735 88bd b44e 3abe 1ae7 183d 137d 98bd

net.2.weight f4 [64, 128]
-0.077834785 -0.026854781 0.01795109 -0.023698498 -0.017164504 0.02172296 0.05504157 0.015971791
0.0067221695 -0.05676683 -0.07299485 -0.044156473 -0.005965802 -0.03377871 0.014320372 -0.020377347
-0.013173334 0.053644475 -0.0788704 0.04823551 -0.021143103 0.036093105 -0.019364137 -0.05944106
-0.0296849 -0.00057010987 -0.014234065 -0.045836173 0.014929161 0.010661446 -0.0195069 0.050677013
0.04450767 0.07955884 -0.071455166 -0.08765276 -0.0071107107 0.03526058 -0.053763058 -0.0728807
-0.030741384 0.038650777 0.07949962 -0.061663967 0.00014328875 -0.038604785 0.05242366 0.0022220134
-0.02759373 0.024112739 0.082724534 -0.0024026444 0.041111667 0.048477788 0.061103024 -0.028655242
-0.039178774 0.012045053 0.040307928 -0.040793978 0.029700883 0.06143925 -0.06407959 0.04189464
-0.04709039 0.08003401 -0.04190302 0.03149813 0.05325647 0.043387473 -0.039769944 0.03281009
0.015260804 -0.06341854 0.06746028 -0.014087626 -0.050500594 -0.06631746 -0.0376305 -0.0063485163
-0.061720517 0.036821067 0.08705408 0.02229406 0.045712598 0.0044620023 -0.045673758 0.007757043
0.08617629 0.0418363 -0.0301323 -0.009711751 0.0029552106 -0.0817486 0.07469631 0.063293375
0.076640606 -0.021709483 0.020922938 0.038159028 -0.03388008 0.027705304 -0.046296626 -0.08449684
0.03850146 -0.037480403 0.059151553 -0.0703441 -0.047316276 3.37807e-05 -0.021586645 -0.085135356
-0.061984863 0.01621797 -0.013873352 -0.05685795 -0.035685737 -0.07563551 -0.025171552 -0.0054748016
0.08568796 0.07610633 0.07183923 0.07180697 -0.024931535 -0.073710665 -0.06918442 -0.082705416
-0.06669299 -0.08183831 0.00028534912 -0.027002336 0.031483736 0.062858045 -0.07806983 0.04959122
-0.046380546 -0.031329866 -0.07580816 -0.04678155 0.08255743 0.061189983 -0.0663517 0.022897044
0.0038724935 -0.06139622 0.027105277 -0.08336495 0.06723919 -0.05934419 0.03433174 0.08209036
-0.009399666 0.059086476 0.043074124 -0.07930756 0.07550184 0.07134581 0.076620884 0.046062086
0.00034318288 0.069866076 0.06212849 -0.054535378 0.06902184 0.039348572 -0.046000578 -0.03643169
0.064692505 -0.054838605 0.076795295 -0.051070295 0.07455365 0.056249198 -0.032827057 -0.036674414
-0.02179621 0.07635097 -0.046914864 0.020834884 -0.04336593 -0.054078795 0.003534876 0.07094405
0.05994836 -0.050116483 0.06760347 0.033986066 -0.012600082 -0.015774217 -0.07049437 0.028938359
0.028912505 0.028689435 -0.008389661 0.007182929 -0.07006925 -0.047885105 -0.07886319 -0.05909404
-0.0049339044 -0.08472558 0.007782677 0.011566289 -0.03182728 -0.028704414 -0.0096355975 -0.014252987
0.009469321 -0.013864806 -0.07316609 0.058120165 0.08064356 -0.0045844405 -0.0018259581 0.00068171625
-0.010290915 0.054025486 -0.039657515 0.031543657 0.0631063 0.057089504 -0.034435872 -0.024852056
0.07043133 0.08232546 0.063086316 -0.062443405 0.08029506 0.041530903 0.09149422 -0.07939959
-0.039804514 0.06778119 0.064063594 -0.020948667 -0.06493842 -0.006615323 0.07560693 0.066843584
0.061850596 0.07573172 0.049840152 0.08381197 0.030893393 -0.048249554 -0.075098515 -0.07368556
0.06470194 -0.07253564 0.0650181 0.045291945 -0.07210291 -0.083035745 -0.0076568928 0.060887296
00000000: d867 9fbd 8ffe dbbc 2a0e 933c 5a23 c2bc
00000010: 939c 8cbc 59f4 b13c 4573 613d 46d7 823c
00000020: a545 dc3b 5684 68bd 537e 95bd 6bdd 34bd
00000030: c67c c3bb 8b5b 0abd fe9f 6a3c 65ee a6bc
00000040: f8d4 57bc 4fba 5b3d ce86 a1bd 9992 453d
00000050: 4d34 adbc 5dd6 133d 8aa1 9ebc 7878 73bd
00000060: bf2d f3bc 6d73 15ba ff35 69bc b6be 3bbd
00000070: 7199 743c 58ad 2e3c efcc 9fbc b392 4f3d
00000080: ad4d 363d bfef a23d 1657 92bd 4a83 b3bd
00000090: f700 e9bb 666d 103d a736 5cbd 7a42 95bd
000000a0: 5bd5 fbbc 4750 1e3d b2d0 a23d 5b93 7cbd
000000b0: c83f 1639 0d20 1ebd 31ba 563d 339f 113b
000000c0: 3f0c e2bc 1488 c53c 7b6b a93d af75 1dbb
000000d0: b564 283d a590 463d 2a47 7a3d 66be eabc
000000e0: ec79 20bd 9d58 453c ed19 253d 9617 27bd
000000f0: 444f f33c b9a7 7b3d 293c 83bd b799 2b3d
00000100: dae1 40bd dfe8 a33d 80a2 2bbd 2f04 013d
00000110: 7523 5a3d 10b7 313d cfe5 22bd df63 063d
00000120: 7408 7a3c 94e1 81bd 9e28 8a3d c9cf 66bc
00000130: b6d9 4ebd 73d1 87bd 7022 1abd 3707 d0bb
00000140: a7ce 7cbd b0d1 163d 6949 b23d 08a2 b63c
00000150: 223d 3b3d fd35 923b 6814 3bbd cb2e fe3b
00000160: 327d b03d 8a5c 2b3d 03d8 f6bc 091e 1fbc
00000170: 35ac 413b cf6b a7bd 61fa 983d f59f 813d
00000180: c0f5 9c3d 16d8 b1bc 9566 ab3c a44c 1c3d
00000190: d7c5 0abd 3cf6 e23c 88a1 3dbd ae0c adbd
000001a0: b5b3 1d3d 0d85 19bd e648 723d 9110 90bd
000001b0: b6ce 41bd c0af 0d38 7ad6 b0bc 725b aebd
000001c0: d7e3 7dbd 8cdb 843c 0e4d 63bc e2e3 68bd
000001d0: 352b 12bd cae6 9abd 9234 cebc f765 b3bb
000001e0: 2b7d af3d a3dd 9b3d 7220 933d 880f 933d
000001f0: 383d ccbc 9ef5 96bd 90b0 8dbd 7561 a9bd
00000200: 5696 88bd d89a a7bd e99a 9539 0134 ddbc
00000210: 17f5 003d b8bb 803d 13e3 9fbd 2a20 4b3d
00000220: 87f9 3dbd bf53 00bd 4f41 9bbd 039e 3fbd
00000230: df13 a93d 59a2 7a3d 66e3 87bd 9592 bb3c
00000240: a9c9 7d3b 9a7a 7bbd e30b de3c 3ebb aabd
00000250: b3b4 893d e512 73bd 709f 0c3d fe1e a83d
00000260: 0f01 1abc a904 723d 7e6e 303d 016c a2bd
00000270: b5a0 9a3d c11d 923d 69eb 9c3d 99ab 3c3d
00000280: 3aed b339 f215 8f3d 727a 7e3d 7d60 5fbd
00000290: 535b 8d3d f82b 213d 1a6b 3cbd 6539 15bd
000002a0: 817d 843d 729e 60bd da46 9d3d 162f 51bd
000002b0: 96af 983d 8f65 663d aa75 06bd e937 16bd
000002c0: f78d b2bc e65d 9c3d cd29 40bd ebad aa3c
000002d0: 79a0 31bd ba81 5dbd 61a9 673b 1d4b 913d
000002e0: 698c 753d f146 4dbd b073 8a3d f934 0b3d
000002f0: 9370 4ebc ee38 81bc 5a5f 90bd 2310 ed3c
00000300: ebd9 ec3c 1b06 eb3c ca74 09bc c75e eb3b
00000310: 7880 8fbd 2c23 44bd 0683 a1bd 980c 72bd
00000320: 97ac a1bb 9b84 adbd d405 ff3b 8880 3d3c
00000330: 525d 02bd 8525 ebbc a0de 1dbc 5c85 69bc
00000340: 3625 1b3c 3629 63bc 1ad8 95bd 690f 6e3d
00000350: 7328 a53d 1339 96bb fd54 efba 34b5 323a
00000360: 3a9b 28bc d449 5d3d eb6f 22bd ec33 013d
00000370: e03d 813d afd6 693d a10c 0dbd 8a96 cbbc
00000380: 4d3e 903d 409a a83d 6633 813d a8c4 7fbd
00000390: bd71 a43d 4f1c 2a3d 5261 bb3d 419c a2bd
000003a0: 0f0a 23bd ddd0 8a3d c633 833d 8a9c abbc
000003b0: 6ffe 84bd 5ac5 d8bb ced7 9a3d 4ae5 883d
000003c0: 0d57 7d3d 3b19 9b3d 3025 4c3d 9ca5 ab3d
000003d0: 2414 fd3c 53a1 45bd 40cd 99bd 74e8 96bd
000003e0: 7382 843d 918d 94bd 3628 853d 0c84 393d
000003f0: b1aa 93bd a50e aabd ace6 fabb f564 793d

net.2.bias f4 [64]
-0.07428151 -0.027580714 0.023626681 -0.002534767 -0.021243779 -0.048194643 -0.00865087 0.057251208
-0.041098326 -0.03360481 0.078620076 -0.06291986 -0.06534581 -0.049809717 -0.012503438 0.07617259
0.01935353 -0.04677644 -0.04499094 0.027973784 -0.008135409 -0.034749087 -0.024417434 0.029905343
-0.06611235 0.022506159 0.02700625 -0.048380915 -0.06587421 -0.07734884 -0.04005447 -0.040594712
0.055225022 -0.05400684 -0.038257007 -0.059687063 -0.07060106 0.036419556 -0.010287372 0.052380167
0.058413688 0.04692817 0.077188484 -0.06809054 -0.045419022 0.04378075 -0.03876998 -0.007969998
0.06798628 0.047625776 -0.03615778 0.018802268 -0.04872434 0.015001837 0.069131054 -0.0719767
-0.014441423 0.08058357 -0.06469545 0.038318183 0.017995188 -0.043152705 -0.07136836 0.06961048
00000000: e820 98bd f3f0 e1bc be8c c13c 551e 26bb
00000010: 6f07 aebc bf67 45bd 61bc 0dbc 3e80 6a3d
00000020: b856 28bd 32a5 09bd 9003 a13d 21dc 80bd
00000030: 06d4 85bd 4605 4cbd 38db 4cbc 6000 9c3d
00000040: 4b8b 9e3c a798 3fbd 6b48 38bd 4729 e53c
00000050: 614a 05bc 0f55 0ebd 1207 c8bc 0dfc f43c
00000060: e965 87bd d65e b83c 363c dd3c 112b 46bd
00000070: 0fe9 86bd 1269 9ebd 2810 24bd a446 26bd
00000080: a233 623d 4736 5dbd 61b3 1cbd 6c7a 74bd
00000090: 4a97 90bd ac2c 153d 5e8c 28bc 968c 563d
000000a0: 3143 6f3d c137 403d ff14 9e3d 0e73 8bbd
000000b0: 4c09 3abd 7253 333d 45cd 1ebd 9894 02bc
000000c0: 643c 8b3d 3f13 433d 2e1a 14bd 3707 9a3c
000000d0: 2c93 47bd 44ca 753c 9594 8d3d 8568 93bd
000000e0: b89b 6cbc 0009 a53d 0c7f 84bd 87f3 1c3d
000000f0: a56a 933c e4c0 30bd 9329 92bd f08f 8e3d

net.4.weight f4 [3, 64]
-0.12426761 0.058473215 -0.015072422 0.0539929 -0.11651699 0.05896606 0.08302884 0.02871329
-0.07526721 0.08916664 0.06282846 -0.014631556 0.0424068 0.01389916 0.04110312 -0.082696535
-0.09389424 -0.086418554 0.061580095 -0.024024254 0.073740035 -0.011615368 -0.0032543938 0.091317974
0.015058678 -0.11524271 -0.044507667 0.08610727 -0.016270084 0.013840826 0.0983064 -0.004593331
-0.09783199 -0.022029301 -0.021796595 -0.055427838 -0.04626795 -0.059099022 0.017953964 0.0491707
0.037246283 0.009515258 0.051836327 -0.073395446 -0.048596494 -0.067369215 -0.10748132 0.1007619
0.10969082 0.11658007 -0.06033034 0.0072273132 -0.0897401 0.042011153 -0.02207323 0.05525024
0.11462516 0.027458744 -0.05896156 0.0379739 -0.013935662 0.08597704 -0.022269258 -0.08053866
-0.107917786 0.024684787 -0.016468925 0.07071829 0.023049116 -0.044585183 -0.019913983 -0.08480373
0.0036580265 -0.027842745 -0.12003307 0.037042983 -0.011266465 -0.09914431 -0.048440248 -0.018140838
0.059841707 -0.0112061 -0.06578517 0.050012663 0.12411949 0.10786179 0.01791294 -0.07881026
0.0031528026 -0.096953824 -0.09746261 -0.1130739 -0.014792602 -0.02958022 0.0995665 0.018155918
-0.042731687 -0.06383574 -0.0151375085 -0.11364317 -0.02989319 -0.115851894 -0.086408004 0.07183759
0.08226 -0.008941948 -0.07164168 0.047861695 -0.04985276 -0.026684478 0.06750856 0.047891006
-0.020868108 0.046489287 -0.08914395 -0.07374793 -0.0764914 -0.057982042 -0.11651021 0.121874556
-0.11024514 0.07984127 0.03588274 -0.0926138 -0.09887409 -0.04988578 -0.10249601 -0.06537674
-0.016121358 0.012125345 0.028770085 0.02240257 -0.083652444 -0.007047323 0.022587812 -0.09168882
0.109878615 -0.10907104 -0.017576434 -0.123976484 0.03795696 0.0055596214 -0.048580956 -0.039007932
0.008136554 0.09597787 0.0010048752 0.09906265 -0.0020550059 0.08287383 0.015419111 0.097812176
-0.08330126 0.0886393 0.04337337 0.017062426 0.050402287 -0.045894846 0.10135936 -0.058140498
0.021883665 -0.036819305 0.06168841 -0.008993371 -0.09052653 0.0113224825 -0.076341555 0.09010169
0.12757184 0.010789374 0.10647369 -0.049591973 0.057041213 -0.08224768 0.0058437875 0.11752843
-0.048905026 -0.08917094 -0.0053518265 -0.0526467 -0.075600155 0.034770124 0.06687074 0.11296722
0.03534269 -0.059597496 -0.113157794 0.0002554337 -0.101343535 -0.06719678 0.064907804 -0.00026762194
00000000: 0480 febd 9c81 6f3d 52f2 76bc a927 5d3d
00000010: 76a0 eebd 6586 713d 060b aa3d 2238 eb3c
00000020: b225 9abd 009d b63d 35ac 803d 32b9 6fbc
00000030: c1b2 2d3d 4db9 633c bf5b 283d cd5c a9bd
00000040: a04b c0bd 36fc b0bd 693b 7c3d 83ce c4bc
00000050: 0405 973d 624e 3ebc ab47 55bb eb04 bb3d
00000060: acb8 763c 5f04 ecbd ac4d 36bd 0259 b03d
00000070: d748 85bc a2c4 623c de54 c93d a783 96bb
00000080: 235c c8bd cb76 b4bc c68e b2bc 4d08 63bd
00000090: 7683 3dbd d111 72bd 3114 933c 3767 493d
000000a0: 8f8f 183d e2e5 1b3c 5452 543d 5a50 96bd
000000b0: 1e0d 47bd dff8 89bd 2b1f dcbd 415c ce3d
000000c0: 95a5 e03d 88c1 ee3d f21c 77bd 19d3 ec3b
000000d0: a8c9 b7bd e313 2c3d ebd2 b4bc 134e 623d
000000e0: 99c0 ea3d 29f1 e03c ad81 71bd 858a 1b3d
000000f0: 6752 64bc bb14 b03d 056e b6bc 74f1 a4bd
00000100: 0004 ddbd c037 ca3c d7e9 86bc c0d4 903d
00000110: 80d1 bc3c f49e 36bd a622 a3bc 94ad adbd
00000120: 80bb 6f3b 7816 e4bc e6d3 f5bd 62ba 173d
00000130: fb96 38bc 2c0c cbbd 4869 46bd 189c 94bc
00000140: 941c 753d ca99 37bc 60ba 86bd 14da 4c3d
00000150: 5c32 fe3d a4e6 dc3d 28be 923c 4667 a1bd
00000160: 409f 4e3b ba8f c6bd 7a9a c7bd 4a93 e7bd
00000170: ab5c 72bc 3852 f2bc 85e9 cb3d b8bb 943c
00000180: 6c07 2fbd 50bc 82bd 5003 78bc c0bd e8bd
00000190: 90e2 f4bc c243 edbd aef6 b0bd 961f 933d
000001a0: ee77 a83d 4081 12bc e0b8 92bd a00a 443d
000001b0: 6832 4cbd 6899 dabc ee41 8a3d 5c29 443d
000001c0: 98f3 aabc 8d6b 3e3d 1a91 b6bd 2809 97bd
000001d0: 86a7 9cbd 947e 6dbd e89c eebd 5e99 f93d
000001e0: 34c8 e1bd d283 a33d c8f9 123d 4eac bdbd
000001f0: 807e cabd 0855 4cbd 6ee9 d1bd 3ee4 85bd
00000200: f010 84bc 62a9 463c 3eaf eb3c 9885 b73c
00000210: f951 abbd 3bed e6bb 130a b93c 59c7 bbbd
00000220: 0a08 e13d a360 dfbd 74fc 8fbc 62e7 fdbd
00000230: c278 1b3d 7c2d b63b d3fc 46bd c8c6 1fbd
00000240: 2e4f 053c 0c90 c43d 04b6 833a 5ce1 ca3d
00000250: 47ad 06bb c1b9 a93d 70a0 7c3c c051 c83d
00000260: da99 aabd 8588 b53d 46a8 313d 80c6 8b3c
00000270: a172 4e3d 3cfc 3bbd 7f95 cf3d bb24 6ebd
00000280: 5f45 b33c d7cf 16bd fcac 7c3d ef58 13bc
00000290: f965 b9bd ef81 393c f658 9cbd 3c87 b83d
000002a0: 31a2 023e eac5 303c e10e da3d f420 4bbd
000002b0: 0ca4 693d 7971 a8bd 3e7d bf3b bfb2 f03d
000002c0: a350 48bd 419f b6bd 605e afbb 11a4 57bd
000002d0: 41d4 9abd 1e6b 0e3d 87f3 883d 5c5b e73d
000002e0: 7fc3 103d 811c 74bd 46bf e7bd bbeb 8539
000002f0: 338d cfbd 779e 89bd 62ee 843d 9c4f 8cb9

net.4.bias f4 [3]
0.10533298 -0.110727265 -0.035598107
00000000: d1b8 d73d fac4 e2bd 52cf 11bd
