uniform/00_uniformtest/model_ep600.pth (torch, 61296 bytes, 10 tensors)

lstm.weight_ih_l0 f4 [80, 20]
-0.20614457 -0.06785561 0.11688185 0.1255432 -0.0737766 0.2141046 -0.01776844 -0.040199097
-0.19863111 0.09262312 0.058782015 0.18013927 -0.03602642 0.05333734 -0.19138293 0.1415894
0.07740518 -0.13869515 -0.0045479946 0.0822796 0.015166095 0.082069606 0.014990939 -0.18451646
0.09852252 -0.08498977 -0.17752124 -0.016614342 0.037245214 0.058196995 0.19158895 -0.20316409
0.17447655 -0.20997736 0.003486899 0.1332719 -0.10703106 -0.08154728 0.19037072 0.14225197
0.1884902 0.11228928 -0.027539201 0.050310895 0.08690871 0.121869534 0.07038911 0.02453115
-0.20391747 0.04890735 0.19429481 0.0042852196 -0.019529337 -0.21524246 0.08932948 -0.14754462
-0.17663251 0.16480894 -0.19459282 0.09336733 0.20111184 -0.079716414 0.09202013 -0.0920707
-0.13212162 0.19869262 -0.09904344 0.15633841 0.0930116 0.016990833 0.017910918 -0.12873873
0.125838 0.09093449 0.066850014 -0.16113836 -0.20480959 -0.10728888 -0.05479526 0.008238039
-0.08666377 -0.13830043 0.11170469 0.028615464 0.14832252 -0.08629227 0.050334726 -0.17964704
-0.17117392 -0.053905163 0.013058725 0.12551905 0.030418182 0.10736403 -0.13512868 -0.100934945
0.040908094 0.04014672 0.10274241 0.08717581 -0.05253499 0.029035429 -0.20491579 -0.12418362
0.22224331 -0.08322339 -0.18715662 -0.13669713 0.18209206 0.13345136 0.18711498 -0.06053134
-0.20565243 0.069456436 -0.12331682 0.04580896 0.056924865 0.08014782 -0.048936643 -0.034775212
0.042806216 0.104037754 0.18754344 -0.16325685 -0.173025 0.067286156 -0.18429555 0.14769702
0.030785982 -0.1301232 -0.16380414 0.11096605 -0.05275053 -0.19014943 -0.017402988 -0.17093071
0.2068974 0.082398914 -0.04228914 -0.1768218 0.057110097 -0.18900612 -0.2085602 0.12706348
0.19756225 -0.014667521 0.14400855 -0.20216286 -0.1771292 -0.12375211 0.09960334 0.15719709
-0.07035789 0.012144131 0.044654943 -0.15970372 0.16469905 0.115658686 -0.13189323 0.029125579
-0.10117018 -0.091773756 0.049210347 -0.11555827 0.126869 -0.024241932 -0.20803148 0.058489196
-0.16367486 0.21458517 0.053193342 0.16052823 -0.013994563 -0.0036962018 0.21640599 -0.039520357
-0.14615081 0.11239719 0.016156312 0.21954426 -0.11370437 0.12247665 0.21043772 0.1971627
-0.083819844 0.0035415704 -0.08638599 0.021600561 0.18464637 0.11657099 -0.090070836 -0.13727432
0.16697243 0.11825487 -0.12356448 -0.15949726 0.06928768 -0.083286 0.10585218 0.11400177
-0.15525408 0.15442838 -0.012657765 0.0929318 0.014212583 -0.04114653 -0.14883114 -0.14335352
0.14914687 0.18853524 -0.13777506 0.10505884 -0.18357228 0.1415476 0.0846433 -0.15004443
-0.16994649 -0.19383377 0.1518986 0.13936184 0.09901078 0.13803633 0.012620233 -0.07429536
-0.04928168 -0.12738116 -0.05495941 0.030976467 0.19584256 -0.10713407 -0.18333189 0.0029121954
-0.1037946 -0.1017395 0.14998414 0.11891914 -0.09529405 -0.031443585 -0.21550515 -0.012246543
-0.16039167 -0.1427386 0.08228571 0.19851345 0.14980042 0.10728395 -0.064382225 0.1143555
-0.040006775 -0.08416024 0.05133571 0.18509382 -0.06157391 -0.0019661204 0.10790184 -0.09716096
00000000: 9017 53be e2f7 8abd c05f ef3d 668e 003e
00000010: 3018 97bd 3c3e 5b3e 1f8f 91bc cfa7 24bd
00000020: f465 4bbe 31b1 bd3d 69c5 703d 6e76 383e
00000030: 7090 13bd 4178 5a3d e3f9 43be d0fc 103e
00000040: 9b86 9e3d 1a06 0ebe 5807 95bb 3582 a83d
00000050: 377b 783c 1c14 a83d 8e9c 753c e2f1 3cbe
00000060: 2dc6 c93d 1e0f aebd 21c8 35be cd1a 88bc
00000070: 708e 183d f95f 6e3d e52f 443e 3f0a 50be
00000080: fba9 323e 4e04 57be 7584 643b 6e78 083e
00000090: 1a33 dbbd 4302 a7bd 8bf0 423e 80aa 113e
000000a0: 9303 413e ecf7 e53d e499 e1bc cc12 4e3d
000000b0: 32fd b13d bc96 f93d 2a28 903d 8df5 c83c
000000c0: becf 50be 1353 483d 38f5 463e 076b 8c3b
000000d0: fdfb 9fbc 8568 5cbe 60f2 b63d f015 17be
000000e0: 27df 34be adc3 283e 5743 47be 5f37 bf3d
000000f0: 43f0 4d3e 5c42 a3bd 0d75 bc3d 908f bcbd
00000100: e44a 07be 1476 4b3e 49d7 cabd 2d17 203e
00000110: de7c be3d 5c30 8b3c ebb9 923c 16d4 03be
00000120: addb 003e dd3b ba3d a9e8 883d 7401 25be
00000130: 9bb9 51be 46ba dbbd ff70 60bd d7f8 063c
00000140: c67c b1bd a19e 0dbe 6ec5 e43d fa6a ea3c
00000150: dce1 173e 00ba b0bd c92b 4e3d 65f5 37be
00000160: 3748 2fbe a9cb 5cbd 43f4 553c 1188 003e
00000170: 8d2f f93c ace1 db3d 2c5f 0abe fbb6 cebd
00000180: 3f8f 273d e370 243d 9d6a d23d 3b89 b23d
00000190: ee2e 57bd b5db ed3c 72d5 51be fb53 febd
000001a0: c093 633e 0671 aabd fca5 3fbe 55fa 0bbe
000001b0: 5776 3a3e 79a7 083e 129b 3f3e b6ef 77bd
000001c0: 8d96 52be 2d3f 8e3d 878d fcbd 2da2 3b3d
000001d0: 0c2a 693d 8a24 a43d ca71 48bd 7470 0ebd
000001e0: 9255 2f3d bf11 d53d 630b 403e ce2c 27be
000001f0: 772d 31be 53cd 893d f9b7 3cbe e33d 173e
00000200: e232 fc3c 043f 05be 46bc 27be 2b42 e33d
00000210: f110 58bd 88b6 42be b690 8ebc 7608 2fbe
00000220: e9dc 533e c3c0 a83d 6137 2dbd c610 35be
00000230: 47ec 693d d28a 41be ce90 55be ee1c 023e
00000240: c24d 4a3e 0b50 70bc fa76 133e c803 4fbe
00000250: 5b61 35be bf71 fdbd d6fc cb3d 46f8 203e
00000260: cc17 90bd 2df8 463c 1ae8 363d 5f89 23be
00000270: dea6 283e 76de ec3d 050f 07be c498 ee3c
00000280: 5032 cfbd e1f3 bbbd ca90 493d d0a9 ecbd
00000290: f2e9 013e 0497 c6bc 3406 55be 5e92 6f3d
000002a0: 629a 27be 37bc 5b3e 43e1 593d 8361 243e
000002b0: 7449 65bc fa3b 72bb 8899 5d3e 19e0 21bd
000002c0: 8fa8 15be 7f30 e63d 3e5a 843c 36d0 603e
000002d0: d6dd e8bd 0ad5 fa3d fc7c 573e 05e5 493e
000002e0: bda9 abbd b119 683b 23eb b0bd a9f3 b03c
000002f0: f013 3d3e c5bc ee3d 0f77 b8bd a491 0cbe
00000300: d2fa 2a3e 9c2f f23d 600f fdbd 4053 23be
00000310: b3e6 8d3d da91 aabd 07c9 d83d c379 e93d
00000320: edfa 1ebe 7922 1e3e 8462 4fbc 0753 be3d
00000330: e5db 683c 4489 28bd 3167 18be 44cb 12be
00000340: f5b9 183e 620f 413e e814 0dbe 1729 d73d
00000350: 5ffa 3bbe dbf1 103e 7759 ad3d 3fa5 19be
00000360: 7406 2ebe 5c7c 46be 4e8b 1b3e dfb4 0e3e
00000370: 2ac6 ca3d 6559 0d3e 18c5 4e3c 2a28 98bd
00000380: 96db 49bd 3570 02be 1e1d 61bd 5cc2 fd3c
00000390: f48a 483e 1b69 dbbd 5bbb 3bbe 88da 3e3b
000003a0: 4392 d4bd cd5c d0bd 7195 193e e18b f33d
000003b0: 8729 c3bd fdca 00bd 62ad 5cbe b9a5 48bc
000003c0: b73d 24be 112a 12be 6985 a83d 1c47 4b3e
000003d0: 4865 193e b0b7 db3d d4da 83bd 3733 ea3d
000003e0: 25de 23bd 345c acbd 6545 523d 3c89 3d3e
000003f0: ed34 7cbd 07da 00bb a4fb dc3d 53fc c6bd

lstm.weight_hh_l0 f4 [80, 20]
-0.00033978414 0.14353172 -0.10843528 0.091226615 0.09833774 0.009787526 0.0002670932 -0.1458521
0.101901785 -0.079326466 -0.0012332401 -0.18426472 -0.014314649 -0.11285642 -0.15051405 0.13664046
-0.2126693 -0.1322719 -0.09151927 0.17099981 0.004499134 -0.1796018 -0.021548476 0.16580337
0.09959702 -0.014409144 -0.06050479 0.099795 0.07774891 -0.03331497 0.21799783 -0.04979438
0.21130532 0.11436203 -0.08146174 -0.21164542 -0.010139172 -0.113910474 -0.012300681 -0.09926753
-0.09828629 -0.11818818 -0.08072772 -0.21030481 0.07109669 -0.1957913 -0.13939421 0.11520172
-0.026680237 -0.20768474 -0.056517504 0.16114567 -0.17081083 0.13415469 0.090585776 0.06314208
-0.20938203 0.14300987 0.20866072 -0.17071189 -0.08034768 -0.0028218583 0.22249934 -0.20868975
-0.13680372 0.011168014 0.1260111 0.19596039 0.18969062 0.11770903 -0.1618971 -0.20958741
-0.14502504 -0.18035577 -0.031818822 -0.22230724 0.15773721 -0.08774006 -0.08093209 -0.15441118
-0.1472215 0.17762275 -0.054651693 -0.14059 -0.015252328 -0.08888579 0.15623564 0.05973246
0.1715997 0.07642829 0.08576959 0.19700733 0.036685597 0.18208961 0.11888198 -0.08288379
-0.1795252 0.18997808 -0.21498965 0.1509509 -0.07560857 -0.06419982 -0.123637095 -0.13730115
0.10840561 -0.023757087 0.017668001 -0.051182546 0.15986735 -0.10639892 0.16382107 -0.08225777
-0.09318466 -0.03621565 -0.084161386 0.01971081 -0.13789192 -0.04008 0.13267435 -0.040249903
-0.1434654 0.13764805 0.18994674 0.08549925 0.022597043 0.13845903 0.17919967 0.15633039
0.12737605 -0.17069104 0.062097754 -0.04858769 -0.13517605 0.023439772 0.21393485 0.20707586
0.13629574 0.17199023 0.03195922 -0.14135385 -0.13730085 0.09189056 0.07260283 0.16458637
-0.0042856196 0.18654726 -0.1214421 -0.1358139 0.08044788 0.21482241 -0.024775986 0.21869494
0.20213048 -0.18233898 -0.14923234 -0.13860571 -0.16535659 -0.16858222 -0.20627192 -0.09507547
0.15299004 -0.09167872 0.19853178 -0.20757134 -0.16064966 0.11227939 0.22293787 -0.17991045
0.06290866 0.16504717 0.13806705 -0.21930066 0.14572312 0.08695237 -0.007086153 -0.17968908
0.01206091 -0.06392969 0.20800045 -0.044451904 -0.1483362 0.11739089 -0.17878672 -0.2063216
0.16205022 0.0134039465 -0.034810852 0.09355813 0.14965533 -0.049793582 0.18057701 0.15457763
0.061151627 -0.103806034 0.14328721 -0.04542005 0.061936967 0.16104469 -0.08048184 0.20590225
-0.18072826 0.17996009 -0.047766604 0.11958578 -0.069737315 -0.006632548 -0.014408185 -0.11051647
0.08866617 0.022012264 0.10916744 -0.18895306 -0.020522114 0.17776452 -0.16014199 0.021956073
-0.22043844 0.1356002 -0.06739102 -0.084923536 -0.1330359 -0.091049455 0.15831313 0.12343589
0.031657662 0.035569217 -0.05265417 0.16160604 0.19941647 0.17864102 0.11931597 -0.12950304
-0.18565802 -0.08899374 0.094669126 -0.12632844 0.026769081 -0.057419438 -0.046225727 -0.15529625
-0.07580856 0.005403759 -0.16996288 0.00094204996 -0.01787296 -0.16403428 0.09959556 -0.084571324
-0.15473823 0.13546133 -0.15331307 -0.21721497 -0.17881103 -0.1469107 0.21073274 -0.18586932
00000000: 0e25 b2b9 fbf9 123e 5113 debd 05d5 ba3d
00000010: 4c65 c93d dc5b 203c a408 8c39 415a 15be
00000020: e2b1 d03d ea75 a2bd aca4 a1ba e4af 3cbe
00000030: fd87 6abc 4421 e7bd 5b20 1abe 7aeb 0b3e
00000040: fbc5 59be 4972 07be 746e bbbd 931a 2f3e
00000050: 796d 933b 89e9 37be 6e86 b0bc 5cc8 293e
00000060: 86f9 cb3d 5514 6cbc dfd3 77bd 5261 cc3d
00000070: d23a 9f3d 4775 08bd d33a 5f3e 31f5 4bbd
00000080: 6c60 583e a436 ea3d 6ad5 a6bd 94b9 58be
00000090: c51e 26bc e549 e9bd cc88 49bc c64c cbbd
000000a0: 534a c9bd a50c f2bd 9354 a5bd 255a 57be
000000b0: 249b 913d 847d 48be 5bbd 0ebe e1ee eb3d
000000c0: 8390 dabc 4fab 54be e67e 67bd 5f03 253e
000000d0: 09e9 2ebe d95f 093e 0985 b93d a350 813d
000000e0: 3e68 56be 2e71 123e 28ab 553e 19cf 2ebe
000000f0: 538d a4bd edee 38bb ded6 633e c4b2 55be
00000100: 4616 0cbe 0cfa 363c 0e09 013e d7a9 483e
00000110: 423e 423e 6f11 f13d 5ac8 25be 159e 56be
00000120: 7281 14be 2faf 38be 7454 02bd 82a4 63be
00000130: dd85 213e 10b1 b3bd b9bf a5bd f71d 1ebe
00000140: 3cc1 16be bde2 353e 74da 5fbd d3f6 0fbe
00000150: e6e4 79bc c109 b6bd 3cfc 1f3e 06aa 743d
00000160: d5b7 2f3e 6f86 9c3d f8a7 af3d 4abc 493e
00000170: a343 163d b375 3a3e 6578 f33d fabe a9bd
00000180: 74d5 37be 9d89 423e 3f26 5cbe df92 1a3e
00000190: aad8 9abd 327b 83bd 7235 fdbd ac98 0cbe
000001a0: c303 de3d 399e c2bc 7cbc 903c caa4 51bd
000001b0: 44b4 233e ade7 d9bd b6c0 273e c376 a8bd
000001c0: 99d7 bebd dd56 14bd ce5c acbd 9178 a13c
000001d0: 8a33 0dbe ed2a 24bd c9db 073e 15dd 24bd
000001e0: 98e8 12be 9cf3 0c3e 6681 423e 3b1a af3d
000001f0: 6f1d b93c 34c8 0d3e 1e80 373e 1315 203e
00000200: de6e 023e a2c9 2ebe 375a 7e3d e303 47bd
00000210: 976b 0abe c404 c03c bd11 5b3e b20b 543e
00000220: 1c91 0b3e 351e 303e ace7 023d 10bf 10be
00000230: 9898 0cbe 1e31 bc3d cbb0 943d 5489 283e
00000240: 626e 8cbb 3f06 3f3e a3b6 f8bd cd12 0bbe
00000250: dcc1 a43d 68fa 5b3e 02f7 cabc 91f1 5f3e
00000260: 4bfb 4e3e 12b7 3abe 5dd0 18be a8ee 0dbe
00000270: 3d53 29be d1a0 2cbe f238 53be eeb6 c2bd
00000280: 6ca9 1c3e 0ec2 bbbd ea4b 4b3e 958d 54be
00000290: 5881 24be bdf2 e53d d349 643e 723a 38be
000002a0: 41d6 803d 2002 293e 7361 0d3e 5a90 60be
000002b0: 7138 153e 1614 b23d f632 e8bb 6a00 38be
000002c0: 209b 453c 92ed 82bd 12fe 543e 3313 36bd
000002d0: 72e5 17be a36a f03d de13 37be f845 53be
000002e0: 7ef0 253e 3a9c 5b3c d395 0ebd 689b bf3d
000002f0: 3f3f 193e 5bf4 4bbd 2ee9 383e 9949 1e3e
00000300: 217a 7a3d 4298 d4bd e2b9 123e 600a 3abd
00000310: 9eb1 7d3d e6e8 243e aad3 a4bd 0ad8 523e
00000320: d410 39be 7547 383e eaa6 43bd 64e9 f43d
00000330: 70d2 8ebd d855 d9bb 4f10 6cbc 7656 e2bd
00000340: 9c96 b53d 1053 b43c 2e93 df3d e97c 41be
00000350: fe1d a8bc e707 363e 43fc 23be 39dd b33c
00000360: 9dba 61be c7da 0a3e 4e04 8abd 64ec adbd
00000370: 903a 08be 2378 babd d61c 223e f5cb fc3d
00000380: 77ab 013d 07b1 113d e6ab 57bd 0e7c 253e
00000390: d533 4c3e aced 363e ee5b f43d 729c 04be
000003a0: 231d 3ebe 5a42 b6bd e3e1 c13d 3e5c 01be
000003b0: d54a db3c a530 6bbd 3057 3dbd fb05 1fbe
000003c0: 8541 9bbd 0412 b13b c00a 2ebe e7f3 763a
000003d0: 506a 92bc 9af8 27be c2f8 cb3d bb33 adbd
000003e0: b373 1ebe 60b6 0a3e 1afe 1cbe 9a6d 5ebe
000003f0: 3d1a 37be c26f 16be 53ca 573e 8754 3ebe

lstm.bias_ih_l0 f4 [80]
-0.17588097 -0.153669 0.030111479 -0.1791123 0.20855689 0.10600561 -0.06002152 -0.08192518
-0.17863724 -0.16894625 -0.049807254 -0.10130386 -0.008697855 0.089176446 0.055877015 -0.2148443
0.086558424 -0.03304361 0.15521239 -0.15769102 -0.09099753 -0.14154918 -0.10796645 0.22039032
-0.12400332 -0.03663487 0.21103294 -0.09551668 -0.03957828 0.14449422 -0.19895391 -0.006017114
0.14095566 -0.09509029 -0.11130445 -0.18513429 0.119827524 -0.1944114 0.05719793 0.10340974
0.12715025 -0.21347612 0.08842629 0.00032507 -0.13582438 -0.12353103 -0.02753187 -0.072704636
0.083753146 -0.12743722 0.012066455 0.07303359 -0.029601896 -0.070078135 0.09152732 0.0020318008
0.056604166 -0.056994837 0.122829124 0.06294963 0.20849207 -0.04118777 -0.058991395 0.043640576
0.13852327 -0.10376834 0.1835121 0.053106524 0.0010082634 -0.13711387 0.09706796 -0.115286246
-0.016996216 0.02728874 -0.031828366 -0.121477686 -0.0010263629 0.0826023 0.166261 -0.005174464
00000000: 241a 34be 685b 1dbe 59ac f63c 3769 37be
00000010: f08f 553e 7819 d93d 20d9 75bd 64c8 a7bd
00000020: aeec 36be 3f00 2dbe b102 4cbd 6678 cfbd
00000030: 7381 0ebc 24a2 b63d 4cdf 643d 2500 5cbe
00000040: 8b45 b13d bd58 07bd ffef 1e3e c179 21be
00000050: ea5c babd 45f2 10be 841d ddbd 00ae 613e
00000060: 74f5 fdbd 720e 16bd 0519 583e 409e c3bd
00000070: d61c 22bd 4bf6 133e 93ba 4bbe 362b c5bb
00000080: ae56 103e b3be c2bd 96f3 e3bd d893 3dbe
00000090: 2268 f53d c813 47be 6048 6a3d 7cc8 d33d
000000a0: ad33 023e 7c99 5abe d818 b53d 286e aa39
000000b0: 8c15 0bbe d6fd fcbd 848a e1bc 2be6 94bd
000000c0: c586 ab3d e77e 02be 61b2 453c a392 953d
000000d0: ad7f f2bc 2085 8fbd ad72 bb3d f627 053b
000000e0: c5d9 673d 6b73 69bd d68d fb3d bceb 803d
000000f0: f27e 553e 82b4 28bd f6a0 71bd 76c0 323d
00000100: 0bd9 0d3e 7f84 d4bd 99ea 3b3e 3a86 593d
00000110: b527 843a 9467 0cbe 91cb c63d 321b ecbd
00000120: a63b 8bbc a38c df3c 765e 02bd 4bc9 f8bd
00000130: 0687 86ba 652b a93d 5340 2a3e 8d8e a9bb

lstm.bias_hh_l0 f4 [80]
0.07106878 0.1868352 -0.07595813 0.14877155 0.134329 -0.028663099 -0.01447216 -0.08461302
-0.052182864 -0.04096002 -0.045859102 -0.024473013 0.08750946 -0.12094342 -0.21595514 -0.069048814
-0.13645397 -0.077549204 0.07851703 -0.21526568 0.15353972 -0.18860316 0.061871313 -0.13659008
0.016529577 -0.2006714 0.055347253 0.009097668 -0.07612644 -0.018551862 0.1214964 0.20003374
-0.008289059 0.116354056 0.19829935 -0.012638813 0.173929 0.22101758 0.18584907 0.13307825
-0.08732428 -0.019713476 -0.07519977 0.16639714 -0.08924852 0.118562266 -0.18209445 0.20645314
0.17400812 -0.084404916 -0.020928564 -0.13861284 -0.19267377 0.1918167 0.014579663 -0.10337616
0.07001688 -0.10774126 -0.12534185 0.12134921 -0.014223299 -0.09042056 -0.036734562 0.12945709
-0.10028283 0.057667874 0.056852598 0.010681942 -0.035833724 0.12069211 -0.16078669 -0.1677115
0.10304682 0.040090874 -0.040695406 -0.1027327 0.048558395 -0.0012659471 -0.007150341 0.14882445
00000000: 828c 913d ba51 3f3e f08f 9bbd 9257 183e
00000010: 8b8d 093e e0ce eabc a31c 6dbc 9749 adbd
00000020: b3bd 55bd b2c5 27bd c1d6 3bbd a17b c8bc
00000030: 2938 b33d 2fb1 f7bd 5823 5dbe 7769 8dbd
00000040: 97ba 0bbe 1ed2 9ebd 89cd a03d 9b6e 5cbe
00000050: 8439 1d3e 3021 41be c66c 7d3d 45de 0bbe
00000060: 0969 873c ce7c 4dbe cdb3 623d 630e 153c
00000070: 2ee8 9bbd 13fa 97bc 1bd3 f83d a5d5 4c3e
00000080: d5ce 07bc 094b ee3d fc0e 4b3e 0613 4fbc
00000090: 721a 323e 6f52 623e 384f 3e3e aa45 083e
000000a0: 12d7 b2bd 287e a1bc 5602 9abd 0364 2a3e
000000b0: eec7 b6bd c6d0 f23d f876 3abe 7468 533e
000000c0: 2f2f 323e 7cdc acbd 6172 abbc 86f0 0dbe
000000d0: 464c 45be 996b 443e 8adf 6e3c e1b6 d3bd
000000e0: 0365 8f3d 73a7 dcbd 9d59 00be ef85 f83d
000000f0: d708 69bc 6a2e b9bd fb76 16bd 6690 043e
00000100: 1661 cdbd 2635 6c3d 45de 683d 5003 2f3c
00000110: 62c6 12bd 6d2d f73d 44a5 24be 90bc 2bbe
00000120: 360a d33d 5436 243d 3ab0 26bd 8665 d2bd
00000130: 2be5 463d 23ee a5ba 684d eabb 7065 183e

net.0.weight f4 [128, 20]
-0.038489904 -0.13538384 0.18268162 0.16714084 0.16677761 -0.14392295 0.17894025 0.20432505
-0.1775693 -0.14434983 0.104642004 -0.1500744 0.010613675 -0.15367019 0.1710037 0.1765327
0.12486304 -0.0032151772 -0.18459934 0.026975898 -0.11964408 -0.14159521 -0.06428086 0.19586168
0.0066594887 0.21765119 -0.18245183 0.20014155 0.080539174 0.062839285 -0.13470143 0.17392291
0.17008671 -0.19253464 0.17370221 0.040019665 0.04487669 0.10236102 0.0061805607 0.052251887
-0.13695338 -0.16060601 -0.2190519 -0.13572109 -0.18674952 -0.15384671 -0.11401645 0.13064788
0.17007254 0.028610079 0.12515628 -0.082137026 0.15396722 -0.12011678 -0.012827134 0.20610854
0.18552081 0.19275533 0.14485417 0.20798866 0.042211432 -0.11155054 -0.17675515 -0.07937252
-0.13620381 0.13622688 0.0019317267 -0.024097545 -0.13003087 -0.15942557 0.1445918 0.21938023
0.0031811227 -0.057330202 0.0081812395 0.1551863 0.18447079 0.106466055 -0.21420178 0.09598425
0.027378896 -0.19732462 -0.11976382 0.020488141 0.075199075 0.19690792 0.054318562 0.083400585
-0.10304869 0.020415455 0.19042096 -0.071388066 0.18254901 -0.11830535 0.046648763 -0.08339787
0.059639297 -0.10527094 0.094900265 0.16837561 0.13518907 0.020897504 -0.0959141 -0.14773847
0.113297954 0.06355759 0.12481359 -0.047795124 -0.113359794 -0.006490202 0.08062062 0.15638222
-0.20019108 0.1420482 0.045288067 0.19678758 -0.15489729 0.050272673 0.17824505 -0.07737237
-0.121251054 -0.11137299 -0.18653518 0.16472867 -0.16524261 -0.05080525 -0.006950608 -0.0015927996
0.19307491 -0.12627676 -0.1822419 -0.19058819 -0.07752599 0.19389385 0.08453067 -0.1374511
-0.058377933 0.019710096 -0.19430253 0.06678976 0.003370475 -0.17393282 -0.0594448 -0.22156332
-0.058111474 -0.07905139 0.13451563 -0.2146445 0.0145713035 -0.1792034 -0.15088537 0.045237515
0.04578532 -0.09274933 0.020080255 0.21216771 0.045634557 -0.18079948 0.06479389 -0.15571778
0.10435425 -0.055133216 -0.027249476 0.008224492 -0.105338685 0.10237893 -0.075713 -0.05251534
0.16672659 -0.111685134 0.173464 -0.006475253 0.18866093 -0.109201394 0.16031706 -0.20883459
-0.047680147 -0.17760243 0.18821064 0.07796485 0.06351993 -0.19271263 -0.0804314 0.09277079
-0.14105824 -0.018404694 0.07091802 0.1858218 -0.07133728 0.058444407 -0.17800419 -0.010420811
-0.12634411 -0.19549568 -0.074788 -0.2089312 0.13842067 0.009226058 0.0065989033 0.021563312
0.05632453 -0.083969206 0.12792405 -0.19652796 -0.21647434 -0.08680953 0.09739805 -0.108097985
0.10678395 0.004402892 -0.10766741 -0.062320456 -0.03672562 0.19224037 0.20906329 0.11857809
0.019612027 -0.13030341 -0.06748927 0.0003541112 0.18416832 -0.0461968 0.012247774 0.1655453
-0.019939238 -0.03443083 -0.11335038 -0.057295524 -0.05725406 -0.10333746 0.0999904 -0.2182938
-0.21021079 0.09363368 -0.06377153 -0.19964124 -0.038820047 0.18654314 -0.049937654 0.042233568
-0.22153015 0.14343967 -0.19954796 -0.105257794 0.20074438 0.118112914 0.19537894 -0.1328501
0.12375527 0.20278476 -0.013081482 -0.027274992 0.108699426 0.21764405 -0.006457918 0.09645879
00000000: 97a7 1dbd 10a2 0abe e410 3b3e f826 2b3e
00000010: c0c7 2a3e 8a60 13be 1d3c 373e 963a 513e
00000020: bad4 35be 71d0 13be 8c4e d63d 1aad 19be
00000030: fbe4 2d3c b85b 1dbe 981b 2f3e fdc4 343e
00000040: 32b8 ff3d b9b5 52bb 9c07 3dbe 8ffc dc3c
00000050: f507 f5bd 56fe 10be afa5 83bd f78f 483e
00000060: d737 da3b f4df 5e3e a7d4 3abe e8f1 4c3e
00000070: b9f1 a43d e2b1 803d 2cef 09be d918 323e
00000080: 362b 2e3e cd27 45be fede 313e a9eb 233d
00000090: 9fd0 373d a8a2 d13d 4d86 ca3b 1306 563d
000000a0: 823d 0cbe e775 24be 244f 60be 78fa 0abe
000000b0: 443b 3fbe fe89 1dbe 7581 e9bd 8fc8 053e
000000c0: 7f27 2e3e af5f ea3c f828 003e 7537 a8bd
000000d0: 95a9 1d3e c9ff f5bd e628 52bc 1e0e 533e
000000e0: 2bf9 3d3e a761 453e a754 143e fbfa 543e
000000f0: e5e5 2c3d 9c74 e4bd 4dff 34be 0f8e a2bd
00000100: 0379 0bbe 0f7f 0b3e fe31 fd3a 3768 c5bc
00000110: d026 05be 7540 23be df0f 143e 36a5 603e
00000120: 627a 503b 13d3 6abd 9b0a 063c 28e9 1e3e
00000130: e9e5 3c3e e00a da3d b657 5bbe 6493 c43d
00000140: b549 e03c 770f 4abe bc46 f5bd bfd6 a73c
00000150: f901 9a3d 3ba2 493e 247d 5e3d edcd aa3d
00000160: 310b d3bd 503e a73c b6fd 423e e833 92bd
00000170: 21ee 3a3e 134a f2bd c612 3f3d 81cc aabd
00000180: 5648 743d 4a98 d7bd 125b c23d a86a 2c3e
00000190: 016f 0a3e 3e31 ab3c 9d6e c4bd c148 17be
000001a0: c208 e83d 7b2a 823d 449e ff3d d2c4 43bd
000001b0: 2e29 e8bd c3ab d4bb 6c1c a53d a922 203e
000001c0: e4fe 4cbe 1575 113e fb7f 393d af82 493e
000001d0: 659d 1ebe b8ea 4d3d df85 363e 6875 9ebd
000001e0: 7952 f8bd 8617 e4bd 1403 3fbe a2ae 283e
000001f0: 5c35 29be 2a19 50bd edc1 e3bb 7cc5 d0ba
00000200: 6eb5 453e b24e 01be 9f9d 3abe 8d29 43be
00000210: f2c5 9ebd 1c8c 463e 6a1e ad3d fbbf 0cbe
00000220: b31d 6fbd 1177 a13c 3ef7 46be 12c9 883d
00000230: 30e3 5c3b 721b 32be 647c 73bd 7fe1 62be
00000240: 4c06 6ebd b2e5 a1bd 77be 093e c5cb 5bbe
00000250: 7abc 6e3c 1981 37be b281 1abe f94a 393d
00000260: 6389 3b3d 5cf3 bdbd 597f a43c 7e42 593e
00000270: 4deb 3a3d 8023 39be a9b2 843d 7b74 1fbe
00000280: aeb7 d53d 5ed3 61bd 4b3a dfbc 05c0 063c
00000290: cfbb d7bd 0bac d13d 6b0f 9bbd 531a 57bd
000002a0: 60ba 2a3e 2dbb e4bd 8ca0 313e 5c2e d4bb
000002b0: 5530 413e fba4 dfbd 282a 243e bcd8 55be
000002c0: 424c 43bd 69dd 35be 4aba 403e 09ac 9f3d
000002d0: bd16 823d 7656 45be 38b9 a4bd 9dfe bd3d
000002e0: 9271 10be 71c5 96bc 783d 913d 1248 3e3e
000002f0: 4819 92bd 6763 6f3d bb46 36be 0dbc 2abc
00000300: 5a60 01be 0530 48be 732a 99bd 0ff2 55be
00000310: 26be 0d3e e428 173c 9d3b d83b 8ba5 b03c
00000320: 8db4 663d 0cf8 abbd 86fe 023e a03e 49be
00000330: 73ab 5dbe 32c9 b1bd a178 c73d 7a62 ddbd
00000340: 8bb1 da3d 2346 903b bb80 dcbd bc43 7fbd
00000350: 9b6d 16bd a9da 443e b014 563e 12d9 f23d
00000360: 67a9 a03c 426e 05be d037 8abd 00a8 b939
00000370: 9f96 3c3e db38 3dbd e3aa 483c b584 293e
00000380: 9d57 a3bc 5807 0dbd 3e24 e8bd b6ae 6abd
00000390: 3c83 6abd 97a2 d3bd c4c7 cc3d 6988 5fbe
000003a0: 7f41 57be 04c3 bf3d a69a 82bd c16e 4cbe
000003b0: c501 1fbd 2a05 3f3e 6d8b 4cbd 1bfd 2c3d
000003c0: cdd8 62be d9e1 123e 4d56 4cbe 6691 d7bd
000003d0: ef8f 4d3e 2fe5 f13d 6b11 483e db09 08be
000003e0: 6773 fd3d cfa6 4f3e b653 56bc ce6f dfbc
000003f0: ce9d de3d 15de 5e3e f19c d3bb 308c c53d

net.0.bias f4 [128]
0.14822802 0.13808356 -0.22199903 0.09525407 -0.023500877 -0.14661591 -0.12716715 0.06390412
-0.21766089 0.1194447 -0.0016511799 -0.044728376 0.0031829497 -0.12678477 -0.14933476 0.15840289
-0.08482834 -0.13029844 -0.10273613 0.022477806 -0.10097142 -0.0050803693 0.16618489 -0.116337314
-0.16382304 -0.17528026 0.002411191 -0.008263056 0.15481792 0.16901815 -0.17723724 0.030136505
0.004217552 0.12383245 -0.20578301 -0.017303737 0.008812199 0.1998484 0.10077382 -0.03581049
0.18848324 0.050613843 -0.0019517919 -0.021192554 0.1833624 -0.05339698 0.0670823 0.07121291
-0.1698484 0.16989245 -0.05527025 0.052515656 -0.10415891 -0.18774363 0.1184728 -0.20143273
-0.17435831 -0.096905805 -0.13350888 -0.13718385 0.189358 -0.15385577 0.04803893 0.036725037
0.14936422 -0.18917066 0.06759254 -0.10809174 -0.13208528 -0.0039050693 -0.10943246 -0.13325407
0.1643518 0.087213516 0.10897184 -0.04758779 0.13185222 0.11297261 0.08070409 0.05709528
-0.087641 -0.0011938654 0.12383837 -0.20019262 -0.02422605 0.1012685 0.12156127 -0.005381099
0.120817095 0.040224083 0.054953963 0.065695964 0.21953426 -0.19572751 -0.059465833 0.015124199
0.18008898 -0.10251924 -0.032288447 -0.20049545 -0.06675705 -0.13787347 0.15105659 -0.06863596
-0.033237256 -0.15050346 0.21417037 0.17003173 0.02758317 0.19408411 -0.052504167 -0.026826398
-0.06055914 -0.15950352 0.0013340173 -0.007204235 -0.06107894 -0.177067 0.2107581 -0.19616538
-0.012265362 -0.04208003 -0.182768 0.0941322 -0.06650885 -0.18194127 0.037332643 -0.07446017
00000000: 16c9 173e c765 0d3e b753 63be 9114 c33d
00000010: e984 c0bc 7b22 16be 1b38 02be 2ae0 823d
00000020: 7fe2 5ebe 6c9f f43d 676c d8ba 1a35 37bd
00000030: 0999 503b ded3 01be 36eb 18be 5e34 223e
00000040: 7bba adbd f46c 05be 5267 d2bd 6023 b83c
00000050: 1bca cebd 3a79 a6bb 5f2c 2a3e 4242 eebd
00000060: 3ac1 27be ab7c 33be 1205 1e3b c561 07bc
00000070: 9788 1e3e 1813 2d3e ae7d 35be d5e0 f63c
00000080: 6433 8a3b de9b fd3d c8b8 52be 91c0 8dbc
00000090: 0b61 103c 0fa5 4c3e 8162 ce3d 05ae 12bd
000000a0: c001 413e 7650 4f3d 45d3 ffba 029c adbc
000000b0: 5ac3 3b3e cbb6 5abd 7262 893d 13d8 913d
000000c0: bdec 2dbe 49f8 2d3e 0f63 62bd a81a 573d
000000d0: 4451 d5bd de3f 40be dea1 f23d 6244 4ebe
000000e0: fc8a 32be 8d76 c6bd 8db6 08be ec79 0cbe
000000f0: 10e7 413e 5e8c 1dbe 78c4 443d fe6c 163d
00000100: eff2 183e f4b5 41be f56d 8a3d 345f ddbd
00000110: 5d41 07be 31ec 7fbb 201e e0bd c173 08be
00000120: d74b 283e 009d b23d a12c df3d 6aeb 42bd
00000130: 4504 073e 2f5e e73d 3048 a53d bedc 693d
00000140: 207d b3bd 7a7b 9cba f99e fd3d 4bff 4cbe
00000150: b675 c6bc dc65 cf3d 1df5 f83d ee53 b0bb
00000160: f46e f73d 02c2 243d 6817 613d 9b8b 863d
00000170: 97cd 603e cb6c 48be 7292 73bd 7dcb 773c
00000180: 3f69 383e 9bf5 d1bd e440 04bd ae4e 4dbe
00000190: ecb7 88bd b42e 0dbe 94ae 1a3e 0391 8cbd
000001a0: ca23 08bd 941d 1abe 7a4f 5b3e cc1c 2e3e
000001b0: 1af6 e13c fcbd 463e 9c0e 57bd 09c3 dbbc
000001c0: dc0c 78bd e454 23be 31da ae3a 8111 ecbb
000001d0: e92d 7abd 0d51 35be f9d0 573e 94df 48be
000001e0: a8f4 48bc 1c5c 2cbd 8927 3bbe 62c8 c03d
000001f0: cb35 88bd d04e 3abe 1dea 183d 937e 98bd

net.2.weight f4 [64, 128]
-0.077834785 -0.026854781 0.01795109 -0.023698498 -0.017164504 0.02172296 0.05504157 0.015971791
0.0067221695 -0.05676683 -0.07299485 -0.044156473 -0.005965802 -0.03377871 0.014320372 -0.020377347
-0.013173334 0.053644475 -0.0788704 0.04823551 -0.021143103 0.036093105 -0.019364137 -0.05944106
-0.0296849 -0.00057010987 -0.014234065 -0.045836173 0.014929161 0.010661446 -0.0195069 0.050677013
0.04450767 0.07955884 -0.071455166 -0.08765276 -0.0071107107 0.03526058 -0.053763058 -0.0728807
-0.030741384 0.038650777 0.07949962 -0.061663967 0.00014328875 -0.038604785 0.05242366 0.0022220134
-0.02759373 0.024112739 0.082724534 -0.0024026444 0.041111667 0.048477788 0.061103024 -0.028655242
-0.039178774 0.012045053 0.040307928 -0.040793978 0.029700883 0.06143925 -0.06407959 0.04189464
-0.04709039 0.08003401 -0.04190302 0.03149813 0.05325647 0.043387473 -0.039769944 0.03281009
0.015260804 -0.06341854 0.06746028 -0.014087626 -0.050500594 -0.06631746 -0.0376305 -0.0063485163
-0.061720517 0.036821067 0.08705408 0.02229406 0.045712598 0.0044620023 -0.045673758 0.007757043
0.08617629 0.0418363 -0.0301323 -0.009711751 0.0029552106 -0.0817486 0.07469631 0.063293375
0.076640606 -0.021709483 0.020922938 0.038159028 -0.03388008 0.027705304 -0.046296626 -0.08449684
0.03850146 -0.037480403 0.059151553 -0.0703441 -0.047316276 3.37807e-05 -0.021586645 -0.085135356
-0.061984863 0.01621797 -0.013873352 -0.05685795 -0.035685737 -0.07563551 -0.025171552 -0.0054748016
0.08568796 0.07610633 0.07183923 0.07180697 -0.024931535 -0.073710665 -0.06918442 -0.082705416
-0.06711372 -0.081824675 -0.00047927455 -0.026935272 0.031455845 0.06242095 -0.07805985 0.04935728
-0.04636498 -0.03216779 -0.07595628 -0.046815857 0.08232251 0.06044481 -0.06735685 0.022173041
0.003800422 -0.061075553 0.027202288 -0.083631165 0.06723926 -0.059325192 0.033652317 0.08209036
-0.009973956 0.05896972 0.042259067 -0.079001114 0.0755279 0.07146248 0.07674632 0.04508918
0.00036579964 0.06982722 0.061288126 -0.055441204 0.06889417 0.039418682 -0.04685565 -0.03718184
0.064536214 -0.055342685 0.07663509 -0.051457923 0.073824815 0.055480666 -0.033262447 -0.037198335
-0.021815212 0.07602062 -0.046970762 0.02053988 -0.04333513 -0.054735478 0.0026241576 0.070722714
0.05986626 -0.05066008 0.06662475 0.033767246 -0.013565189 -0.016110947 -0.07055599 0.028516563
0.027774045 0.028947417 -0.008671334 0.007187374 -0.07061581 -0.048316345 -0.07905845 -0.059065033
-0.004938868 -0.085345834 0.007666232 0.01115918 -0.032435074 -0.028693462 -0.010002392 -0.014317516
0.008988099 -0.014048326 -0.07389475 0.058124755 0.08062945 -0.0047561005 -0.0018869098 0.0003884351
-0.010344356 0.05402622 -0.039608393 0.031200068 0.06311144 0.05708963 -0.034434706 -0.02507837
0.07020163 0.08197225 0.0626609 -0.062563024 0.079930365 0.04106875 0.091052495 -0.07944204
-0.039780896 0.06784367 0.06430414 -0.021845022 -0.06504142 -0.006939569 0.07565024 0.066626586
0.06117346 0.075754344 0.049245518 0.08372542 0.029939054 -0.04834939 -0.07525287 -0.07369017
0.06470194 -0.07253802 0.06441551 0.045290355 -0.07225825 -0.08357921 -0.0074510495 0.060568124
00000000: d867 9fbd 8ffe dbbc 2a0e 933c 5a23 c2bc
00000010: 939c 8cbc 59f4 b13c 4573 613d 46d7 823c
00000020: a545 dc3b 5684 68bd 537e 95bd 6bdd 34bd
00000030: c67c c3bb 8b5b 0abd fe9f 6a3c 65ee a6bc
00000040: f8d4 57bc 4fba 5b3d ce86 a1bd 9992 453d
00000050: 4d34 adbc 5dd6 133d 8aa1 9ebc 7878 73bd
00000060: bf2d f3bc 6d73 15ba ff35 69bc b6be 3bbd
00000070: 7199 743c 58ad 2e3c efcc 9fbc b392 4f3d
00000080: ad4d 363d bfef a23d 1657 92bd 4a83 b3bd
00000090: f700 e9bb 666d 103d a736 5cbd 7a42 95bd
000000a0: 5bd5 fbbc 4750 1e3d b2d0 a23d 5b93 7cbd
000000b0: c83f 1639 0d20 1ebd 31ba 563d 339f 113b
000000c0: 3f0c e2bc 1488 c53c 7b6b a93d af75 1dbb
000000d0: b564 283d a590 463d 2a47 7a3d 66be eabc
000000e0: ec79 20bd 9d58 453c ed19 253d 9617 27bd
000000f0: 444f f33c b9a7 7b3d 293c 83bd b799 2b3d
00000100: dae1 40bd dfe8 a33d 80a2 2bbd 2f04 013d
00000110: 7523 5a3d 10b7 313d cfe5 22bd df63 063d
00000120: 7408 7a3c 94e1 81bd 9e28 8a3d c9cf 66bc
00000130: b6d9 4ebd 73d1 87bd 7022 1abd 3707 d0bb
00000140: a7ce 7cbd b0d1 163d 6949 b23d 08a2 b63c
00000150: 223d 3b3d fd35 923b 6814 3bbd cb2e fe3b
00000160: 327d b03d 8a5c 2b3d 03d8 f6bc 091e 1fbc
00000170: 35ac 413b cf6b a7bd 61fa 983d f59f 813d
00000180: c0f5 9c3d 16d8 b1bc 9566 ab3c a44c 1c3d
00000190: d7c5 0abd 3cf6 e23c 88a1 3dbd ae0c adbd
000001a0: b5b3 1d3d 0d85 19bd e648 723d 9110 90bd
000001b0: b6ce 41bd c0af 0d38 7ad6 b0bc 725b aebd
000001c0: d7e3 7dbd 8cdb 843c 0e4d 63bc e2e3 68bd
000001d0: 352b 12bd cae6 9abd 9234 cebc f765 b3bb
000001e0: 2b7d af3d a3dd 9b3d 7220 933d 880f 933d
000001f0: 383d ccbc 9ef5 96bd 90b0 8dbd 7561 a9bd
00000200: eb72 89bd b293 a7bd 2447 fbb9 5ca7 dcbc
00000210: d8d7 003d 1cad 7f3d d8dd 9fbd dc2a 4a3d
00000220: 35e9 3dbd 5fc2 03bd f78e 9bbd fcc1 3fbd
00000230: b498 a83d fa94 773d 63f2 89bd 3da4 b53c
00000240: 8010 793b 5c2a 7abd 55d7 de3c d146 abbd
00000250: bdb4 893d f9fe 72bd 03d7 093d fe1e a83d
00000260: ce69 23bc 3c8a 713d d817 2d3d 56cb a1bd
00000270: 5fae 9a3d ec5a 923d 2d2d 9d3d 6faf 383d
00000280: ccc8 bf39 9301 8f3d 4209 7b3d 5116 63bd
00000290: 6318 8d3d 7c75 213d b6eb 3fbd fc4b 18bd
000002a0: 902b 843d 03af 62bd dcf2 9c3d 8bc5 52bd
000002b0: 7731 973d b23f 633d 343e 08bd 485d 18bd
000002c0: d1b5 b2bc b3b0 9b3d 6a64 40bd 4043 a83c
000002d0: 2d80 31bd 4f32 60bd 0ffa 2b3b 12d7 903d
000002e0: 5336 753d f280 4fbd 8f72 883d 864f 0a3d
000002f0: 8740 5ebc 1bfb 83bc a97f 90bd 919b e93c
00000300: 6586 e33c 2223 ed3c 3612 0ebc 1084 eb3b
00000310: 069f 90bd 5ce7 45bd 66e9 a1bd 2dee 71bd
00000320: 3ad6 a1bb ccc9 aebd 0435 fb3b fed4 363c
00000330: a4da 04bd 8d0e ebbc 13e1 23bc 0494 6abc
00000340: d242 133c f32a 66bc 2156 97bd 3914 6e3d
00000350: 0e21 a53d 10d9 9bbb 3052 f7ba e0a6 cb39
00000360: 607b 29bc 994a 5d3d 693c 22bd 4997 ff3c
00000370: 9240 813d d1d6 693d 680b 0dbd 2771 cdbc
00000380: dfc5 8f3d 11e1 a73d 5c54 803d 0b21 80bd
00000390: 88b2 a33d b537 283d bb79 ba3d 82b2 a2bd
000003a0: 4bf1 22bd 9ff1 8a3d e4b1 833d 55f4 b2bc
000003b0: 7034 85bd 5365 e3bb 83ee 9a3d 8573 883d
000003c0: 0691 7a3d 1825 9b3d abb5 493d 3c78 ab3d
000003d0: bf42 f53c 030a 46bd 2d1e 9abd dfea 96bd
000003e0: 7382 843d d08e 94bd 47ec 833d 6182 393d
000003f0: 22fc 93bd 942b abbd ef27 f4bb 4816 783d

net.2.bias f4 [64]
-0.07428151 -0.027579362 0.023629105 -0.0025335916 -0.021225687 -0.04819292 -0.008660942 0.05724913
-0.04109765 -0.033603612 0.078620076 -0.06292619 -0.06534758 -0.04980974 -0.012506648 0.076183945
0.019349137 -0.046772078 -0.04499937 0.027973738 -0.008135409 -0.034748632 -0.02441695 0.029907633
-0.06611326 0.022523925 0.027006775 -0.048380915 -0.06587052 -0.07734885 -0.040056333 -0.040595647
0.055223264 -0.054006346 -0.038253713 -0.05968721 -0.07060898 0.036424704 -0.010283924 0.052379973
0.058407173 0.0469272 0.0771883 -0.0680889 -0.045413252 0.043783 -0.03876888 -0.0079666
0.06798275 0.04761331 -0.036157977 0.018802123 -0.048720576 0.015000698 0.06913584 -0.071988635
-0.014449447 0.08058323 -0.06469743 0.038318854 0.017995525 -0.04315778 -0.07136294 0.06961248
00000000: e820 98bd 1dee e1bc d391 c13c 9d0a 26bb
00000010: 7ee1 adbc f065 45bd a0e6 0dbc 107e 6a3d
00000020: 0256 28bd f1a3 09bd 9003 a13d 72df 80bd
00000030: f4d4 85bd 4c05 4cbd afe8 4cbc 5406 9c3d
00000040: 1582 9e3c 1494 3fbd 4251 38bd 2e29 e53c
00000050: 614a 05bc 9554 0ebd 0e06 c8bc da00 f53c
00000060: 6466 87bd 1884 b83c 503d dd3c 112b 46bd
00000070: 20e7 86bd 1369 9ebd 1c12 24bd 9f47 26bd
00000080: ca31 623d c235 5dbd edaf 1cbd 937a 74bd
00000090: 719b 90bd 1232 153d e77d 28bc 628c 563d
000000a0: 5c3c 6f3d bc36 403d e614 9e3d 3172 8bbd
000000b0: 3f03 3abd ce55 333d 1ecc 1ebd 5886 02bc
000000c0: 8a3a 8b3d 2d06 433d 631a 14bd e906 9a3c
000000d0: 3a8f 47bd 7dc5 753c 1797 8d3d c76e 93bd
000000e0: 60bd 6cbc d208 a53d 1680 84bd 3bf4 1c3d
000000f0: 5a6b 933c 36c6 30bd bc26 92bd fd90 8e3d

net.4.weight f4 [3, 64]
-0.12426761 0.055958014 -0.013981491 0.0479187 -0.118182145 0.059132922 0.079663016 0.02763471
-0.075094834 0.08924832 0.062839426 -0.016080864 0.03970475 0.011257635 0.03840093 -0.08357215
-0.0904233 -0.088736795 0.058705237 -0.028551206 0.073740035 -0.014282623 -0.004914199 0.09289607
0.011886911 -0.11580823 -0.045975924 0.08610727 -0.020040784 0.013784092 0.09586565 -0.009646957
-0.095983595 -0.024864128 -0.02270823 -0.055494092 -0.04776393 -0.06379679 0.017827164 0.049199026
0.035403118 0.009349189 0.051538512 -0.073731415 -0.051230747 -0.06749072 -0.10787078 0.100870155
0.108374834 0.11407157 -0.0608483 0.007151575 -0.09234739 0.04109445 -0.023545733 0.05481301
0.11308336 0.027573152 -0.05836411 0.03817602 -0.013935682 0.08510024 -0.026971363 -0.08086332
-0.107917786 0.024684787 -0.016468925 0.07071829 0.023049116 -0.044585183 -0.019913983 -0.08480373
0.0036580265 -0.027842745 -0.12003307 0.037042983 -0.011266465 -0.09914431 -0.048440248 -0.018140838
0.059841707 -0.0112061 -0.06578517 0.050012663 0.12411949 0.10786179 0.01791294 -0.07881026
0.0031528026 -0.096953824 -0.09746261 -0.1130739 -0.014792602 -0.02958022 0.0995665 0.018155918
-0.042731687 -0.06383574 -0.0151375085 -0.11364317 -0.02989319 -0.115851894 -0.086408004 0.07183759
0.08226 -0.008941948 -0.07164168 0.047861695 -0.04985276 -0.026684478 0.06750856 0.047891006
-0.020868108 0.046489287 -0.08914395 -0.07374793 -0.0764914 -0.057982042 -0.11651021 0.121874556
-0.11024514 0.07984127 0.03588274 -0.0926138 -0.09887409 -0.04988578 -0.10249601 -0.06537674
-0.016121358 0.012737046 0.034159027 0.021585612 -0.08348798 -0.0066589215 0.021910753 -0.09160792
0.109896846 -0.10911246 -0.01776208 -0.12304491 0.039413914 0.006537151 -0.04799743 -0.04121308
0.008056009 0.094923824 -0.00057008874 0.09699945 -0.0020634655 0.08294884 0.01595808 0.099226885
-0.0831003 0.08941929 0.042813335 0.017062426 0.05101472 -0.045919944 0.102185756 -0.05456305
0.022959163 -0.035353787 0.06319735 -0.009199906 -0.08864103 0.010271401 -0.0773127 0.0895128
0.12625305 0.012684872 0.106618315 -0.04964305 0.05823333 -0.083073065 0.005786197 0.117720015
-0.047079615 -0.08691679 -0.005199043 -0.052631754 -0.07325392 0.038050454 0.0663798 0.11047435
0.039435763 -0.059690464 -0.115341336 0.00028586996 -0.101421215 -0.067376345 0.0672562 -0.00047681507
00000000: 0480 febd 3b34 653d a012 65bc 6646 443d
00000010: 7b09 f2bd 5d35 723d 5d26 a33d 3062 e23c
00000020: 52cb 99bd d3c7 b63d f5b1 803d 04bc 83bc
00000030: 73a1 223d f271 383c 4b4a 1d3d e027 abbd
00000040: da2f b9bd a3bb b5bd e774 703d 38e4 e9bc
00000050: 0405 973d aa01 6abc 4a07 a1bb 4b40 be3d
00000060: 51c1 423c de2c edbd 4051 3cbd 0259 b03d
00000070: 922c a4bc acd6 613c 3655 c43d 450e 1ebc
00000080: 0c93 c4bd dbaf cbbc 9c06 babc c64d 63bd
00000090: 1ca4 43bd e4a7 82bd 460a 923c eb84 493d
000000a0: dc02 113d 572d 193c 0c1a 533d 7f00 97bd
000000b0: 55d7 51bd 9338 8abd 5beb dcbd 0395 ce3d
000000c0: a0f3 dd3d 5b9e e93d 113c 79bd c257 ea3b
000000d0: a120 bdbd a752 283d fbe2 c0bc 9b83 603d
000000e0: 4098 e73d 17e1 e13c 340f 6fbd 755e 1c3d
000000f0: 7d52 64bc 0949 ae3d 0cf3 dcbc ab9b a5bd
00000100: 0004 ddbd c037 ca3c d7e9 86bc c0d4 903d
00000110: 80d1 bc3c f49e 36bd a622 a3bc 94ad adbd
00000120: 80bb 6f3b 7816 e4bc e6d3 f5bd 62ba 173d
00000130: fb96 38bc 2c0c cbbd 4869 46bd 189c 94bc
00000140: 941c 753d ca99 37bc 60ba 86bd 14da 4c3d
00000150: 5c32 fe3d a4e6 dc3d 28be 923c 4667 a1bd
00000160: 409f 4e3b ba8f c6bd 7a9a c7bd 4a93 e7bd
00000170: ab5c 72bc 3852 f2bc 85e9 cb3d b8bb 943c
00000180: 6c07 2fbd 50bc 82bd 5003 78bc c0bd e8bd
00000190: 90e2 f4bc c243 edbd aef6 b0bd 961f 933d
000001a0: ee77 a83d 4081 12bc e0b8 92bd a00a 443d
000001b0: 6832 4cbd 6899 dabc ee41 8a3d 5c29 443d
000001c0: 98f3 aabc 8d6b 3e3d 1a91 b6bd 2809 97bd
000001d0: 86a7 9cbd 947e 6dbd e89c eebd 5e99 f93d
000001e0: 34c8 e1bd d283 a33d c8f9 123d 4eac bdbd
000001f0: 807e cabd 0855 4cbd 6ee9 d1bd 3ee4 85bd
00000200: f010 84bc 0baf 503c 56ea 0b3d 4fd4 b03c
00000210: bffb aabd 1533 dabb 2e7e b33c ef9c bbbd
00000220: 9911 e13d 5a76 dfbd c881 91bc f8fe fbbd
00000230: 7c70 213d 9935 d63b f498 44bd 0ccf 28bd
00000240: 5afd 033c 6c67 c23d 0272 15ba a6a7 c63d
00000250: 353b 07bb 15e1 a93d 85ba 823c 7737 cb3d
00000260: 7d30 aabd 7621 b73d 095d 2f3d 80c6 8b3c
00000270: d0f4 503d 8d16 3cbd c446 d13d 817d 5fbd
00000280: db14 bc3c 22cf 10bd 9d6d 813d 34bb 16bc
00000290: 6e89 b5bd 6149 283c 1f56 9ebd 7d52 b73d
000002a0: 7b48 013e 36d4 4f3c b45a da3d 8356 4bbd
000002b0: 1286 6e3d 3622 aabd 239a bd3b 3117 f13d
000002c0: 8ed6 40bd 6e01 b2bd bc5c aabb 6594 57bd
000002d0: 2706 96bd cbda 1b3d 22f2 873d 6040 e23d
000002e0: 6587 213d fd7d 74bd 1438 ecbd d1e0 9539
000002f0: edb5 cfbd 9cfc 89bd 9ebd 893d 09fd f9b9

net.4.bias f4 [3]
0.10526792 -0.110727265 -0.035552397
00000000: b596 d73d fac4 e2bd 649f 11bd
