uniform/00_uniformtest/model_ep200.pth (torch, 61296 bytes, 10 tensors)

lstm.weight_ih_l0 f4 [80, 20]
-0.20614457 -0.06785561 0.11688185 0.1255432 -0.0737766 0.2141046 -0.01776844 -0.040199097
-0.19863111 0.09262312 0.058782015 0.18013927 -0.03602642 0.05333734 -0.19138293 0.1415894
0.07740518 -0.13869515 -0.0045479946 0.0822796 0.015166095 0.082069606 0.014990939 -0.18451646
0.09852252 -0.08498977 -0.17752124 -0.016614342 0.037245214 0.058196995 0.19158895 -0.20316409
0.17447655 -0.20997736 0.003486899 0.1332719 -0.10703106 -0.08154728 0.19037072 0.14225197
0.1884902 0.11228928 -0.027539201 0.050310895 0.08690871 0.121869534 0.07038911 0.02453115
-0.20391747 0.04890735 0.19429481 0.0042852196 -0.019529337 -0.21524246 0.08932948 -0.14754462
-0.17663251 0.16480894 -0.19459282 0.09336733 0.20111184 -0.079716414 0.09202013 -0.0920707
-0.13212162 0.19869262 -0.09904344 0.15633841 0.0930116 0.016990833 0.017910918 -0.12873873
0.125838 0.09093449 0.066850014 -0.16113836 -0.20480959 -0.10728888 -0.05479526 0.008238039
-0.08666377 -0.13830043 0.11170469 0.028615464 0.14832252 -0.08629227 0.050334726 -0.17964704
-0.17117392 -0.053905163 0.013058725 0.12551905 0.030418182 0.10736403 -0.13512868 -0.100934945
0.040908094 0.04014672 0.10274241 0.08717581 -0.05253499 0.029035429 -0.20491579 -0.12418362
0.22224331 -0.08322339 -0.18715662 -0.13669713 0.18209206 0.13345136 0.18711498 -0.06053134
-0.20565243 0.069456436 -0.12331682 0.04580896 0.056924865 0.08014782 -0.048936643 -0.034775212
0.042806216 0.104037754 0.18754344 -0.16325685 -0.173025 0.067286156 -0.18429555 0.14769702
0.030785982 -0.1301232 -0.16380414 0.11096605 -0.05275053 -0.19014943 -0.017402988 -0.17093071
0.2068974 0.082398914 -0.04228914 -0.1768218 0.057110097 -0.18900612 -0.2085602 0.12706348
0.19756225 -0.014667521 0.14400855 -0.20216286 -0.1771292 -0.12375211 0.09960334 0.15719709
-0.07035789 0.012144131 0.044654943 -0.15970372 0.16469905 0.115658686 -0.13189323 0.029125579
-0.10117018 -0.091773756 0.049210347 -0.11555827 0.126869 -0.024241932 -0.20803148 0.058489196
-0.16367486 0.21458517 0.053193342 0.16052823 -0.013994563 -0.0036962018 0.21640599 -0.039520357
-0.14615081 0.11239719 0.016156312 0.21954426 -0.11370437 0.12247665 0.21043772 0.1971627
-0.083819844 0.0035415704 -0.08638599 0.021600561 0.18464637 0.11657099 -0.090070836 -0.13727432
0.16697243 0.11825487 -0.12356448 -0.15949726 0.06928768 -0.083286 0.10585218 0.11400177
-0.15525408 0.15442838 -0.012657765 0.0929318 0.014212583 -0.04114653 -0.14883114 -0.14335352
0.14914687 0.18853524 -0.13777506 0.10505884 -0.18357228 0.1415476 0.0846433 -0.15004443
-0.16994649 -0.19383377 0.1518986 0.13936184 0.09901078 0.13803633 0.012620233 -0.07429536
-0.04928168 -0.12738116 -0.05495941 0.030976467 0.19584256 -0.10713407 -0.18333189 0.0029121954
-0.1037946 -0.1017395 0.14998414 0.11891914 -0.09529405 -0.031443585 -0.21550515 -0.012246543
-0.16039167 -0.1427386 0.08228571 0.19851345 0.14980042 0.10728395 -0.064382225 0.1143555
-0.040006775 -0.08416024 0.05133571 0.18509382 -0.06157391 -0.0019661204 0.10790184 -0.09716096
00000000: 9017 53be e2f7 8abd c05f ef3d 668e 003e
00000010: 3018 97bd 3c3e 5b3e 1f8f 91bc cfa7 24bd
00000020: f465 4bbe 31b1 bd3d 69c5 703d 6e76 383e
00000030: 7090 13bd 4178 5a3d e3f9 43be d0fc 103e
00000040: 9b86 9e3d 1a06 0ebe 5807 95bb 3582 a83d
00000050: 377b 783c 1c14 a83d 8e9c 753c e2f1 3cbe
00000060: 2dc6 c93d 1e0f aebd 21c8 35be cd1a 88bc
00000070: 708e 183d f95f 6e3d e52f 443e 3f0a 50be
00000080: fba9 323e 4e04 57be 7584 643b 6e78 083e
00000090: 1a33 dbbd 4302 a7bd 8bf0 423e 80aa 113e
000000a0: 9303 413e ecf7 e53d e499 e1bc cc12 4e3d
000000b0: 32fd b13d bc96 f93d 2a28 903d 8df5 c83c
000000c0: becf 50be 1353 483d 38f5 463e 076b 8c3b
000000d0: fdfb 9fbc 8568 5cbe 60f2 b63d f015 17be
000000e0: 27df 34be adc3 283e 5743 47be 5f37 bf3d
000000f0: 43f0 4d3e 5c42 a3bd 0d75 bc3d 908f bcbd
00000100: e44a 07be 1476 4b3e 49d7 cabd 2d17 203e
00000110: de7c be3d 5c30 8b3c ebb9 923c 16d4 03be
00000120: addb 003e dd3b ba3d a9e8 883d 7401 25be
00000130: 9bb9 51be 46ba dbbd ff70 60bd d7f8 063c
00000140: c67c b1bd a19e 0dbe 6ec5 e43d fa6a ea3c
00000150: dce1 173e 00ba b0bd c92b 4e3d 65f5 37be
00000160: 3748 2fbe a9cb 5cbd 43f4 553c 1188 003e
00000170: 8d2f f93c ace1 db3d 2c5f 0abe fbb6 cebd
00000180: 3f8f 273d e370 243d 9d6a d23d 3b89 b23d
00000190: ee2e 57bd b5db ed3c 72d5 51be fb53 febd
000001a0: c093 633e 0671 aabd fca5 3fbe 55fa 0bbe
000001b0: 5776 3a3e 79a7 083e 129b 3f3e b6ef 77bd
000001c0: 8d96 52be 2d3f 8e3d 878d fcbd 2da2 3b3d
000001d0: 0c2a 693d 8a24 a43d ca71 48bd 7470 0ebd
000001e0: 9255 2f3d bf11 d53d 630b 403e ce2c 27be
000001f0: 772d 31be 53cd 893d f9b7 3cbe e33d 173e
00000200: e232 fc3c 043f 05be 46bc 27be 2b42 e33d
00000210: f110 58bd 88b6 42be b690 8ebc 7608 2fbe
00000220: e9dc 533e c3c0 a83d 6137 2dbd c610 35be
00000230: 47ec 693d d28a 41be ce90 55be ee1c 023e
00000240: c24d 4a3e 0b50 70bc fa76 133e c803 4fbe
00000250: 5b61 35be bf71 fdbd d6fc cb3d 46f8 203e
00000260: cc17 90bd 2df8 463c 1ae8 363d 5f89 23be
00000270: dea6 283e 76de ec3d 050f 07be c498 ee3c
00000280: 5032 cfbd e1f3 bbbd ca90 493d d0a9 ecbd
00000290: f2e9 013e 0497 c6bc 3406 55be 5e92 6f3d
000002a0: 629a 27be 37bc 5b3e 43e1 593d 8361 243e
000002b0: 7449 65bc fa3b 72bb 8899 5d3e 19e0 21bd
000002c0: 8fa8 15be 7f30 e63d 3e5a 843c 36d0 603e
000002d0: d6dd e8bd 0ad5 fa3d fc7c 573e 05e5 493e
000002e0: bda9 abbd b119 683b 23eb b0bd a9f3 b03c
000002f0: f013 3d3e c5bc ee3d 0f77 b8bd a491 0cbe
00000300: d2fa 2a3e 9c2f f23d 600f fdbd 4053 23be
00000310: b3e6 8d3d da91 aabd 07c9 d83d c379 e93d
00000320: edfa 1ebe 7922 1e3e 8462 4fbc 0753 be3d
00000330: e5db 683c 4489 28bd 3167 18be 44cb 12be
00000340: f5b9 183e 620f 413e e814 0dbe 1729 d73d
00000350: 5ffa 3bbe dbf1 103e 7759 ad3d 3fa5 19be
00000360: 7406 2ebe 5c7c 46be 4e8b 1b3e dfb4 0e3e
00000370: 2ac6 ca3d 6559 0d3e 18c5 4e3c 2a28 98bd
00000380: 96db 49bd 3570 02be 1e1d 61bd 5cc2 fd3c
00000390: f48a 483e 1b69 dbbd 5bbb 3bbe 88da 3e3b
000003a0: 4392 d4bd cd5c d0bd 7195 193e e18b f33d
000003b0: 8729 c3bd fdca 00bd 62ad 5cbe b9a5 48bc
000003c0: b73d 24be 112a 12be 6985 a83d 1c47 4b3e
000003d0: 4865 193e b0b7 db3d d4da 83bd 3733 ea3d
000003e0: 25de 23bd 345c acbd 6545 523d 3c89 3d3e
000003f0: ed34 7cbd 07da 00bb a4fb dc3d 53fc c6bd

lstm.weight_hh_l0 f4 [80, 20]
-0.00033978414 0.14353172 -0.10843528 0.091226615 0.09833774 0.009787526 0.0002670932 -0.1458521
0.101901785 -0.079326466 -0.0012332401 -0.18426472 -0.014314649 -0.11285642 -0.15051405 0.13664046
-0.2126693 -0.1322719 -0.09151927 0.17099981 0.004499134 -0.1796018 -0.021548476 0.16580337
0.09959702 -0.014409144 -0.06050479 0.099795 0.07774891 -0.03331497 0.21799783 -0.04979438
0.21130532 0.11436203 -0.08146174 -0.21164542 -0.010139172 -0.113910474 -0.012300681 -0.09926753
-0.09828629 -0.11818818 -0.08072772 -0.21030481 0.07109669 -0.1957913 -0.13939421 0.11520172
-0.026680237 -0.20768474 -0.056517504 0.16114567 -0.17081083 0.13415469 0.090585776 0.06314208
-0.20938203 0.14300987 0.20866072 -0.17071189 -0.08034768 -0.0028218583 0.22249934 -0.20868975
-0.13680372 0.011168014 0.1260111 0.19596039 0.18969062 0.11770903 -0.1618971 -0.20958741
-0.14502504 -0.18035577 -0.031818822 -0.22230724 0.15773721 -0.08774006 -0.08093209 -0.15441118
-0.1472215 0.17762275 -0.054651693 -0.14059 -0.015252328 -0.08888579 0.15623564 0.05973246
0.1715997 0.07642829 0.08576959 0.19700733 0.036685597 0.18208961 0.11888198 -0.08288379
-0.1795252 0.18997808 -0.21498965 0.1509509 -0.07560857 -0.06419982 -0.123637095 -0.13730115
0.10840561 -0.023757087 0.017668001 -0.051182546 0.15986735 -0.10639892 0.16382107 -0.08225777
-0.09318466 -0.03621565 -0.084161386 0.01971081 -0.13789192 -0.04008 0.13267435 -0.040249903
-0.1434654 0.13764805 0.18994674 0.08549925 0.022597043 0.13845903 0.17919967 0.15633039
0.12737605 -0.17069104 0.062097754 -0.04858769 -0.13517605 0.023439772 0.21393485 0.20707586
0.13629574 0.17199023 0.03195922 -0.14135385 -0.13730085 0.09189056 0.07260283 0.16458637
-0.0042856196 0.18654726 -0.1214421 -0.1358139 0.08044788 0.21482241 -0.024775986 0.21869494
0.20213048 -0.18233898 -0.14923234 -0.13860571 -0.16535659 -0.16858222 -0.20627192 -0.09507547
0.15299004 -0.09167872 0.19853178 -0.20757134 -0.16064966 0.11227939 0.22293787 -0.17991045
0.06290866 0.16504717 0.13806705 -0.21930066 0.14572312 0.08695237 -0.007086153 -0.17968908
0.01206091 -0.06392969 0.20800045 -0.044451904 -0.1483362 0.11739089 -0.17878672 -0.2063216
0.16205022 0.0134039465 -0.034810852 0.09355813 0.14965533 -0.049793582 0.18057701 0.15457763
0.061151627 -0.103806034 0.14328721 -0.04542005 0.061936967 0.16104469 -0.08048184 0.20590225
-0.18072826 0.17996009 -0.047766604 0.11958578 -0.069737315 -0.006632548 -0.014408185 -0.11051647
0.08866617 0.022012264 0.10916744 -0.18895306 -0.020522114 0.17776452 -0.16014199 0.021956073
-0.22043844 0.1356002 -0.06739102 -0.084923536 -0.1330359 -0.091049455 0.15831313 0.12343589
0.031657662 0.035569217 -0.05265417 0.16160604 0.19941647 0.17864102 0.11931597 -0.12950304
-0.18565802 -0.08899374 0.094669126 -0.12632844 0.026769081 -0.057419438 -0.046225727 -0.15529625
-0.07580856 0.005403759 -0.16996288 0.00094204996 -0.01787296 -0.16403428 0.09959556 -0.084571324
-0.15473823 0.13546133 -0.15331307 -0.21721497 -0.17881103 -0.1469107 0.21073274 -0.18586932
00000000: 0e25 b2b9 fbf9 123e 5113 debd 05d5 ba3d
00000010: 4c65 c93d dc5b 203c a408 8c39 415a 15be
00000020: e2b1 d03d ea75 a2bd aca4 a1ba e4af 3cbe
00000030: fd87 6abc 4421 e7bd 5b20 1abe 7aeb 0b3e
00000040: fbc5 59be 4972 07be 746e bbbd 931a 2f3e
00000050: 796d 933b 89e9 37be 6e86 b0bc 5cc8 293e
00000060: 86f9 cb3d 5514 6cbc dfd3 77bd 5261 cc3d
00000070: d23a 9f3d 4775 08bd d33a 5f3e 31f5 4bbd
00000080: 6c60 583e a436 ea3d 6ad5 a6bd 94b9 58be
00000090: c51e 26bc e549 e9bd cc88 49bc c64c cbbd
000000a0: 534a c9bd a50c f2bd 9354 a5bd 255a 57be
000000b0: 249b 913d 847d 48be 5bbd 0ebe e1ee eb3d
000000c0: 8390 dabc 4fab 54be e67e 67bd 5f03 253e
000000d0: 09e9 2ebe d95f 093e 0985 b93d a350 813d
000000e0: 3e68 56be 2e71 123e 28ab 553e 19cf 2ebe
000000f0: 538d a4bd edee 38bb ded6 633e c4b2 55be
00000100: 4616 0cbe 0cfa 363c 0e09 013e d7a9 483e
00000110: 423e 423e 6f11 f13d 5ac8 25be 159e 56be
00000120: 7281 14be 2faf 38be 7454 02bd 82a4 63be
00000130: dd85 213e 10b1 b3bd b9bf a5bd f71d 1ebe
00000140: 3cc1 16be bde2 353e 74da 5fbd d3f6 0fbe
00000150: e6e4 79bc c109 b6bd 3cfc 1f3e 06aa 743d
00000160: d5b7 2f3e 6f86 9c3d f8a7 af3d 4abc 493e
00000170: a343 163d b375 3a3e 6578 f33d fabe a9bd
00000180: 74d5 37be 9d89 423e 3f26 5cbe df92 1a3e
00000190: aad8 9abd 327b 83bd 7235 fdbd ac98 0cbe
000001a0: c303 de3d 399e c2bc 7cbc 903c caa4 51bd
000001b0: 44b4 233e ade7 d9bd b6c0 273e c376 a8bd
000001c0: 99d7 bebd dd56 14bd ce5c acbd 9178 a13c
000001d0: 8a33 0dbe ed2a 24bd c9db 073e 15dd 24bd
000001e0: 98e8 12be 9cf3 0c3e 6681 423e 3b1a af3d
000001f0: 6f1d b93c 34c8 0d3e 1e80 373e 1315 203e
00000200: de6e 023e a2c9 2ebe 375a 7e3d e303 47bd
00000210: 976b 0abe c404 c03c bd11 5b3e b20b 543e
00000220: 1c91 0b3e 351e 303e ace7 023d 10bf 10be
00000230: 9898 0cbe 1e31 bc3d cbb0 943d 5489 283e
00000240: 626e 8cbb 3f06 3f3e a3b6 f8bd cd12 0bbe
00000250: dcc1 a43d 68fa 5b3e 02f7 cabc 91f1 5f3e
00000260: 4bfb 4e3e 12b7 3abe 5dd0 18be a8ee 0dbe
00000270: 3d53 29be d1a0 2cbe f238 53be eeb6 c2bd
00000280: 6ca9 1c3e 0ec2 bbbd ea4b 4b3e 958d 54be
00000290: 5881 24be bdf2 e53d d349 643e 723a 38be
000002a0: 41d6 803d 2002 293e 7361 0d3e 5a90 60be
000002b0: 7138 153e 1614 b23d f632 e8bb 6a00 38be
000002c0: 209b 453c 92ed 82bd 12fe 543e 3313 36bd
000002d0: 72e5 17be a36a f03d de13 37be f845 53be
000002e0: 7ef0 253e 3a9c 5b3c d395 0ebd 689b bf3d
000002f0: 3f3f 193e 5bf4 4bbd 2ee9 383e 9949 1e3e
00000300: 217a 7a3d 4298 d4bd e2b9 123e 600a 3abd
00000310: 9eb1 7d3d e6e8 243e aad3 a4bd 0ad8 523e
00000320: d410 39be 7547 383e eaa6 43bd 64e9 f43d
00000330: 70d2 8ebd d855 d9bb 4f10 6cbc 7656 e2bd
00000340: 9c96 b53d 1053 b43c 2e93 df3d e97c 41be
00000350: fe1d a8bc e707 363e 43fc 23be 39dd b33c
00000360: 9dba 61be c7da 0a3e 4e04 8abd 64ec adbd
00000370: 903a 08be 2378 babd d61c 223e f5cb fc3d
00000380: 77ab 013d 07b1 113d e6ab 57bd 0e7c 253e
00000390: d533 4c3e aced 363e ee5b f43d 729c 04be
000003a0: 231d 3ebe 5a42 b6bd e3e1 c13d 3e5c 01be
000003b0: d54a db3c a530 6bbd 3057 3dbd fb05 1fbe
000003c0: 8541 9bbd 0412 b13b c00a 2ebe e7f3 763a
000003d0: 506a 92bc 9af8 27be c2f8 cb3d bb33 adbd
000003e0: b373 1ebe 60b6 0a3e 1afe 1cbe 9a6d 5ebe
000003f0: 3d1a 37be c26f 16be 53ca 573e 8754 3ebe

lstm.bias_ih_l0 f4 [80]
-0.17588097 -0.153669 0.030111479 -0.1791123 0.20855689 0.10600561 -0.06002152 -0.08192518
-0.17863724 -0.16894625 -0.049807254 -0.10130386 -0.008697855 0.089176446 0.055877015 -0.2148443
0.086558424 -0.03304361 0.15521239 -0.15769102 -0.09099753 -0.14154918 -0.10796645 0.22039032
-0.12400332 -0.03663487 0.21103294 -0.09551668 -0.03957828 0.14449422 -0.19895391 -0.006017114
0.14095566 -0.09509029 -0.11130445 -0.18513429 0.119827524 -0.1944114 0.05719793 0.10340974
0.12715025 -0.21347612 0.08842629 0.00032507 -0.13582438 -0.12353103 -0.02753187 -0.072704636
0.083753146 -0.12743722 0.012066455 0.07303359 -0.029601896 -0.070078135 0.09152732 0.0020318008
0.056604166 -0.056994837 0.122829124 0.06294963 0.20849207 -0.04118777 -0.058991395 0.043640576
0.13852327 -0.10376834 0.1835121 0.053106524 0.0010082634 -0.13711387 0.09706796 -0.115286246
-0.016996216 0.02728874 -0.031828366 -0.121477686 -0.0010263629 0.0826023 0.166261 -0.005174464
00000000: 241a 34be 685b 1dbe 59ac f63c 3769 37be
00000010: f08f 553e 7819 d93d 20d9 75bd 64c8 a7bd
00000020: aeec 36be 3f00 2dbe b102 4cbd 6678 cfbd
00000030: 7381 0ebc 24a2 b63d 4cdf 643d 2500 5cbe
00000040: 8b45 b13d bd58 07bd ffef 1e3e c179 21be
00000050: ea5c babd 45f2 10be 841d ddbd 00ae 613e
00000060: 74f5 fdbd 720e 16bd 0519 583e 409e c3bd
00000070: d61c 22bd 4bf6 133e 93ba 4bbe 362b c5bb
00000080: ae56 103e b3be c2bd 96f3 e3bd d893 3dbe
00000090: 2268 f53d c813 47be 6048 6a3d 7cc8 d33d
000000a0: ad33 023e 7c99 5abe d818 b53d 286e aa39
000000b0: 8c15 0bbe d6fd fcbd 848a e1bc 2be6 94bd
000000c0: c586 ab3d e77e 02be 61b2 453c a392 953d
000000d0: ad7f f2bc 2085 8fbd ad72 bb3d f627 053b
000000e0: c5d9 673d 6b73 69bd d68d fb3d bceb 803d
000000f0: f27e 553e 82b4 28bd f6a0 71bd 76c0 323d
00000100: 0bd9 0d3e 7f84 d4bd 99ea 3b3e 3a86 593d
00000110: b527 843a 9467 0cbe 91cb c63d 321b ecbd
00000120: a63b 8bbc a38c df3c 765e 02bd 4bc9 f8bd
00000130: 0687 86ba 652b a93d 5340 2a3e 8d8e a9bb

lstm.bias_hh_l0 f4 [80]
0.07106878 0.1868352 -0.07595813 0.14877155 0.134329 -0.028663099 -0.01447216 -0.08461302
-0.052182864 -0.04096002 -0.045859102 -0.024473013 0.08750946 -0.12094342 -0.21595514 -0.069048814
-0.13645397 -0.077549204 0.07851703 -0.21526568 0.15353972 -0.18860316 0.061871313 -0.13659008
0.016529577 -0.2006714 0.055347253 0.009097668 -0.07612644 -0.018551862 0.1214964 0.20003374
-0.008289059 0.116354056 0.19829935 -0.012638813 0.173929 0.22101758 0.18584907 0.13307825
-0.08732428 -0.019713476 -0.07519977 0.16639714 -0.08924852 0.118562266 -0.18209445 0.20645314
0.17400812 -0.084404916 -0.020928564 -0.13861284 -0.19267377 0.1918167 0.014579663 -0.10337616
0.07001688 -0.10774126 -0.12534185 0.12134921 -0.014223299 -0.09042056 -0.036734562 0.12945709
-0.10028283 0.057667874 0.056852598 0.010681942 -0.035833724 0.12069211 -0.16078669 -0.1677115
0.10304682 0.040090874 -0.040695406 -0.1027327 0.048558395 -0.0012659471 -0.007150341 0.14882445
00000000: 828c 913d ba51 3f3e f08f 9bbd 9257 183e
00000010: 8b8d 093e e0ce eabc a31c 6dbc 9749 adbd
00000020: b3bd 55bd b2c5 27bd c1d6 3bbd a17b c8bc
00000030: 2938 b33d 2fb1 f7bd 5823 5dbe 7769 8dbd
00000040: 97ba 0bbe 1ed2 9ebd 89cd a03d 9b6e 5cbe
00000050: 8439 1d3e 3021 41be c66c 7d3d 45de 0bbe
00000060: 0969 873c ce7c 4dbe cdb3 623d 630e 153c
00000070: 2ee8 9bbd 13fa 97bc 1bd3 f83d a5d5 4c3e
00000080: d5ce 07bc 094b ee3d fc0e 4b3e 0613 4fbc
00000090: 721a 323e 6f52 623e 384f 3e3e aa45 083e
000000a0: 12d7 b2bd 287e a1bc 5602 9abd 0364 2a3e
000000b0: eec7 b6bd c6d0 f23d f876 3abe 7468 533e
000000c0: 2f2f 323e 7cdc acbd 6172 abbc 86f0 0dbe
000000d0: 464c 45be 996b 443e 8adf 6e3c e1b6 d3bd
000000e0: 0365 8f3d 73a7 dcbd 9d59 00be ef85 f83d
000000f0: d708 69bc 6a2e b9bd fb76 16bd 6690 043e
00000100: 1661 cdbd 2635 6c3d 45de 683d 5003 2f3c
00000110: 62c6 12bd 6d2d f73d 44a5 24be 90bc 2bbe
00000120: 360a d33d 5436 243d 3ab0 26bd 8665 d2bd
00000130: 2be5 463d 23ee a5ba 684d eabb 7065 183e

net.0.weight f4 [128, 20]
-0.037351094 -0.13201028 0.18268172 0.16714026 0.16677846 -0.14314117 0.17870489 0.20393166
-0.1775692 -0.144341 0.10464258 -0.15203524 0.009515364 -0.15222616 0.1733145 0.17653155
0.12344598 -0.0044320207 -0.18612532 0.02697143 -0.1195456 -0.14137018 -0.06428127 0.195861
0.006658916 0.21784036 -0.18192425 0.20104846 0.080538765 0.06284425 -0.13470155 0.17377284
0.1698854 -0.19220725 0.17351705 0.040019747 0.0456194 0.10348907 0.006035483 0.05225216
-0.13912894 -0.16291502 -0.21905445 -0.13569638 -0.18675038 -0.14866765 -0.11453963 0.13240995
0.17006999 0.028629744 0.12515543 -0.08073106 0.15403703 -0.12061819 -0.010325871 0.20610885
0.18627799 0.19356357 0.14558335 0.20798837 0.040209215 -0.114484705 -0.17675519 -0.079374984
-0.13620381 0.13411988 0.0009892076 -0.024057303 -0.13003092 -0.15943412 0.14459167 0.22154059
0.0036679269 -0.060543053 0.0068900418 0.15518616 0.18197493 0.1048177 -0.21330006 0.09598351
0.024990492 -0.197847 -0.11976348 0.020477867 0.07519964 0.19761345 0.052959345 0.08228294
-0.10304835 0.02039964 0.19042134 -0.07170448 0.18021457 -0.11928465 0.047375463 -0.08339899
0.058093812 -0.106763184 0.094746366 0.16837569 0.13503496 0.018316964 -0.09592455 -0.14779949
0.11329894 0.06429822 0.12383984 -0.04943913 -0.11337024 -0.0065646837 0.08062133 0.15280895
-0.1998162 0.14186263 0.047309168 0.1967868 -0.15407753 0.050877947 0.17556536 -0.07737393
-0.12084969 -0.113742694 -0.18653472 0.16474356 -0.16524261 -0.051026877 -0.007136964 -0.0015939437
0.19307537 -0.12628756 -0.1822419 -0.19081524 -0.077252306 0.19261894 0.08474874 -0.13745064
-0.057723906 0.020431321 -0.19457711 0.06679104 0.0030832747 -0.17427157 -0.05944475 -0.22155784
-0.058111314 -0.07951357 0.13580954 -0.21387413 0.014573641 -0.17919019 -0.15088539 0.046074755
0.044863068 -0.09293294 0.021298263 0.21216764 0.04620087 -0.18015291 0.064919725 -0.1557179
0.10605565 -0.05466854 -0.027248941 0.008236185 -0.105338685 0.10200037 -0.07537853 -0.05167488
0.16672635 -0.11168076 0.173464 -0.0061943564 0.19021252 -0.10882469 0.16012569 -0.20883459
-0.047153816 -0.17682473 0.18848376 0.07796492 0.06673031 -0.19448195 -0.08045687 0.09259964
-0.14105779 -0.025096694 0.06697645 0.17761081 -0.07136275 0.058305874 -0.17800358 -0.017445453
-0.12885095 -0.2009579 -0.07427672 -0.20893778 0.13160066 0.0009941421 0.0009885168 0.02154072
0.05634195 -0.082789525 0.1279254 -0.19652168 -0.2164747 -0.08351381 0.09805129 -0.10798183
0.1067854 0.0044152867 -0.10766756 -0.06413104 -0.036119178 0.1935226 0.20887643 0.11857949
0.019541318 -0.13043499 -0.06807063 0.00035403835 0.18301612 -0.046875503 0.01224596 0.16554347
-0.019939227 -0.041892197 -0.11313404 -0.057752516 -0.057253398 -0.103332035 0.09999031 -0.21692003
-0.21050802 0.09368171 -0.07053552 -0.19964123 -0.03822314 0.1873145 -0.048721988 0.042233672
-0.22082321 0.14589556 -0.19954841 -0.105272174 0.20074488 0.121292606 0.19409652 -0.13337706
0.12375196 0.20277876 -0.013082076 -0.030433465 0.10937989 0.21803479 -0.0028355056 0.09645447
00000000: 76fd 18bd b42d 07be eb10 3b3e d126 2b3e
00000010: f9c7 2a3e 9993 12be 6afe 363e 76d3 503e
00000020: b3d4 35be 21ce 13be d94e d63d 20af 1bbe
00000030: 54e6 1b3c 2de1 1bbe 5b79 313e b0c4 343e
00000040: 3fd1 fc3d 7c3a 91bb a397 3ebe 30f3 dc3c
00000050: 53d4 f4bd 58c3 10be e6a5 83bd c98f 483e
00000060: 0933 da3b 8b11 5f3e 5a4a 3abe a6df 4d3e
00000070: 82f1 a43d 7cb4 803d 34ef 09be 82f1 313e
00000080: 70f6 2d3e fad1 44be 74ae 313e bfeb 233d
00000090: 68db 3a3d 14f2 d33d 4dc5 c53b 5c06 563d
000000a0: d177 0ebe 32d3 26be cf4f 60be fef3 0abe
000000b0: 7e3b 3fbe 553c 18be c193 eabd 7996 073e
000000c0: d426 2e3e ed88 ea3c bf28 003e 5356 a5bd
000000d0: e2bb 1d3e ab06 f7bd d82d 29bc 330e 533e
000000e0: a8bf 3e3e 8735 463e cd13 153e e7fa 543e
000000f0: 6bb2 243d f576 eabd 50ff 34be 5a8f a2bd
00000100: 0379 0bbe b956 093e 4da8 813a d213 c5bc
00000110: d326 05be b342 23be d70f 143e 89db 623e
00000120: 9a61 703b fefb 77bd dcc5 e13b 1fe9 1e3e
00000130: a357 3a3e aaaa d63d 556b 5abe 0193 c43d
00000140: dcb8 cc3c 6798 4abe 8e46 f5bd 33c1 a73c
00000150: 4502 9a3d 2e5b 4a3e e6eb 583d f583 a83d
00000160: 030b d3bd 251d a73c d0fd 423e ccd9 92bd
00000170: 2b8a 383e 834b f4bd c60c 423d 17cd aabd
00000180: c7f3 6d3d a8a6 dabd 620a c23d ad6a 2c3e
00000190: 9b46 0a3e 750d 963c 1774 c4bd c058 17be
000001a0: 4609 e83d c9ae 833d be9f fd3d af80 4abd
000001b0: a82e e8bd 8f1c d7bb cc1c a53d f379 1c3e
000001c0: 9e9c 4cbe 7044 113e 42c7 413d 7b82 493e
000001d0: 80c6 1dbe 6565 503d 68c7 333e 3976 9ebd
000001e0: 0b80 f7bd eef1 e8bd f502 3fbe 89b2 283e
000001f0: 5c35 29be 8f01 51bd 31dd e9bb e0eb d0ba
00000200: 8db5 453e 8751 01be 9f9d 3abe 1265 43be
00000210: 7536 9ebd e63d 453e bf90 ad3d dcbf 0cbe
00000220: e76f 6cbd 965f a73c 393f 47be bec9 883d
00000230: c410 4a3b 3f74 32be 577c 73bd 0fe0 62be
00000240: 2106 6ebd 03d8 a2bd a811 0b3e d201 5bbe
00000250: 48c6 6e3c a27d 37be b381 1abe e2b8 3c3d
00000260: 56c2 373d a053 bebd b279 ae3c 7942 593e
00000270: 203d 3d3d 017a 38be a2f4 843d 8374 1fbe
00000280: b433 d93d 1eec 5fbd 2c39 dfbc 10f1 063c
00000290: cfbb d7bd 92e5 d03d 0f60 9abd 0aa9 53bd
000002a0: 50ba 2a3e e2b8 e4bd 8ca0 313e 07fa cabb
000002b0: 12c7 423e 7bdf debd fdf7 233e bcd8 55be
000002c0: 5c24 41bd 8b11 35be e301 413e 12ac 9f3d
000002d0: e7a9 883d 4726 47be 92c6 a4bd e1a4 bd3d
000002e0: 7471 10be 9597 cdbc f32a 893d 9cdf 353e
000002f0: a226 92bd 24d2 6e3d 9246 36be c4e9 8ebc
00000300: 81f1 03be e8c7 4dbe 651e 98bd c9f3 55be
00000310: 53c2 063e e04d 823a 1f91 813a 2a76 b03c
00000320: d1c6 663d 8e8d a9bd e0fe 023e fb3c 49be
00000330: 8bab 5dbe 4a09 abbd 1dcf c83d 9425 ddbd
00000340: 4eb2 da3d 1cae 903b cf80 dcbd 2257 83bd
00000350: b4f1 13bd ca2a 463e b4e3 553e ced9 f23d
00000360: 1d15 a03c c090 05be 9d68 8bbd 399e b939
00000370: 9468 3b3e 8700 40bd 47a3 483c 3a84 293e
00000380: 9757 a3bc 2797 2bbd d2b2 e7bd e78d 6cbd
00000390: 8a82 6abd bf9f d3bd b8c7 cc3d 4920 5ebe
000003a0: 6a8f 57be 32dc bf3d ed74 90bd c06e 4cbe
000003b0: de8f 1cbd 5fcf 3f3e b590 47bd 37fd 2c3d
000003c0: 7b1f 62be a565 153e 6b56 4cbe f098 d7bd
000003d0: 1190 4d3e 4268 f83d 3dc1 463e ff93 08be
000003e0: ab71 fd3d 3ca5 4f3e 3456 56bc 9a4f f9bc
000003f0: 9002 e03d 8344 5f3e e4d3 39bb ec89 c53d

net.0.bias f4 [128]
0.14822812 0.13808301 -0.22200158 0.09525396 -0.023502376 -0.14661749 -0.12716669 0.06390405
-0.21766113 0.11941923 -0.0016490615 -0.044727713 0.0031762873 -0.12678316 -0.14934288 0.15840758
-0.084826164 -0.13029987 -0.10273616 0.022469526 -0.100971185 -0.0050779968 0.166185 -0.116337314
-0.16382274 -0.17528011 0.0024292585 -0.008268274 0.15481922 0.16901906 -0.17723723 0.030168267
0.004217341 0.12383401 -0.20578282 -0.01731422 0.008813535 0.19984907 0.100769974 -0.035805054
0.18848309 0.05061471 -0.0019464409 -0.021198 0.18336159 -0.053396486 0.06706251 0.07121202
-0.16984822 0.16989407 -0.05526417 0.05252808 -0.10416053 -0.1877427 0.11848055 -0.20143059
-0.17435771 -0.096899964 -0.13350767 -0.13718402 0.18935907 -0.15385526 0.04803855 0.036722362
0.149363 -0.18917066 0.067594804 -0.108090565 -0.1320871 -0.003905313 -0.10943151 -0.13325407
0.16435193 0.08721288 0.108971044 -0.047575943 0.13185234 0.11296885 0.08070379 0.057097826
-0.08764867 -0.0012043093 0.12382901 -0.2001928 -0.024225537 0.10125588 0.12156332 -0.005377655
0.120816566 0.04022427 0.054954264 0.06569626 0.21953434 -0.19572753 -0.059466872 0.015123898
0.18008737 -0.102521636 -0.032285333 -0.20049548 -0.06675783 -0.13787355 0.15105672 -0.06863501
-0.03323722 -0.15050472 0.21417002 0.17003083 0.027578413 0.19408552 -0.05249469 -0.026830537
-0.060554214 -0.15950254 0.0013328387 -0.007203206 -0.061071042 -0.17706539 0.21075758 -0.19616665
-0.012265362 -0.042080484 -0.18276832 0.09413736 -0.06651009 -0.18193907 0.03733587 -0.07445477
00000000: 1dc9 173e a265 0d3e 6254 63be 8214 c33d
00000010: 0e88 c0bc e522 16be fc37 02be 20e0 823d
00000020: 8fe2 5ebe 1292 f43d 5225 d8ba 6834 37bd
00000030: 4229 503b 72d3 01be 57ed 18be 9935 223e
00000040: 57b9 adbd 546d 05be 5667 d2bd 0312 b83c
00000050: fbc9 cebd 5365 a6bb 672c 2a3e 4242 eebd
00000060: 26c1 27be a17c 33be 3234 1f3b a877 07bc
00000070: ee88 1e3e 5513 2d3e ad7d 35be 7123 f73c
00000080: 9f31 8a3b af9c fd3d bbb8 52be 8dd6 8dbc
00000090: a566 103c 3ca5 4c3e 7d60 ce3d 52a8 12bd
000000a0: b601 413e 5f51 4f3d b81f ffba 6ea7 adbc
000000b0: 24c3 3b3e 46b6 5abd 1258 893d 9cd7 913d
000000c0: b1ec 2dbe b6f8 2d3e af5c 62bd af27 573d
000000d0: 1e52 d5bd 9f3f 40be eea5 f23d d243 4ebe
000000e0: d48a 32be 7d73 c6bd 3cb6 08be f879 0cbe
000000f0: 58e7 413e 3c8c 1dbe 12c4 443d 306a 163d
00000100: 9df2 183e f4b5 41be 256f 8a3d 965e ddbd
00000110: d741 07be 48f0 7fbb a11d e0bd c173 08be
00000120: df4b 283e ab9c b23d 362c df3d fede 42bd
00000130: 4d04 073e 365c e73d 0748 a53d 69df 693d
00000140: 2581 b3bd ead9 9dba 109a fd3d 57ff 4cbe
00000150: a274 c6bc 3e5f cf3d 31f6 f83d 0a37 b0bb
00000160: ad6e f73d 34c2 243d b917 613d c38b 863d
00000170: 9ccd 603e cc6c 48be 8993 73bd 3aca 773c
00000180: d368 383e ddf6 d1bd a03d 04bd b04e 4dbe
00000190: 54b8 88bd b92e 0dbe 9dae 1a3e 8390 8cbd
000001a0: c023 08bd e91d 1abe 634f 5b3e 901c 2e3e
000001b0: 20ec e13c 5bbe 463e ac04 57bd b7cb dbbc
000001c0: b207 78bd a254 23be a5b2 ae3a df08 ecbb
000001d0: a125 7abd a150 35be d6d0 573e e9df 48be
000001e0: a8f4 48bc 965c 2cbd 9e27 3bbe 17cb c03d
000001f0: 7136 88bd 3c4e 3abe 7fed 183d be7b 98bd

net.2.weight f4 [64, 128]
-0.077834785 -0.026854781 0.01795109 -0.023698498 -0.017164504 0.02172296 0.05504157 0.015971791
0.0067221695 -0.05676683 -0.07299485 -0.044156473 -0.005965802 -0.03377871 0.014320372 -0.020377347
-0.013173334 0.053644475 -0.0788704 0.04823551 -0.021143103 0.036093105 -0.019364137 -0.05944106
-0.0296849 -0.00057010987 -0.014234065 -0.045836173 0.014929161 0.010661446 -0.0195069 0.050677013
0.04450767 0.07955884 -0.071455166 -0.08765276 -0.0071107107 0.03526058 -0.053763058 -0.0728807
-0.030741384 0.038650777 0.07949962 -0.061663967 0.00014328875 -0.038604785 0.05242366 0.0022220134
-0.02759373 0.024112739 0.082724534 -0.0024026444 0.041111667 0.048477788 0.061103024 -0.028655242
-0.039178774 0.012045053 0.040307928 -0.040793978 0.029700883 0.06143925 -0.06407959 0.04189464
-0.04709039 0.08003401 -0.04190302 0.03149813 0.05325647 0.043387473 -0.039769944 0.03281009
0.015260804 -0.06341854 0.06746028 -0.014087626 -0.050500594 -0.06631746 -0.0376305 -0.0063485163
-0.061720517 0.036821067 0.08705408 0.02229406 0.045712598 0.0044620023 -0.045673758 0.007757043
0.08617629 0.0418363 -0.0301323 -0.009711751 0.0029552106 -0.0817486 0.07469631 0.063293375
0.076640606 -0.021709483 0.020922938 0.038159028 -0.03388008 0.027705304 -0.046296626 -0.08449684
0.03850146 -0.037480403 0.059151553 -0.0703441 -0.047316276 3.37807e-05 -0.021586645 -0.085135356
-0.061984863 0.01621797 -0.013873352 -0.05685795 -0.035685737 -0.07563551 -0.025171552 -0.0054748016
0.08568796 0.07610633 0.07183923 0.07180697 -0.024931535 -0.073710665 -0.06918442 -0.082705416
-0.067807406 -0.08153264 0.0008667495 -0.025853947 0.031780586 0.064438604 -0.07799445 0.047234386
-0.046464358 -0.03087597 -0.07736098 -0.04804658 0.080351435 0.058862146 -0.07004298 0.023923362
0.0032185153 -0.06124966 0.02791848 -0.0884217 0.067239225 -0.0601709 0.027041508 0.082095996
-0.012680981 0.059656467 0.04193749 -0.08196847 0.07918648 0.07113274 0.07563456 0.044182584
-0.00018834746 0.06927298 0.060505837 -0.05818623 0.06738412 0.038790107 -0.048663013 -0.03865894
0.06410066 -0.055815116 0.07635487 -0.05174512 0.07299088 0.054814406 -0.03251113 -0.03710594
-0.022468455 0.073132016 -0.045359246 0.021821842 -0.042474367 -0.057607524 0.0020115373 0.07466353
0.059146326 -0.049434043 0.064313605 0.02949335 -0.017241374 -0.016392522 -0.07114801 0.029907245
0.02843593 0.027849732 -0.007545618 0.0071273884 -0.072155364 -0.050692882 -0.077539735 -0.059558466
-0.004940978 -0.08792045 0.006347498 0.008697228 -0.02962091 -0.028831879 -0.011142097 -0.014403224
0.008902879 -0.016451878 -0.07430334 0.058128648 0.07838667 -0.0057833237 -0.0020048327 -0.00058397383
-0.010247598 0.0539777 -0.0398573 0.02775931 0.06310247 0.057069078 -0.03405201 -0.026848247
0.07063945 0.081842765 0.056389127 -0.06414495 0.08286977 0.0385371 0.086527 -0.07740483
-0.039545055 0.068300165 0.06313777 -0.020782743 -0.06498109 -0.007735591 0.076247 0.06826698
0.0598052 0.07670708 0.052229796 0.083728075 0.026560169 -0.047069523 -0.074141584 -0.073781
0.06470194 -0.072493285 0.06608611 0.045424942 -0.07261643 -0.086132795 -0.0069281333 0.058536798
00000000: d867 9fbd 8ffe dbbc 2a0e 933c 5a23 c2bc
00000010: 939c 8cbc 59f4 b13c 4573 613d 46d7 823c
00000020: a545 dc3b 5684 68bd 537e 95bd 6bdd 34bd
00000030: c67c c3bb 8b5b 0abd fe9f 6a3c 65ee a6bc
00000040: f8d4 57bc 4fba 5b3d ce86 a1bd 9992 453d
00000050: 4d34 adbc 5dd6 133d 8aa1 9ebc 7878 73bd
00000060: bf2d f3bc 6d73 15ba ff35 69bc b6be 3bbd
00000070: 7199 743c 58ad 2e3c efcc 9fbc b392 4f3d
00000080: ad4d 363d bfef a23d 1657 92bd 4a83 b3bd
00000090: f700 e9bb 666d 103d a736 5cbd 7a42 95bd
000000a0: 5bd5 fbbc 4750 1e3d b2d0 a23d 5b93 7cbd
000000b0: c83f 1639 0d20 1ebd 31ba 563d 339f 113b
000000c0: 3f0c e2bc 1488 c53c 7b6b a93d af75 1dbb
000000d0: b564 283d a590 463d 2a47 7a3d 66be eabc
000000e0: ec79 20bd 9d58 453c ed19 253d 9617 27bd
000000f0: 444f f33c b9a7 7b3d 293c 83bd b799 2b3d
00000100: dae1 40bd dfe8 a33d 80a2 2bbd 2f04 013d
00000110: 7523 5a3d 10b7 313d cfe5 22bd df63 063d
00000120: 7408 7a3c 94e1 81bd 9e28 8a3d c9cf 66bc
00000130: b6d9 4ebd 73d1 87bd 7022 1abd 3707 d0bb
00000140: a7ce 7cbd b0d1 163d 6949 b23d 08a2 b63c
00000150: 223d 3b3d fd35 923b 6814 3bbd cb2e fe3b
00000160: 327d b03d 8a5c 2b3d 03d8 f6bc 091e 1fbc
00000170: 35ac 413b cf6b a7bd 61fa 983d f59f 813d
00000180: c0f5 9c3d 16d8 b1bc 9566 ab3c a44c 1c3d
00000190: d7c5 0abd 3cf6 e23c 88a1 3dbd ae0c adbd
000001a0: b5b3 1d3d 0d85 19bd e648 723d 9110 90bd
000001b0: b6ce 41bd c0af 0d38 7ad6 b0bc 725b aebd
000001c0: d7e3 7dbd 8cdb 843c 0e4d 63bc e2e3 68bd
000001d0: 352b 12bd cae6 9abd 9234 cebc f765 b3bb
000001e0: 2b7d af3d a3dd 9b3d 7220 933d 880f 933d
000001f0: 383d ccbc 9ef5 96bd 90b0 8dbd 7561 a9bd
00000200: 9cde 8abd 96fa a6bd 9336 633a a8cb d3bc
00000210: 5c2c 023d 63f8 833d 8ebb 9fbd d878 413d
00000220: 6951 3ebd 9aef fcbc 6f6f 9ebd 7ecc 44bd
00000230: 4b8f a43d 6f19 713d b272 8fbd edfa c33c
00000240: baed 523b ece0 7abd 4cb5 e43c 7016 b5bd
00000250: b8b4 893d c375 76bd 2786 dd3c f221 a83d
00000260: e4c3 4fbc 575a 743d a5c6 2b3d 16df a7bd
00000270: 852c a23d 0bae 913d 4be6 9a3d ccf8 343d
00000280: 237f 45b9 fede 8d3d f8d4 773d af54 6ebd
00000290: af00 8a3d 60e2 1e3d de52 47bd d658 1ebd
000002a0: 3547 833d 649e 64bd f15f 9c3d b1f2 53bd
000002b0: 3e7c 953d 1285 603d 642a 05bd 66fc 17bd
000002c0: c40f b8bc 3dc6 953d 9eca 39bd b8c3 b23c
000002d0: 9af9 2dbd def5 6bbd ffd3 033b 31e9 983d
000002e0: 6b43 723d 5a7b 4abd dab6 833d 0a9c f13c
000002f0: c83d 8dbc 9c49 86bc 0cb6 91bd 0a00 f53c
00000300: 78f2 e83c 1f25 e43c 3b41 f7bb de8c e93b
00000310: 31c6 93bd 57a3 4fbd 27cd 9ebd 94f3 73bd
00000320: ede7 a1bb a30f b4bd acfe cf3b d17e 0e3c
00000330: 8da7 f2bc d530 ecbc 588d 36bc 80fb 6bbc
00000340: 62dd 113c 17c6 86bc 592c 98bd 4e18 6e3d
00000350: 3189 a03d 0982 bdbb 8363 03bb d215 19ba
00000360: 8be5 27bc b917 5d3d 6941 23bd 7e67 e33c
00000370: de3b 813d 44c1 693d 1f7a 0bbd dbf0 dbbc
00000380: 6aab 903d 2e9d a73d 49f8 663d 6d5e 83bd
00000390: a0b7 a93d 14d9 1d3d 1135 b13d 6c86 9ebd
000003a0: fff9 21bd f5e0 8b3d 604e 813d 9240 aabc
000003b0: ce14 85bd d77a fdbb 6327 9c3d 8fcf 8b3d
000003c0: 4cf6 743d 9a18 9d3d e9ee 553d a079 ab3d
000003d0: b694 d93c f9cb 40bd 8bd7 97bd 7e1a 97bd
000003e0: 7382 843d 5c77 94bd 2858 873d 810f 3a3d
000003f0: ecb7 94bd 6466 b0bd 6505 e3bb 48c4 6f3d

net.2.bias f4 [64]
-0.07428151 -0.027531225 0.023642192 -0.0025186783 -0.021242006 -0.04817441 -0.008652504 0.05724245
-0.04109453 -0.033598676 0.07862123 -0.06298227 -0.06529188 -0.04980249 -0.012508564 0.07613721
0.019313151 -0.04677765 -0.044977367 0.027977254 -0.008135384 -0.034724545 -0.024414243 0.029968912
-0.066127434 0.022478972 0.027004762 -0.048380915 -0.06587491 -0.07734939 -0.039934754 -0.04061649
0.055221114 -0.054037362 -0.038249116 -0.059679005 -0.07065198 0.036370765 -0.010281867 0.05242318
0.05838075 0.046933364 0.077192225 -0.06809224 -0.045432504 0.04378777 -0.038778048 -0.007964199
0.0679967 0.047653116 -0.036181737 0.018806474 -0.048810408 0.015036179 0.069141634 -0.07198194
-0.014346432 0.08057037 -0.06475055 0.03831764 0.017997952 -0.043147244 -0.071356714 0.06961955
00000000: e820 98bd 2a89 e1bc 45ad c13c 6910 25bb
00000010: b703 aebc 8852 45bd 3bc3 0dbc 0f77 6a3d
00000020: bd52 28bd c49e 09bd 2b04 a13d d9fc 80bd
00000030: c0b7 85bd b2fd 4bbd b8f0 4cbc d3ed 9b3d
00000040: 9d36 9e3c ec99 3fbd 303a 38bd 8e30 e53c
00000050: 464a 05bc 533b 0ebd 6100 c8bc 5d81 f53c
00000060: d26d 87bd d225 b83c 1739 dd3c 112b 46bd
00000070: 6de9 86bd 5b69 9ebd a092 23bd 7a5d 26bd
00000080: 892f 623d 4856 5dbd 1bab 1cbd f971 74bd
00000090: fcb1 90bd 83f9 143d 4775 28bc b0b9 563d
000000a0: a720 6f3d 333d 403d f516 9e3d f273 8bbd
000000b0: 6f17 3abd ce5a 333d bbd5 1ebd 467c 02bc
000000c0: db41 8b3d ea2f 433d 4d33 14bd 0910 9a3c
000000d0: 6ced 47bd 4e5a 763c 219a 8d3d 446b 93bd
000000e0: 4c0d 6bbc 1402 a53d f09b 84bd f5f2 1c3d
000000f0: 7170 933c 2abb 30bd 7823 92bd b294 8e3d

net.4.weight f4 [3, 64]
-0.12426761 0.060070995 -0.0046494845 0.03227023 -0.12101991 0.05602265 0.074430384 0.01696204
-0.07587811 0.08978454 0.06318405 -0.015606668 0.048298348 0.005018171 0.03002519 -0.08821308
-0.0875535 -0.10070769 0.052768946 -0.041134503 0.073740035 -0.014828299 -0.0031180836 0.08342328
0.0037643535 -0.10470907 -0.043006875 0.08610727 -0.03611872 0.01439195 0.101899035 -0.0065177544
-0.09730366 -0.027114276 -0.032037713 -0.062350057 -0.06828861 -0.06274058 0.021932697 0.04941428
0.033709228 0.0084382715 0.0446036 -0.08081081 -0.05694143 -0.06485647 -0.101299874 0.10023645
0.111371055 0.10766089 -0.06395089 0.0075825774 -0.08124789 0.049896613 -0.023998844 0.057842605
0.103297405 0.022935359 -0.05348672 0.03673167 -0.0139279235 0.07461947 -0.024378587 -0.08396233
-0.107917786 0.024684787 -0.016468927 0.07071829 0.023049116 -0.044585183 -0.019913986 -0.08480373
0.0036580265 -0.027842745 -0.12003307 0.037042946 -0.01126647 -0.09914431 -0.048440278 -0.018140838
0.059841707 -0.011206135 -0.06578517 0.050012663 0.12411949 0.10786179 0.01791294 -0.07881026
0.0031528026 -0.096953824 -0.09746261 -0.1130739 -0.014792621 -0.02958022 0.099566475 0.018155903
-0.042731687 -0.06383577 -0.0151375085 -0.11364317 -0.02989319 -0.115851894 -0.086408004 0.07183759
0.08226 -0.008941948 -0.07164168 0.047861665 -0.04985276 -0.026684478 0.06750856 0.047891006
-0.020868108 0.046489283 -0.08914395 -0.07374793 -0.076491416 -0.057982042 -0.11651021 0.121874556
-0.11024514 0.07984127 0.03588274 -0.0926138 -0.09887409 -0.04988578 -0.10249603 -0.06537674
-0.016121358 0.02095811 0.051270306 0.0063918172 -0.08624919 0.008476871 0.019989 -0.09134029
0.11023131 -0.10786159 -0.019180432 -0.111801565 0.04428095 0.008299036 -0.042671245 -0.04578139
0.010618297 0.09342057 -0.0071190894 0.08569984 -0.0023408732 0.08255159 0.017360125 0.10599559
-0.09534011 0.08556327 0.045521095 0.017062426 0.033935145 -0.04545123 0.110507146 -0.05405771
0.01923409 -0.031843655 0.06232818 -0.009326566 -0.106941305 0.0025342128 -0.07939304 0.09583717
0.119742624 0.007723409 0.106553845 -0.056919273 0.04609309 -0.08949316 0.004628672 0.11795395
-0.047073144 -0.07578491 -0.009905048 -0.054287285 -0.054701358 0.041288428 0.060661707 0.10709206
0.042334974 -0.059556905 -0.10999757 0.0005577844 -0.101510406 -0.07189054 0.06650441 -0.0027682066
00000000: 0480 febd 010d 763d b45a 98bb ca2d 043d
00000010: 49d9 f7bd 0278 653d f56e 983d faf3 8a3c
00000020: fc65 9bbd f5e0 b73d a466 813d 1cb3 7fbc
00000030: 7dd4 453d 786f a43b 63f7 f53c 0fa9 b4bd
00000040: 404f b3bd d53f cebd 4024 583d a77c 28bd
00000050: 0405 973d 65f2 72bc c358 4cbb d3d9 aa3d
00000060: 5fb3 763b b571 d6bd fa27 30bd 0259 b03d
00000070: 39f1 13bd 37cc 6b3c 71b0 d03d e392 d5bb
00000080: 2447 c7bd c21e debc fa39 03bd c662 7fbd
00000090: e6da 8bbd 227e 80bd 33ac b33c a166 4a3d
000000a0: b012 0a3d ad40 0a3c 44b2 363d 2380 a5bd
000000b0: 6b3b 69bd 78d3 84bd 4f76 cfbd c548 cd3d
000000c0: 8216 e43d 507d dc3d aff8 82bd 4577 f83b
000000d0: 4b65 a6bd 6460 4c3d 3999 c4bc 5eec 6c3d
000000e0: 978d d33d efe2 bb3c e414 5bbd f373 163d
000000f0: f231 64bc 18d2 983d 9ab5 c7bc 71f4 abbd
00000100: 0004 ddbd c037 ca3c d8e9 86bc c0d4 903d
00000110: 80d1 bc3c f49e 36bd a822 a3bc 94ad adbd
00000120: 80bb 6f3b 7816 e4bc e6d3 f5bd 58ba 173d
00000130: 0097 38bc 2c0c cbbd 5069 46bd 189c 94bc
00000140: 941c 753d f099 37bc 60ba 86bd 14da 4c3d
00000150: 5c32 fe3d a4e6 dc3d 28be 923c 4667 a1bd
00000160: 409f 4e3b ba8f c6bd 7a9a c7bd 4a93 e7bd
00000170: c05c 72bc 3852 f2bc 82e9 cb3d b0bb 943c
00000180: 6c07 2fbd 54bc 82bd 5003 78bc c0bd e8bd
00000190: 90e2 f4bc c243 edbd aef6 b0bd 961f 933d
000001a0: ee77 a83d 4081 12bc e0b8 92bd 980a 443d
000001b0: 6832 4cbd 6899 dabc ee41 8a3d 5c29 443d
000001c0: 98f3 aabc 8c6b 3e3d 1a91 b6bd 2809 97bd
000001d0: 88a7 9cbd 947e 6dbd e89c eebd 5e99 f93d
000001e0: 34c8 e1bd d283 a33d c8f9 123d 4eac bdbd
000001f0: 807e cabd 0855 4cbd 70e9 d1bd 3ee4 85bd
00000200: f010 84bc 58b0 ab3c d000 523d 7372 d13b
00000210: 6aa3 b0bd 93e2 0a3c f9bf a33c 9e10 bbbd
00000220: f4c0 e13d 8ae6 dcbd 4820 9dbc 38f8 e4bd
00000230: f15f 353d aef8 073c 0bc8 2ebd 4485 3bbd
00000240: 5ef8 2d3c 4953 bf3d 4047 e9bb 6683 af3d
00000250: 5669 19bb cf10 a93d d236 8e3c 3714 d93d
00000260: ad41 c3bd cc3b af3d 5474 3a3d 80c6 8b3c
00000270: 94ff 0a3d 122b 3abd 9251 e23d 9e6b 5dbd
00000280: cf90 9d3c 7e6e 02bd d54b 7f3d 74ce 18bc
00000290: 0b04 dbbd 0915 263b d198 a2bd 4746 c43d
000002a0: 9f3b f53d a714 fd3b e738 da3d 2f24 69bd
000002b0: 1ccc 3c3d 3148 b7bd 1dac 973b d791 f13d
000002c0: c5cf 40bd 1e35 9bbd c848 22bc 585c 5ebd
000002d0: 880e 60bd 0e1e 293d 6978 783d 1553 db3d
000002e0: 7067 2d3d f1f1 73bd 6846 e1bd 4738 123a
000002f0: b0e4 cfbd 593b 93bd 7733 883d cd6a 35bb

net.4.bias f4 [3]
0.106104955 -0.110727265 -0.035195943
00000000: 8e4d d93d fac4 e2bd 9f29 10bd
