uniform/00_uniformtest/model_ep500.pth (torch, 61296 bytes, 10 tensors)

lstm.weight_ih_l0 f4 [80, 20]
000000 90 17 53 be e2 f7 8a bd c0 5f ef 3d 66 8e 00 3e
       -0.20614457 -0.06785561 0.11688185 0.1255432
000010 30 18 97 bd 3c 3e 5b 3e 1f 8f 91 bc cf a7 24 bd
       -0.0737766 0.2141046 -0.01776844 -0.040199097
000020 f4 65 4b be 31 b1 bd 3d 69 c5 70 3d 6e 76 38 3e
       -0.19863111 0.09262312 0.058782015 0.18013927
000030 70 90 13 bd 41 78 5a 3d e3 f9 43 be d0 fc 10 3e
       -0.03602642 0.05333734 -0.19138293 0.1415894
000040 9b 86 9e 3d 1a 06 0e be 58 07 95 bb 35 82 a8 3d
       0.07740518 -0.13869515 -0.0045479946 0.0822796
000050 37 7b 78 3c 1c 14 a8 3d 8e 9c 75 3c e2 f1 3c be
       0.015166095 0.082069606 0.014990939 -0.18451646
000060 2d c6 c9 3d 1e 0f ae bd 21 c8 35 be cd 1a 88 bc
       0.09852252 -0.08498977 -0.17752124 -0.016614342
000070 70 8e 18 3d f9 5f 6e 3d e5 2f 44 3e 3f 0a 50 be
       0.037245214 0.058196995 0.19158895 -0.20316409
000080 fb a9 32 3e 4e 04 57 be 75 84 64 3b 6e 78 08 3e
       0.17447655 -0.20997736 0.003486899 0.1332719
000090 1a 33 db bd 43 02 a7 bd 8b f0 42 3e 80 aa 11 3e
       -0.10703106 -0.08154728 0.19037072 0.14225197
0000a0 93 03 41 3e ec f7 e5 3d e4 99 e1 bc cc 12 4e 3d
       0.1884902 0.11228928 -0.027539201 0.050310895
0000b0 32 fd b1 3d bc 96 f9 3d 2a 28 90 3d 8d f5 c8 3c
       0.08690871 0.121869534 0.07038911 0.02453115
0000c0 be cf 50 be 13 53 48 3d 38 f5 46 3e 07 6b 8c 3b
       -0.20391747 0.04890735 0.19429481 0.0042852196
0000d0 fd fb 9f bc 85 68 5c be 60 f2 b6 3d f0 15 17 be
       -0.019529337 -0.21524246 0.08932948 -0.14754462
0000e0 27 df 34 be ad c3 28 3e 57 43 47 be 5f 37 bf 3d
       -0.17663251 0.16480894 -0.19459282 0.09336733
0000f0 43 f0 4d 3e 5c 42 a3 bd 0d 75 bc 3d 90 8f bc bd
       0.20111184 -0.079716414 0.09202013 -0.0920707
000100 e4 4a 07 be 14 76 4b 3e 49 d7 ca bd 2d 17 20 3e
       -0.13212162 0.19869262 -0.09904344 0.15633841
000110 de 7c be 3d 5c 30 8b 3c eb b9 92 3c 16 d4 03 be
       0.0930116 0.016990833 0.017910918 -0.12873873
000120 ad db 00 3e dd 3b ba 3d a9 e8 88 3d 74 01 25 be
       0.125838 0.09093449 0.066850014 -0.16113836
000130 9b b9 51 be 46 ba db bd ff 70 60 bd d7 f8 06 3c
       -0.20480959 -0.10728888 -0.05479526 0.008238039
000140 c6 7c b1 bd a1 9e 0d be 6e c5 e4 3d fa 6a ea 3c
       -0.08666377 -0.13830043 0.11170469 0.028615464
000150 dc e1 17 3e 00 ba b0 bd c9 2b 4e 3d 65 f5 37 be
       0.14832252 -0.08629227 0.050334726 -0.17964704
000160 37 48 2f be a9 cb 5c bd 43 f4 55 3c 11 88 00 3e
       -0.17117392 -0.053905163 0.013058725 0.12551905
000170 8d 2f f9 3c ac e1 db 3d 2c 5f 0a be fb b6 ce bd
       0.030418182 0.10736403 -0.13512868 -0.100934945
000180 3f 8f 27 3d e3 70 24 3d 9d 6a d2 3d 3b 89 b2 3d
       0.040908094 0.04014672 0.10274241 0.08717581
000190 ee 2e 57 bd b5 db ed 3c 72 d5 51 be fb 53 fe bd
       -0.05253499 0.029035429 -0.20491579 -0.12418362
0001a0 c0 93 63 3e 06 71 aa bd fc a5 3f be 55 fa 0b be
       0.22224331 -0.08322339 -0.18715662 -0.13669713
0001b0 57 76 3a 3e 79 a7 08 3e 12 9b 3f 3e b6 ef 77 bd
       0.18209206 0.13345136 0.18711498 -0.06053134
0001c0 8d 96 52 be 2d 3f 8e 3d 87 8d fc bd 2d a2 3b 3d
       -0.20565243 0.069456436 -0.12331682 0.04580896
0001d0 0c 2a 69 3d 8a 24 a4 3d ca 71 48 bd 74 70 0e bd
       0.056924865 0.08014782 -0.048936643 -0.034775212
0001e0 92 55 2f 3d bf 11 d5 3d 63 0b 40 3e ce 2c 27 be
       0.042806216 0.104037754 0.18754344 -0.16325685
0001f0 77 2d 31 be 53 cd 89 3d f9 b7 3c be e3 3d 17 3e
       -0.173025 0.067286156 -0.18429555 0.14769702
000200 e2 32 fc 3c 04 3f 05 be 46 bc 27 be 2b 42 e3 3d
       0.030785982 -0.1301232 -0.16380414 0.11096605
000210 f1 10 58 bd 88 b6 42 be b6 90 8e bc 76 08 2f be
       -0.05275053 -0.19014943 -0.017402988 -0.17093071
000220 e9 dc 53 3e c3 c0 a8 3d 61 37 2d bd c6 10 35 be
       0.2068974 0.082398914 -0.04228914 -0.1768218
000230 47 ec 69 3d d2 8a 41 be ce 90 55 be ee 1c 02 3e
       0.057110097 -0.18900612 -0.2085602 0.12706348
000240 c2 4d 4a 3e 0b 50 70 bc fa 76 13 3e c8 03 4f be
       0.19756225 -0.014667521 0.14400855 -0.20216286
000250 5b 61 35 be bf 71 fd bd d6 fc cb 3d 46 f8 20 3e
       -0.1771292 -0.12375211 0.09960334 0.15719709
000260 cc 17 90 bd 2d f8 46 3c 1a e8 36 3d 5f 89 23 be
       -0.07035789 0.012144131 0.044654943 -0.15970372
000270 de a6 28 3e 76 de ec 3d 05 0f 07 be c4 98 ee 3c
       0.16469905 0.115658686 -0.13189323 0.029125579
000280 50 32 cf bd e1 f3 bb bd ca 90 49 3d d0 a9 ec bd
       -0.10117018 -0.091773756 0.049210347 -0.11555827
000290 f2 e9 01 3e 04 97 c6 bc 34 06 55 be 5e 92 6f 3d
       0.126869 -0.024241932 -0.20803148 0.058489196
0002a0 62 9a 27 be 37 bc 5b 3e 43 e1 59 3d 83 61 24 3e
       -0.16367486 0.21458517 0.053193342 0.16052823
0002b0 74 49 65 bc fa 3b 72 bb 88 99 5d 3e 19 e0 21 bd
       -0.013994563 -0.0036962018 0.21640599 -0.039520357
0002c0 8f a8 15 be 7f 30 e6 3d 3e 5a 84 3c 36 d0 60 3e
       -0.14615081 0.11239719 0.016156312 0.21954426
0002d0 d6 dd e8 bd 0a d5 fa 3d fc 7c 57 3e 05 e5 49 3e
       -0.11370437 0.12247665 0.21043772 0.1971627
0002e0 bd a9 ab bd b1 19 68 3b 23 eb b0 bd a9 f3 b0 3c
       -0.083819844 0.0035415704 -0.08638599 0.021600561
0002f0 f0 13 3d 3e c5 bc ee 3d 0f 77 b8 bd a4 91 0c be
       0.18464637 0.11657099 -0.090070836 -0.13727432
000300 d2 fa 2a 3e 9c 2f f2 3d 60 0f fd bd 40 53 23 be
       0.16697243 0.11825487 -0.12356448 -0.15949726
000310 b3 e6 8d 3d da 91 aa bd 07 c9 d8 3d c3 79 e9 3d
       0.06928768 -0.083286 0.10585218 0.11400177
000320 ed fa 1e be 79 22 1e 3e 84 62 4f bc 07 53 be 3d
       -0.15525408 0.15442838 -0.012657765 0.0929318
000330 e5 db 68 3c 44 89 28 bd 31 67 18 be 44 cb 12 be
       0.014212583 -0.04114653 -0.14883114 -0.14335352
000340 f5 b9 18 3e 62 0f 41 3e e8 14 0d be 17 29 d7 3d
       0.14914687 0.18853524 -0.13777506 0.10505884
000350 5f fa 3b be db f1 10 3e 77 59 ad 3d 3f a5 19 be
       -0.18357228 0.1415476 0.0846433 -0.15004443
000360 74 06 2e be 5c 7c 46 be 4e 8b 1b 3e df b4 0e 3e
       -0.16994649 -0.19383377 0.1518986 0.13936184
000370 2a c6 ca 3d 65 59 0d 3e 18 c5 4e 3c 2a 28 98 bd
       0.09901078 0.13803633 0.012620233 -0.07429536
000380 96 db 49 bd 35 70 02 be 1e 1d 61 bd 5c c2 fd 3c
       -0.04928168 -0.12738116 -0.05495941 0.030976467
000390 f4 8a 48 3e 1b 69 db bd 5b bb 3b be 88 da 3e 3b
       0.19584256 -0.10713407 -0.18333189 0.0029121954
0003a0 43 92 d4 bd cd 5c d0 bd 71 95 19 3e e1 8b f3 3d
       -0.1037946 -0.1017395 0.14998414 0.11891914
0003b0 87 29 c3 bd fd ca 00 bd 62 ad 5c be b9 a5 48 bc
       -0.09529405 -0.031443585 -0.21550515 -0.012246543
0003c0 b7 3d 24 be 11 2a 12 be 69 85 a8 3d 1c 47 4b 3e
       -0.16039167 -0.1427386 0.08228571 0.19851345
0003d0 48 65 19 3e b0 b7 db 3d d4 da 83 bd 37 33 ea 3d
       0.14980042 0.10728395 -0.064382225 0.1143555
0003e0 25 de 23 bd 34 5c ac bd 65 45 52 3d 3c 89 3d 3e
       -0.040006775 -0.08416024 0.05133571 0.18509382
0003f0 ed 34 7c bd 07 da 00 bb a4 fb dc 3d 53 fc c6 bd
       -0.06157391 -0.0019661204 0.10790184 -0.09716096

lstm.weight_hh_l0 f4 [80, 20]
000000 0e 25 b2 b9 fb f9 12 3e 51 13 de bd 05 d5 ba 3d
       -0.00033978414 0.14353172 -0.10843528 0.091226615
000010 4c 65 c9 3d dc 5b 20 3c a4 08 8c 39 41 5a 15 be
       0.09833774 0.009787526 0.0002670932 -0.1458521
000020 e2 b1 d0 3d ea 75 a2 bd ac a4 a1 ba e4 af 3c be
       0.101901785 -0.079326466 -0.0012332401 -0.18426472
000030 fd 87 6a bc 44 21 e7 bd 5b 20 1a be 7a eb 0b 3e
       -0.014314649 -0.11285642 -0.15051405 0.13664046
000040 fb c5 59 be 49 72 07 be 74 6e bb bd 93 1a 2f 3e
       -0.2126693 -0.1322719 -0.09151927 0.17099981
000050 79 6d 93 3b 89 e9 37 be 6e 86 b0 bc 5c c8 29 3e
       0.004499134 -0.1796018 -0.021548476 0.16580337
000060 86 f9 cb 3d 55 14 6c bc df d3 77 bd 52 61 cc 3d
       0.09959702 -0.014409144 -0.06050479 0.099795
000070 d2 3a 9f 3d 47 75 08 bd d3 3a 5f 3e 31 f5 4b bd
       0.07774891 -0.03331497 0.21799783 -0.04979438
000080 6c 60 58 3e a4 36 ea 3d 6a d5 a6 bd 94 b9 58 be
       0.21130532 0.11436203 -0.08146174 -0.21164542
000090 c5 1e 26 bc e5 49 e9 bd cc 88 49 bc c6 4c cb bd
       -0.010139172 -0.113910474 -0.012300681 -0.09926753
0000a0 53 4a c9 bd a5 0c f2 bd 93 54 a5 bd 25 5a 57 be
       -0.09828629 -0.11818818 -0.08072772 -0.21030481
0000b0 24 9b 91 3d 84 7d 48 be 5b bd 0e be e1 ee eb 3d
       0.07109669 -0.1957913 -0.13939421 0.11520172
0000c0 83 90 da bc 4f ab 54 be e6 7e 67 bd 5f 03 25 3e
       -0.026680237 -0.20768474 -0.056517504 0.16114567
0000d0 09 e9 2e be d9 5f 09 3e 09 85 b9 3d a3 50 81 3d
       -0.17081083 0.13415469 0.090585776 0.06314208
0000e0 3e 68 56 be 2e 71 12 3e 28 ab 55 3e 19 cf 2e be
       -0.20938203 0.14300987 0.20866072 -0.17071189
0000f0 53 8d a4 bd ed ee 38 bb de d6 63 3e c4 b2 55 be
       -0.08034768 -0.0028218583 0.22249934 -0.20868975
000100 46 16 0c be 0c fa 36 3c 0e 09 01 3e d7 a9 48 3e
       -0.13680372 0.011168014 0.1260111 0.19596039
000110 42 3e 42 3e 6f 11 f1 3d 5a c8 25 be 15 9e 56 be
       0.18969062 0.11770903 -0.1618971 -0.20958741
000120 72 81 14 be 2f af 38 be 74 54 02 bd 82 a4 63 be
       -0.14502504 -0.18035577 -0.031818822 -0.22230724
000130 dd 85 21 3e 10 b1 b3 bd b9 bf a5 bd f7 1d 1e be
       0.15773721 -0.08774006 -0.08093209 -0.15441118
000140 3c c1 16 be bd e2 35 3e 74 da 5f bd d3 f6 0f be
       -0.1472215 0.17762275 -0.054651693 -0.14059
000150 e6 e4 79 bc c1 09 b6 bd 3c fc 1f 3e 06 aa 74 3d
       -0.015252328 -0.08888579 0.15623564 0.05973246
000160 d5 b7 2f 3e 6f 86 9c 3d f8 a7 af 3d 4a bc 49 3e
       0.1715997 0.07642829 0.08576959 0.19700733
000170 a3 43 16 3d b3 75 3a 3e 65 78 f3 3d fa be a9 bd
       0.036685597 0.18208961 0.11888198 -0.08288379
000180 74 d5 37 be 9d 89 42 3e 3f 26 5c be df 92 1a 3e
       -0.1795252 0.18997808 -0.21498965 0.1509509
000190 aa d8 9a bd 32 7b 83 bd 72 35 fd bd ac 98 0c be
       -0.07560857 -0.06419982 -0.123637095 -0.13730115
0001a0 c3 03 de 3d 39 9e c2 bc 7c bc 90 3c ca a4 51 bd
       0.10840561 -0.023757087 0.017668001 -0.051182546
0001b0 44 b4 23 3e ad e7 d9 bd b6 c0 27 3e c3 76 a8 bd
       0.15986735 -0.10639892 0.16382107 -0.08225777
0001c0 99 d7 be bd dd 56 14 bd ce 5c ac bd 91 78 a1 3c
       -0.09318466 -0.03621565 -0.084161386 0.01971081
0001d0 8a 33 0d be ed 2a 24 bd c9 db 07 3e 15 dd 24 bd
       -0.13789192 -0.04008 0.13267435 -0.040249903
0001e0 98 e8 12 be 9c f3 0c 3e 66 81 42 3e 3b 1a af 3d
       -0.1434654 0.13764805 0.18994674 0.08549925
0001f0 6f 1d b9 3c 34 c8 0d 3e 1e 80 37 3e 13 15 20 3e
       0.022597043 0.13845903 0.17919967 0.15633039
000200 de 6e 02 3e a2 c9 2e be 37 5a 7e 3d e3 03 47 bd
       0.12737605 -0.17069104 0.062097754 -0.04858769
000210 97 6b 0a be c4 04 c0 3c bd 11 5b 3e b2 0b 54 3e
       -0.13517605 0.023439772 0.21393485 0.20707586
000220 1c 91 0b 3e 35 1e 30 3e ac e7 02 3d 10 bf 10 be
       0.13629574 0.17199023 0.03195922 -0.14135385
000230 98 98 0c be 1e 31 bc 3d cb b0 94 3d 54 89 28 3e
       -0.13730085 0.09189056 0.07260283 0.16458637
000240 62 6e 8c bb 3f 06 3f 3e a3 b6 f8 bd cd 12 0b be
       -0.0042856196 0.18654726 -0.1214421 -0.1358139
000250 dc c1 a4 3d 68 fa 5b 3e 02 f7 ca bc 91 f1 5f 3e
       0.08044788 0.21482241 -0.024775986 0.21869494
000260 4b fb 4e 3e 12 b7 3a be 5d d0 18 be a8 ee 0d be
       0.20213048 -0.18233898 -0.14923234 -0.13860571
000270 3d 53 29 be d1 a0 2c be f2 38 53 be ee b6 c2 bd
       -0.16535659 -0.16858222 -0.20627192 -0.09507547
000280 6c a9 1c 3e 0e c2 bb bd ea 4b 4b 3e 95 8d 54 be
       0.15299004 -0.09167872 0.19853178 -0.20757134
000290 58 81 24 be bd f2 e5 3d d3 49 64 3e 72 3a 38 be
       -0.16064966 0.11227939 0.22293787 -0.17991045
0002a0 41 d6 80 3d 20 02 29 3e 73 61 0d 3e 5a 90 60 be
       0.06290866 0.16504717 0.13806705 -0.21930066
0002b0 71 38 15 3e 16 14 b2 3d f6 32 e8 bb 6a 00 38 be
       0.14572312 0.08695237 -0.007086153 -0.17968908
0002c0 20 9b 45 3c 92 ed 82 bd 12 fe 54 3e 33 13 36 bd
       0.01206091 -0.06392969 0.20800045 -0.044451904
0002d0 72 e5 17 be a3 6a f0 3d de 13 37 be f8 45 53 be
       -0.1483362 0.11739089 -0.17878672 -0.2063216
0002e0 7e f0 25 3e 3a 9c 5b 3c d3 95 0e bd 68 9b bf 3d
       0.16205022 0.0134039465 -0.034810852 0.09355813
0002f0 3f 3f 19 3e 5b f4 4b bd 2e e9 38 3e 99 49 1e 3e
       0.14965533 -0.049793582 0.18057701 0.15457763
000300 21 7a 7a 3d 42 98 d4 bd e2 b9 12 3e 60 0a 3a bd
       0.061151627 -0.103806034 0.14328721 -0.04542005
000310 9e b1 7d 3d e6 e8 24 3e aa d3 a4 bd 0a d8 52 3e
       0.061936967 0.16104469 -0.08048184 0.20590225
000320 d4 10 39 be 75 47 38 3e ea a6 43 bd 64 e9 f4 3d
       -0.18072826 0.17996009 -0.047766604 0.11958578
000330 70 d2 8e bd d8 55 d9 bb 4f 10 6c bc 76 56 e2 bd
       -0.069737315 -0.006632548 -0.014408185 -0.11051647
000340 9c 96 b5 3d 10 53 b4 3c 2e 93 df 3d e9 7c 41 be
       0.08866617 0.022012264 0.10916744 -0.18895306
000350 fe 1d a8 bc e7 07 36 3e 43 fc 23 be 39 dd b3 3c
       -0.020522114 0.17776452 -0.16014199 0.021956073
000360 9d ba 61 be c7 da 0a 3e 4e 04 8a bd 64 ec ad bd
       -0.22043844 0.1356002 -0.06739102 -0.084923536
000370 90 3a 08 be 23 78 ba bd d6 1c 22 3e f5 cb fc 3d
       -0.1330359 -0.091049455 0.15831313 0.12343589
000380 77 ab 01 3d 07 b1 11 3d e6 ab 57 bd 0e 7c 25 3e
       0.031657662 0.035569217 -0.05265417 0.16160604
000390 d5 33 4c 3e ac ed 36 3e ee 5b f4 3d 72 9c 04 be
       0.19941647 0.17864102 0.11931597 -0.12950304
0003a0 23 1d 3e be 5a 42 b6 bd e3 e1 c1 3d 3e 5c 01 be
       -0.18565802 -0.08899374 0.094669126 -0.12632844
0003b0 d5 4a db 3c a5 30 6b bd 30 57 3d bd fb 05 1f be
       0.026769081 -0.057419438 -0.046225727 -0.15529625
0003c0 85 41 9b bd 04 12 b1 3b c0 0a 2e be e7 f3 76 3a
       -0.07580856 0.005403759 -0.16996288 0.00094204996
0003d0 50 6a 92 bc 9a f8 27 be c2 f8 cb 3d bb 33 ad bd
       -0.01787296 -0.16403428 0.09959556 -0.084571324
0003e0 b3 73 1e be 60 b6 0a 3e 1a fe 1c be 9a 6d 5e be
       -0.15473823 0.13546133 -0.15331307 -0.21721497
0003f0 3d 1a 37 be c2 6f 16 be 53 ca 57 3e 87 54 3e be
       -0.17881103 -0.1469107 0.21073274 -0.18586932

lstm.bias_ih_l0 f4 [80]
000000 24 1a 34 be 68 5b 1d be 59 ac f6 3c 37 69 37 be
       -0.17588097 -0.153669 0.030111479 -0.1791123
000010 f0 8f 55 3e 78 19 d9 3d 20 d9 75 bd 64 c8 a7 bd
       0.20855689 0.10600561 -0.06002152 -0.08192518
000020 ae ec 36 be 3f 00 2d be b1 02 4c bd 66 78 cf bd
       -0.17863724 -0.16894625 -0.049807254 -0.10130386
000030 73 81 0e bc 24 a2 b6 3d 4c df 64 3d 25 00 5c be
       -0.008697855 0.089176446 0.055877015 -0.2148443
000040 8b 45 b1 3d bd 58 07 bd ff ef 1e 3e c1 79 21 be
       0.086558424 -0.03304361 0.15521239 -0.15769102
000050 ea 5c ba bd 45 f2 10 be 84 1d dd bd 00 ae 61 3e
       -0.09099753 -0.14154918 -0.10796645 0.22039032
000060 74 f5 fd bd 72 0e 16 bd 05 19 58 3e 40 9e c3 bd
       -0.12400332 -0.03663487 0.21103294 -0.09551668
000070 d6 1c 22 bd 4b f6 13 3e 93 ba 4b be 36 2b c5 bb
       -0.03957828 0.14449422 -0.19895391 -0.006017114
000080 ae 56 10 3e b3 be c2 bd 96 f3 e3 bd d8 93 3d be
       0.14095566 -0.09509029 -0.11130445 -0.18513429
000090 22 68 f5 3d c8 13 47 be 60 48 6a 3d 7c c8 d3 3d
       0.119827524 -0.1944114 0.05719793 0.10340974
0000a0 ad 33 02 3e 7c 99 5a be d8 18 b5 3d 28 6e aa 39
       0.12715025 -0.21347612 0.08842629 0.00032507
0000b0 8c 15 0b be d6 fd fc bd 84 8a e1 bc 2b e6 94 bd
       -0.13582438 -0.12353103 -0.02753187 -0.072704636
0000c0 c5 86 ab 3d e7 7e 02 be 61 b2 45 3c a3 92 95 3d
       0.083753146 -0.12743722 0.012066455 0.07303359
0000d0 ad 7f f2 bc 20 85 8f bd ad 72 bb 3d f6 27 05 3b
       -0.029601896 -0.070078135 0.09152732 0.0020318008
0000e0 c5 d9 67 3d 6b 73 69 bd d6 8d fb 3d bc eb 80 3d
       0.056604166 -0.056994837 0.122829124 0.06294963
0000f0 f2 7e 55 3e 82 b4 28 bd f6 a0 71 bd 76 c0 32 3d
       0.20849207 -0.04118777 -0.058991395 0.043640576
000100 0b d9 0d 3e 7f 84 d4 bd 99 ea 3b 3e 3a 86 59 3d
       0.13852327 -0.10376834 0.1835121 0.053106524
000110 b5 27 84 3a 94 67 0c be 91 cb c6 3d 32 1b ec bd
       0.0010082634 -0.13711387 0.09706796 -0.115286246
000120 a6 3b 8b bc a3 8c df 3c 76 5e 02 bd 4b c9 f8 bd
       -0.016996216 0.02728874 -0.031828366 -0.121477686
000130 06 87 86 ba 65 2b a9 3d 53 40 2a 3e 8d 8e a9 bb
       -0.0010263629 0.0826023 0.166261 -0.005174464

lstm.bias_hh_l0 f4 [80]
000000 82 8c 91 3d ba 51 3f 3e f0 8f 9b bd 92 57 18 3e
       0.07106878 0.1868352 -0.07595813 0.14877155
000010 8b 8d 09 3e e0 ce ea bc a3 1c 6d bc 97 49 ad bd
       0.134329 -0.028663099 -0.01447216 -0.08461302
000020 b3 bd 55 bd b2 c5 27 bd c1 d6 3b bd a1 7b c8 bc
       -0.052182864 -0.04096002 -0.045859102 -0.024473013
000030 29 38 b3 3d 2f b1 f7 bd 58 23 5d be 77 69 8d bd
       0.08750946 -0.12094342 -0.21595514 -0.069048814
000040 97 ba 0b be 1e d2 9e bd 89 cd a0 3d 9b 6e 5c be
       -0.13645397 -0.077549204 0.07851703 -0.21526568
000050 84 39 1d 3e 30 21 41 be c6 6c 7d 3d 45 de 0b be
       0.15353972 -0.18860316 0.061871313 -0.13659008
000060 09 69 87 3c ce 7c 4d be cd b3 62 3d 63 0e 15 3c
       0.016529577 -0.2006714 0.055347253 0.009097668
000070 2e e8 9b bd 13 fa 97 bc 1b d3 f8 3d a5 d5 4c 3e
       -0.07612644 -0.018551862 0.1214964 0.20003374
000080 d5 ce 07 bc 09 4b ee 3d fc 0e 4b 3e 06 13 4f bc
       -0.008289059 0.116354056 0.19829935 -0.012638813
000090 72 1a 32 3e 6f 52 62 3e 38 4f 3e 3e aa 45 08 3e
       0.173929 0.22101758 0.18584907 0.13307825
0000a0 12 d7 b2 bd 28 7e a1 bc 56 02 9a bd 03 64 2a 3e
       -0.08732428 -0.019713476 -0.07519977 0.16639714
0000b0 ee c7 b6 bd c6 d0 f2 3d f8 76 3a be 74 68 53 3e
       -0.08924852 0.118562266 -0.18209445 0.20645314
0000c0 2f 2f 32 3e 7c dc ac bd 61 72 ab bc 86 f0 0d be
       0.17400812 -0.084404916 -0.020928564 -0.13861284
0000d0 46 4c 45 be 99 6b 44 3e 8a df 6e 3c e1 b6 d3 bd
       -0.19267377 0.1918167 0.014579663 -0.10337616
0000e0 03 65 8f 3d 73 a7 dc bd 9d 59 00 be ef 85 f8 3d
       0.07001688 -0.10774126 -0.12534185 0.12134921
0000f0 d7 08 69 bc 6a 2e b9 bd fb 76 16 bd 66 90 04 3e
       -0.014223299 -0.09042056 -0.036734562 0.12945709
000100 16 61 cd bd 26 35 6c 3d 45 de 68 3d 50 03 2f 3c
       -0.10028283 0.057667874 0.056852598 0.010681942
000110 62 c6 12 bd 6d 2d f7 3d 44 a5 24 be 90 bc 2b be
       -0.035833724 0.12069211 -0.16078669 -0.1677115
000120 36 0a d3 3d 54 36 24 3d 3a b0 26 bd 86 65 d2 bd
       0.10304682 0.040090874 -0.040695406 -0.1027327
000130 2b e5 46 3d 23 ee a5 ba 68 4d ea bb 70 65 18 3e
       0.048558395 -0.0012659471 -0.007150341 0.14882445

net.0.weight f4 [128, 20]
000000 93 be 1a bd 84 51 0a be e9 10 3b 3e fa 26 2b 3e
       -0.037779402 -0.13507658 0.1826817 0.16714087
000010 c0 c7 2a 3e ff f9 12 be 2c 7c 37 3e e4 cc 50 3e
       0.16677761 -0.14353178 0.17918462 0.2039066
000020 b5 d4 35 be 19 d2 13 be 8c 4e d6 3d eb 27 1a be
       -0.17756923 -0.14435615 0.104642004 -0.1505429
000030 69 4c 34 3c f2 7b 1c be 1e 27 2f 3e 05 c5 34 3e
       0.011004546 -0.15281656 0.17104766 0.17653282
000040 09 9f 00 3e fc 66 2e bb 8c 10 3d be 6c fe dc 3c
       0.12560667 -0.0026611676 -0.18463343 0.026976787
000050 75 75 f5 bd 15 0e 11 be b0 a5 83 bd df 8f 48 3e
       -0.11985294 -0.14165528 -0.06428087 0.19586132
000060 91 37 da 3b 30 f3 5e 3e 18 ee 3a be ed b7 4c 3e
       0.006659456 0.21772456 -0.18254888 0.19992037
000070 b8 f1 a4 3d 1d b2 80 3d 2c ef 09 be de 0f 32 3e
       0.08053917 0.062839724 -0.13470143 0.17388865
000080 67 00 2e 3e c3 2d 45 be 0c e8 31 3e 9f eb 23 3d
       0.16992341 -0.19255738 0.17373675 0.040019628
000090 77 76 37 3d 99 50 d1 3d 3d fb c8 3b 12 06 56 3d
       0.04479071 0.10220451 0.0061334656 0.052251883
0000a0 22 f2 0c be 33 4a 24 be 1a 4f 60 be a4 f8 0a be
       -0.13764241 -0.1604393 -0.21905175 -0.13571411
0000b0 53 3b 3f be 92 b4 1c be fa 65 ea bd 7b a6 05 3e
       -0.18674974 -0.15303257 -0.11445232 0.13051789
0000c0 89 27 2e 3e 91 6b ea 3c ea 28 00 3e 83 df a7 bd
       0.17007269 0.028615745 0.12515607 -0.08196928
0000d0 dd e5 1d 3e c7 fd f5 bd 91 7d 5b bc 1a 0e 53 3e
       0.15419717 -0.12011295 -0.013396637 0.20610848
0000e0 10 c6 3d 3e d2 68 45 3e 39 06 15 3e 09 fb 54 3e
       0.18532586 0.19278267 0.14553155 0.20798887
0000f0 22 7b 2d 3d 99 85 e4 bd 48 ff 34 be fc 8b a2 bd
       0.042353757 -0.11158294 -0.17675507 -0.07936856
000100 03 79 0b be 0f cd 0a 3e b0 68 10 3b 7d 9b c2 bc
       -0.13620381 0.13554786 0.0022035055 -0.023755783
000110 cb 26 05 be d1 3f 23 be df 0f 14 3e 28 45 61 3e
       -0.1300308 -0.15942313 0.1445918 0.21999037
000120 ff e4 5d 3b 19 82 6c bd 84 4d 01 3c 25 e9 1e 3e
       0.0033858416 -0.05774126 0.007892016 0.15518625
000130 5f e0 3c 3e da 67 da 3d f5 0c 5b be 67 93 c4 3d
       0.18444966 0.10664339 -0.21391661 0.09598427
000140 c9 61 dc 3c 34 1d 4a be bc 46 f5 bd a6 d4 a7 3c
       0.026902096 -0.19737703 -0.11976382 0.02048714
000150 f9 01 9a 3d 6a bc 49 3e d5 0d 5e 3d 17 10 aa 3d
       0.075199075 0.1970078 0.05421241 0.0830385
000160 31 0b d3 bd bf 35 a7 3c b6 fd 42 3e f3 4e 92 bd
       -0.10304869 0.02041137 0.19042096 -0.071439646
000170 46 8c 3a 3e 46 5b f2 bd c2 6c 3f 3d 81 cc aa bd
       0.18217573 -0.11833815 0.04673458 -0.08339787
000180 dd e9 73 3d 6e 2a d8 bd 59 49 c2 3d a8 6a 2c 3e
       0.0595492 -0.10554968 0.09486646 0.16837561
000190 cb 50 0b 3e 17 95 a7 3c 67 6f c4 bd 42 4c 17 be
       0.13605039 0.020456834 -0.09591561 -0.14775184
0001a0 e2 08 e8 3d 02 9b 81 3d ae 02 00 3e 2c 67 3f bd
       0.11329819 0.063283935 0.12501022 -0.04672925
0001b0 f8 29 e8 bd 24 a1 d4 bb 80 1c a5 3d 79 7e 1f 3e
       -0.1133613 -0.006488936 0.080620766 0.15575589
0001c0 a8 39 4d be 41 d1 10 3e e3 5c 3e 3d ae 82 49 3e
       -0.20041525 0.14142324 0.046475302 0.19678757
0001d0 65 a8 1e be 02 d0 4d 3d d8 a7 35 3e 1f 76 9e bd
       -0.15493925 0.0502472 0.17739809 -0.077373736
0001e0 dd 72 f8 bd d2 d2 e4 bd 14 03 3f be a1 ae 28 3e
       -0.121312834 -0.11173023 -0.18653518 0.16472866
0001f0 5c 35 29 be a6 f8 4e bd e9 d3 e3 bb 48 cb ec ba
       -0.16524261 -0.0505301 -0.006952752 -0.0018065954
000200 6e b5 45 3e 91 4e 01 be 9f 9d 3a be 02 35 43 be
       0.19307491 -0.12627627 -0.1822419 -0.1906319
000210 5c ec 9e bd 62 2d 46 3e 6f 2f ad 3d fb bf 0c be
       -0.07759926 0.1935325 0.08456313 -0.1374511
000220 b1 6a 6f bd 4c 58 9f 3c ea fe 46 be 11 c9 88 3d
       -0.05845136 0.019451283 -0.1943318 0.066789754
000230 07 e2 6a 3b fa cf 31 be 4f 7c 73 bd db e0 62 be
       0.003584029 -0.17364493 -0.05944472 -0.22156088
000240 48 06 6e bd e9 50 a3 bd f1 03 0a 3e f2 93 5b be
       -0.05811146 -0.07974417 0.13478066 -0.21443155
000250 d4 bf 6e 3c 2d 80 37 be b2 81 1a be dc 35 3c 3d
       0.014572103 -0.17919989 -0.15088537 0.0459498
000260 d7 d3 3b 3d f1 9f bd bd 87 06 a2 3c 80 42 59 3e
       0.045856323 -0.09259022 0.019778503 0.21216774
000270 08 56 3b 3d 40 ff 38 be de 05 85 3d 77 74 1f be
       0.045736343 -0.1806612 0.0649526 -0.15571772
000280 d9 dd d6 3d 04 50 61 bd e0 39 df bc a9 c8 06 3c
       0.10491533 -0.05500795 -0.027249277 0.008226552
000290 cf bb d7 bd 80 5e d1 3d f1 bc 9a bd a6 41 56 bd
       -0.105338685 0.102231026 -0.07555569 -0.0523087
0002a0 60 ba 2a 3e 9f ba e4 bd 8c a0 31 3e f0 ee cf bb
       0.16672659 -0.11168408 0.173464 -0.0063456222
0002b0 fa a8 41 3e f9 86 df bd 74 0f 24 3e bc d8 55 be
       0.18912116 -0.10914416 0.1602152 -0.20883459
0002c0 2d d2 42 bd 0c c4 35 be f4 cf 40 3e 09 ac 9f 3d
       -0.04756372 -0.17750567 0.18829328 0.07796485
0002d0 67 92 85 3d 47 0d 44 be c3 b9 a4 bd b5 fb bd 3d
       0.06522065 -0.1914569 -0.08043244 0.09276525
0002e0 85 71 10 be e6 49 9c bc cb ec 92 3d 92 7e 3f 3e
       -0.14105804 -0.019078206 0.07174071 0.18700626
0002f0 d3 19 92 bd d0 64 6f 3d c2 46 36 be a6 ca 35 bc
       -0.07133832 0.05844575 -0.1780043 -0.011095678
000300 98 d4 01 be e4 2a 48 be 5d ce 95 bd 51 f2 55 be
       -0.12678754 -0.19547611 -0.07314751 -0.20893218
000310 7a ae 0d 3e 45 c6 18 3c a4 ab aa 3b 81 a2 b0 3c
       0.13836089 0.009324615 0.0052084494 0.021561863
000320 aa b1 65 3d 35 3a ab bd 82 fe 02 3e 3f 3e 49 be
       0.056077637 -0.083607115 0.127924 -0.19652651
000330 73 ab 5d be bc 8a b0 bd 91 f2 c7 3d d8 53 dd bd
       -0.21647434 -0.086202115 0.09763063 -0.108070076
000340 8f b1 da 3d f0 52 90 3b bb 80 dc bd df 79 80 bd
       0.10678398 0.004404418 -0.10766741 -0.06273245
000350 94 f2 16 bd 24 13 45 3e b1 0e 56 3e 12 d9 f2 3d
       -0.036852434 0.19245583 0.20904042 0.11857809
000360 cc 83 a2 3c a8 4c 05 be 83 29 8a bd 37 e7 b9 39
       0.019838236 -0.13017523 -0.06746199 0.00035458218
000370 1e 63 3c 3e 9b 20 3d bd f3 a9 48 3c 0c 85 29 3e
       0.18397185 -0.046173673 0.01224755 0.1655466
000380 ae 57 a3 bc 44 be 0e bd a3 ee e7 bd c3 df 6b bd
       -0.01993927 -0.03484942 -0.11324813 -0.057586443
000390 ee 82 6a bd 70 a2 d3 bd c0 c7 cc 3d 02 7b 5f be
       -0.05725377 -0.10333717 0.09999037 -0.21824268
0003a0 0d 6d 57 be da bc bf 3d b3 7e 82 bd c1 6e 4c be
       -0.21037693 0.093621925 -0.06371822 -0.19964124
0003b0 02 07 1e bd 63 07 3f 3e 23 90 4c bd 56 fd 2c 3d
       -0.038580902 0.18655162 -0.049942147 0.042233787
0003c0 1f 7c 62 be 9f 01 13 3e 80 56 4c be 79 8e d7 bd
       -0.22117661 0.14356087 -0.19954872 -0.105252214
0003d0 fd 8f 4d 3e c5 35 f3 3d ab 60 48 3e bc 68 07 be
       0.20074458 0.1187549 0.19568126 -0.13223547
0003e0 e2 72 fd 3d 69 a7 4f 3e 0b 53 56 bc bb 2b e3 bc
       0.12375428 0.20278706 -0.013081322 -0.027730813
0003f0 33 16 df 3d 03 b8 5e 3e ff c9 be bb cf 8b c5 3d
       0.10892906 0.21749882 -0.0058224197 0.09645807

net.0.bias f4 [128]
000000 1b c9 17 3e c7 65 0d 3e ad 53 63 be 93 14 c3 3d
       0.1482281 0.13808356 -0.22199889 0.095254086
000010 0c 85 c0 bc 86 22 16 be 1b 38 02 be 34 e0 82 3d
       -0.023500942 -0.14661607 -0.12716715 0.063904196
000020 7f e2 5e be e1 9e f4 3d 85 52 d8 ba cc 34 37 bd
       -0.21766089 0.11944366 -0.0016504085 -0.044728085
000030 09 99 50 3b e6 d3 01 be 24 ec 18 be a1 34 22 3e
       0.0031829497 -0.12678489 -0.1493383 0.15840389
000040 5f ba ad bd 0e 6d 05 be 41 67 d2 bd a5 20 b8 3c
       -0.08482813 -0.13029882 -0.102736 0.022476504
000050 1e ca ce bd 20 78 a6 bb 58 2c 2a 3e 42 42 ee bd
       -0.100971445 -0.005080238 0.16618478 -0.116337314
000060 23 c1 27 be b0 7c 33 be 46 58 1e 3b 42 6b 07 bc
       -0.1638227 -0.17528033 0.0024161502 -0.008265318
000070 79 88 1e 3e 0f 13 2d 3e ae 7d 35 be 9b f0 f6 3c
       0.15481748 0.16901802 -0.17723724 0.030144027
000080 70 2b 8a 3b e2 9b fd 3d b0 b8 52 be 41 c6 8d bc
       0.004216604 0.12383248 -0.20578265 -0.017306449
000090 72 62 10 3c 1e a5 4c 3e f2 61 ce 3d fd ac 12 bd
       0.008812534 0.19984862 0.10077275 -0.035809506
0000a0 c2 01 41 3e fa 50 4f 3d d0 e9 ff ba f1 9d ad bc
       0.18848327 0.050614335 -0.0019524638 -0.021193476
0000b0 6c c3 3b 3e 2e b7 5a bd 40 60 89 3d 0b d8 91 3d
       0.18336266 -0.05339735 0.06707811 0.07121285
0000c0 b9 ec 2d be 5d f8 2d 3e 47 62 62 bd 4e 1d 57 3d
       -0.16984834 0.16989274 -0.055269506 0.05251818
0000d0 5a 51 d5 bd af 3f 40 be 98 a2 f2 3d 43 44 4e be
       -0.10415907 -0.18774293 0.118474185 -0.20143227
0000e0 c2 8a 32 be 3a 76 c6 bd 64 b6 08 be ce 79 0c be
       -0.17435744 -0.09690519 -0.13350827 -0.1371834
0000f0 fa e6 41 3e 5c 8c 1d be 7a c4 44 3d 3d 6d 16 3d
       0.18935767 -0.15385574 0.048038937 0.03672527
000100 d3 f2 18 3e f4 b5 41 be bc 6d 8a 3d fe 5e dd bd
       0.1493638 -0.18917066 0.067592114 -0.10809134
000110 b6 41 07 be fc ef 7f bb d5 1d e0 bd c1 73 08 be
       -0.1320866 -0.0039052954 -0.1094319 -0.13325407
000120 d7 4b 28 3e c2 9c b2 3d 90 2c df 3d de e9 42 bd
       0.1643518 0.087213054 0.108971715 -0.047586314
000130 42 04 07 3e db 5c e7 3d 26 48 a5 3d 21 de 69 3d
       0.13185218 0.11297008 0.08070402 0.057096604
000140 d3 7d b3 bd d6 d6 9c ba f9 9d fd 3d 4b ff 4c be
       -0.087642334 -0.0011965882 0.123836465 -0.20019262
000150 ee 75 c6 bc 46 65 cf 3d 33 f6 f8 3d 28 4c b0 bb
       -0.024226155 0.10126738 0.12156334 -0.0053801723
000160 ea 6e f7 3d f5 c1 24 3d 77 17 61 3d a1 8b 86 3d
       0.12081702 0.040224034 0.05495402 0.06569601
000170 9c cd 60 3e cb 6c 48 be 63 92 73 bd 47 cb 77 3c
       0.21953434 -0.19572751 -0.059465777 0.015124149
000180 01 69 38 3e d5 f5 d1 bd e1 3f 04 bd 9b 4e 4d be
       0.18008806 -0.10251967 -0.032287482 -0.20049517
000190 31 b8 88 bd a1 2e 0d be 95 ae 1a 3e fa 90 8c bd
       -0.06675757 -0.13787319 0.1510566 -0.068635896
0001a0 90 23 08 bd ba 1d 1a be 5e 4f 5b 3e 6d 1c 2e 3e
       -0.03323704 -0.15050402 0.21416995 0.17003031
0001b0 4b f6 e1 3c 07 be 46 3e a0 0c 57 bd 3e c7 db bc
       0.027583262 0.19408427 -0.052502275 -0.026828405
0001c0 22 0c 78 bd dd 54 23 be 9b ce ae 3a ac 0c ec bb
       -0.060558446 -0.15950342 0.001333672 -0.007203659
0001d0 9c 2b 7a bd 08 51 35 be 30 d1 57 3e 9c df 48 be
       -0.061076745 -0.17706692 0.21075892 -0.1961655
0001e0 a8 f4 48 bc 3a 5c 2c bd 94 27 3b be a1 c9 c0 3d
       -0.012265362 -0.04208014 -0.18276817 0.09413458
0001f0 c2 35 88 bd 83 4e 3a be 6b e9 18 3d 36 7e 98 bd
       -0.066508785 -0.18194012 0.03733198 -0.07445948

net.2.weight f4 [64, 128]
000000 d8 67 9f bd 8f fe db bc 2a 0e 93 3c 5a 23 c2 bc
       -0.077834785 -0.026854781 0.01795109 -0.023698498
000010 93 9c 8c bc 59 f4 b1 3c 45 73 61 3d 46 d7 82 3c
       -0.017164504 0.02172296 0.05504157 0.015971791
000020 a5 45 dc 3b 56 84 68 bd 53 7e 95 bd 6b dd 34 bd
       0.0067221695 -0.05676683 -0.07299485 -0.044156473
000030 c6 7c c3 bb 8b 5b 0a bd fe 9f 6a 3c 65 ee a6 bc
       -0.005965802 -0.03377871 0.014320372 -0.020377347
000040 f8 d4 57 bc 4f ba 5b 3d ce 86 a1 bd 99 92 45 3d
       -0.013173334 0.053644475 -0.0788704 0.04823551
000050 4d 34 ad bc 5d d6 13 3d 8a a1 9e bc 78 78 73 bd
       -0.021143103 0.036093105 -0.019364137 -0.05944106
000060 bf 2d f3 bc 6d 73 15 ba ff 35 69 bc b6 be 3b bd
       -0.0296849 -0.00057010987 -0.014234065 -0.045836173
000070 71 99 74 3c 58 ad 2e 3c ef cc 9f bc b3 92 4f 3d
       0.014929161 0.010661446 -0.0195069 0.050677013
000080 ad 4d 36 3d bf ef a2 3d 16 57 92 bd 4a 83 b3 bd
       0.04450767 0.07955884 -0.071455166 -0.08765276
000090 f7 00 e9 bb 66 6d 10 3d a7 36 5c bd 7a 42 95 bd
       -0.0071107107 0.03526058 -0.053763058 -0.0728807
0000a0 5b d5 fb bc 47 50 1e 3d b2 d0 a2 3d 5b 93 7c bd
       -0.030741384 0.038650777 0.07949962 -0.061663967
0000b0 c8 3f 16 39 0d 20 1e bd 31 ba 56 3d 33 9f 11 3b
       0.00014328875 -0.038604785 0.05242366 0.0022220134
0000c0 3f 0c e2 bc 14 88 c5 3c 7b 6b a9 3d af 75 1d bb
       -0.02759373 0.024112739 0.082724534 -0.0024026444
0000d0 b5 64 28 3d a5 90 46 3d 2a 47 7a 3d 66 be ea bc
       0.041111667 0.048477788 0.061103024 -0.028655242
0000e0 ec 79 20 bd 9d 58 45 3c ed 19 25 3d 96 17 27 bd
       -0.039178774 0.012045053 0.040307928 -0.040793978
0000f0 44 4f f3 3c b9 a7 7b 3d 29 3c 83 bd b7 99 2b 3d
       0.029700883 0.06143925 -0.06407959 0.04189464
000100 da e1 40 bd df e8 a3 3d 80 a2 2b bd 2f 04 01 3d
       -0.04709039 0.08003401 -0.04190302 0.03149813
000110 75 23 5a 3d 10 b7 31 3d cf e5 22 bd df 63 06 3d
       0.05325647 0.043387473 -0.039769944 0.03281009
000120 74 08 7a 3c 94 e1 81 bd 9e 28 8a 3d c9 cf 66 bc
       0.015260804 -0.06341854 0.06746028 -0.014087626
000130 b6 d9 4e bd 73 d1 87 bd 70 22 1a bd 37 07 d0 bb
       -0.050500594 -0.06631746 -0.0376305 -0.0063485163
000140 a7 ce 7c bd b0 d1 16 3d 69 49 b2 3d 08 a2 b6 3c
       -0.061720517 0.036821067 0.08705408 0.02229406
000150 22 3d 3b 3d fd 35 92 3b 68 14 3b bd cb 2e fe 3b
       0.045712598 0.0044620023 -0.045673758 0.007757043
000160 32 7d b0 3d 8a 5c 2b 3d 03 d8 f6 bc 09 1e 1f bc
       0.08617629 0.0418363 -0.0301323 -0.009711751
000170 35 ac 41 3b cf 6b a7 bd 61 fa 98 3d f5 9f 81 3d
       0.0029552106 -0.0817486 0.07469631 0.063293375
000180 c0 f5 9c 3d 16 d8 b1 bc 95 66 ab 3c a4 4c 1c 3d
       0.076640606 -0.021709483 0.020922938 0.038159028
000190 d7 c5 0a bd 3c f6 e2 3c 88 a1 3d bd ae 0c ad bd
       -0.03388008 0.027705304 -0.046296626 -0.08449684
0001a0 b5 b3 1d 3d 0d 85 19 bd e6 48 72 3d 91 10 90 bd
       0.03850146 -0.037480403 0.059151553 -0.0703441
0001b0 b6 ce 41 bd c0 af 0d 38 7a d6 b0 bc 72 5b ae bd
       -0.047316276 3.37807e-05 -0.021586645 -0.085135356
0001c0 d7 e3 7d bd 8c db 84 3c 0e 4d 63 bc e2 e3 68 bd
       -0.061984863 0.01621797 -0.013873352 -0.05685795
0001d0 35 2b 12 bd ca e6 9a bd 92 34 ce bc f7 65 b3 bb
       -0.035685737 -0.07563551 -0.025171552 -0.0054748016
0001e0 2b 7d af 3d a3 dd 9b 3d 72 20 93 3d 88 0f 93 3d
       0.08568796 0.07610633 0.07183923 0.07180697
0001f0 38 3d cc bc 9e f5 96 bd 90 b0 8d bd 75 61 a9 bd
       -0.024931535 -0.073710665 -0.06918442 -0.082705416
000200 b1 16 8b bd cd 8f a7 bd 2d c2 5a b9 77 42 dd bc
       -0.067914374 -0.08181725 -0.00020862436 -0.027009232
000210 cd ad 00 3d 82 1e 81 3d 36 da 9f bd 08 dd 48 3d
       0.03141575 0.06304647 -0.07805292 0.049038917
000220 83 f0 3d bd 8f 5d 04 bd 61 5c 9c bd aa 20 40 bd
       -0.046371948 -0.032315787 -0.076348074 -0.04690615
000230 f5 6e a8 3d 87 66 75 3d c9 dc 8a bd b8 7a b5 3c
       0.082242884 0.05991223 -0.06780393 0.022153243
000240 9f fd 64 3b 6c f5 7a bd ff bd de 3c e4 e1 ab bd
       0.003494121 -0.06126921 0.027190207 -0.083926946
000250 b8 b4 89 3d 5e 9c 73 bd 86 fc 07 3d 2e 1f a8 3d
       0.067239225 -0.059475295 0.03319981 0.08209072
000260 71 74 1d bc cb d8 71 3d 19 2b 31 3d 67 35 a2 bd
       -0.009610281 0.05904464 0.04325399 -0.07920342
000270 bd 2a 9b 3d 23 c6 92 3d 1f cf 9c 3d 65 63 38 3d
       0.07576511 0.07166698 0.07656693 0.045016665
000280 f4 e1 a9 39 6f 38 8f 3d 6b 35 79 3d 80 ad 63 bd
       0.0003240254 0.06993186 0.06084196 -0.055585384
000290 67 69 8c 3d 6e 00 22 3d 08 f0 40 bd 5b 62 18 bd
       0.068560414 0.03955119 -0.04710391 -0.037203174
0002a0 d0 d0 82 3d 45 69 60 bd ef cf 9c 3d 37 17 53 bd
       0.06387484 -0.054787893 0.07656848 -0.05153581
0002b0 5d 37 98 3d bf 7c 64 3d c1 dd 04 bd 13 a9 15 bd
       0.07432435 0.05578303 -0.032438044 -0.036538195
0002c0 14 a0 ae bc c5 07 9a 3d 1a ed 40 bd 1d 94 a9 3c
       -0.021316566 0.07521013 -0.047101118 0.020700509
0002d0 7b ea 2f bd 53 0b 60 bd a8 b5 83 3b 7d 1a 92 3d
       -0.042948227 -0.0546983 0.004019458 0.071339585
0002e0 ff 50 75 3d bb df 4a bd e8 a7 88 3d 12 64 0a 3d
       0.059891697 -0.049529772 0.066726506 0.03378684
0002f0 74 28 5f bc ea a2 81 bc e9 c6 90 bd 7d 57 e9 3c
       -0.013620485 -0.015824754 -0.07069189 0.0284841
000300 5e 26 e6 3c bf a1 eb 3c 5b 8e fe bb 02 02 e8 3b
       0.028094467 0.02876365 -0.007768435 0.0070803175
000310 89 0a 92 bd d9 b6 49 bd 4a 12 a2 bd 68 ea 71 bd
       -0.07130916 -0.049246643 -0.079136446 -0.059061438
000320 33 20 a2 bb 97 87 b0 bd 3c 15 f7 3b 60 0c 35 3c
       -0.004947686 -0.08619612 0.007540373 0.011050314
000330 a2 55 04 bd f7 2c e8 bc fb d7 2f bc fd 84 6a bc
       -0.03230823 -0.028341753 -0.010732646 -0.014313933
000340 f0 65 15 3c 21 91 6b bc 7e 77 98 bd 43 10 6e 3d
       0.009118542 -0.014377863 -0.07444666 0.058120977
000350 4a e9 a3 3d ff ef 99 bb b8 0f d9 ba 71 46 e3 39
       0.08003481 -0.004697799 -0.0016560471 0.00043349297
000360 ef e3 2a bc 2f 4e 5d 3d 24 fa 22 bd 5f 14 fb 3c
       -0.01043032 0.05402964 -0.039789334 0.030649362
000370 a2 3f 81 3d 3b cd 69 3d df 0b 0d bd da 95 d1 bc
       0.06310965 0.05708049 -0.03443515 -0.02558415
000380 4f 79 8f 3d ed 45 a6 3d 55 02 7e 3d 80 95 7f bd
       0.0700556 0.08118806 0.062013943 -0.062398434
000390 56 29 a5 3d 74 d4 27 3d a0 5b b8 3d 86 09 a0 bd
       0.08064525 0.040974095 0.09001851 -0.078143165
0003a0 4d a5 22 bd cb 4e 8a 3d 63 bf 83 3d 16 b8 b5 bc
       -0.039708424 0.0675331 0.064329885 -0.022182506
0003b0 e3 ad 85 bd 82 d4 cd bb 3b 54 9b 3d b2 46 89 3d
       -0.06527307 -0.0062814364 0.07584425 0.06702937
0003c0 9d 0b 7d 3d d5 d7 9b 3d a2 91 4d 3d b6 b4 ab 3d
       0.061778653 0.07609526 0.050187714 0.08384077
0003d0 4a 5a fa 3c 25 0f 47 bd 1d cc 99 bd ae e3 96 bd
       0.030560631 -0.048598427 -0.07509635 -0.07367645
0003e0 73 82 84 3d 4c 73 94 bd 91 af 84 3d 8d 4e 3e 3d
       0.06470194 -0.07248554 0.06478799 0.04646163
0003f0 59 81 94 bd 94 9a ab bd 58 05 ef bb 9d eb 78 3d
       -0.072512336 -0.08379093 -0.007294338 0.060771573

net.2.bias f4 [64]
000000 e8 20 98 bd 9b d7 e1 bc 20 92 c1 3c 8c e8 25 bb
       -0.07428151 -0.027568629 0.023629248 -0.002531561
000010 0f d5 ad bc aa 62 45 bd 57 c7 0d bc 20 7a 6a 3d
       -0.021219758 -0.048189797 -0.008653483 0.057245374
000020 32 55 28 bd b0 a2 09 bd 9d 03 a1 3d 96 e1 80 bd
       -0.041096874 -0.033602417 0.07862017 -0.06293027
000030 4e d0 85 bd 71 03 4c bd d4 d5 4c bc 3e 01 9c 3d
       -0.065338716 -0.04980797 -0.0125021525 0.076174244
000040 f8 6f 9e 3c 4d 9c 3f bd e2 4d 38 bd 97 21 e5 3c
       0.0193405 -0.04677992 -0.04499615 0.027970118
000050 61 4a 05 bc 91 55 0e bd 62 05 c8 bc ed 1b f5 3c
       -0.008135409 -0.03474957 -0.02441663 0.029920543
000060 81 63 87 bd 54 6d b8 3c 4c 3b dd 3c 11 2b 46 bd
       -0.06610776 0.02251307 0.027005814 -0.048380915
000070 61 e7 86 bd 02 69 9e bd 28 fd 23 bd 4f 49 26 bd
       -0.06587101 -0.077348724 -0.04003635 -0.040597256
000080 ca 30 62 3d 5a 3b 5d bd 08 b7 1c bd 34 7a 74 bd
       0.05522231 -0.05401168 -0.03826049 -0.059686854
000090 99 9e 90 bd ee 24 15 3d 2f 84 28 bc 20 96 56 3d
       -0.070615 0.036412172 -0.010285421 0.052389264
0000a0 88 33 6f 3d a9 37 40 3d 3b 14 9e 3d 98 6e 8b bd
       0.058398753 0.04692808 0.077187024 -0.068082035
0000b0 72 0b 3a bd 6e 58 33 3d 8e cc 1e bd a2 77 02 bc
       -0.04542107 0.043785505 -0.038769297 -0.007963093
0000c0 49 40 8b 3d 3f 12 43 3d 5a 21 14 bd dc 06 9a 3c
       0.06799371 0.047624823 -0.03616462 0.018802099
0000d0 82 a1 47 bd de e7 75 3c b7 97 8d 3d 9e 71 93 bd
       -0.04873801 0.015008895 0.06913703 -0.07199405
0000e0 d4 6a 6c bc c9 07 a5 3d 58 81 84 bd cc f4 1c 3d
       -0.014429767 0.080581255 -0.06469983 0.038319394
0000f0 db 6d 93 3c 86 c3 30 bd e5 28 92 bd 4e 91 8e 3d
       0.01799672 -0.043155216 -0.07136706 0.069613084

net.4.weight f4 [3, 64]
000000 04 80 fe bd 65 15 71 3d 02 be 07 bc 7b d3 43 3d
       -0.12426761 0.058858294 -0.0082850475 0.047809105
000010 f2 86 f1 bd 12 ff 6a 3d 2d 4f a5 3d 5b 6f d0 3c
       -0.11793317 0.05737216 0.08071742 0.025443723
000020 fa 7f 99 bd 7b c9 b6 3d 1e b2 80 3d 3c ea 73 bc
       -0.07495113 0.08925148 0.06283973 -0.014887389
000030 9d b4 33 3d c7 41 5d 3c ab 5f 11 3d 65 12 a9 bd
       0.043873418 0.013504452 0.035491627 -0.082554616
000040 08 a6 b7 bd fa 98 bb bd dd cd 62 3d 09 ed e6 bc
       -0.08967215 -0.09160037 0.055372108 -0.028189199
000050 04 05 97 3d 39 f7 43 bc 4a 33 0a bb 98 54 c2 3d
       0.073740035 -0.011960798 -0.00210877 0.09488791
000060 c7 c7 75 3c 02 67 e7 bd aa 67 3b bd 02 59 b0 3d
       0.015001244 -0.11298944 -0.04575316 0.08610727
000070 65 19 af bc 3b 24 67 3c 21 d0 c7 3d 27 e5 aa bb
       -0.021374414 0.014107759 0.09756494 -0.0052153054
000080 6e d0 c2 bd bc 3f df bc 7c 7d d6 bc 6f 05 63 bd
       -0.09512411 -0.02725207 -0.026182882 -0.055425104
000090 3a 1a 4f bd 36 05 86 bd 1b 2f 8a 3c 8f c9 48 3d
       -0.05056212 -0.06543963 0.016868165 0.049020346
0000a0 13 05 0d 3d d4 c7 00 3c 97 e2 4f 3d c1 d2 9b bd
       0.034428667 0.007860143 0.050753202 -0.076085575
0000b0 d9 7f 4a bd 4f bf 89 bd 73 ad dc bd a5 53 ce 3d
       -0.04943833 -0.06725942 -0.1077527 0.10074548
0000c0 a1 5e e6 3d 17 fa e0 3d 4d e2 7a bd 06 6a eb 3b
       0.11248518 0.10985201 -0.061250973 0.00718427
0000d0 e9 93 af bd df 11 36 3d b8 4f cd bc 55 f4 5e 3d
       -0.085731335 0.044450637 -0.025062427 0.054432232
0000e0 1c 07 ea 3d c1 ea d9 3c 7d 81 6d bd 7d 20 1f 3d
       0.11427137 0.026601197 -0.057984818 0.038849343
0000f0 a8 51 64 bc 4f 86 ad 3d 11 a5 bb bc f7 82 a4 bd
       -0.013935484 0.08472883 -0.022905858 -0.08032792
000100 00 04 dd bd c0 37 ca 3c d7 e9 86 bc c0 d4 90 3d
       -0.107917786 0.024684787 -0.016468925 0.07071829
000110 80 d1 bc 3c f4 9e 36 bd a6 22 a3 bc 94 ad ad bd
       0.023049116 -0.044585183 -0.019913983 -0.08480373
000120 80 bb 6f 3b 78 16 e4 bc e6 d3 f5 bd 62 ba 17 3d
       0.0036580265 -0.027842745 -0.12003307 0.037042983
000130 fb 96 38 bc 2c 0c cb bd 48 69 46 bd 18 9c 94 bc
       -0.011266465 -0.09914431 -0.048440248 -0.018140838
000140 94 1c 75 3d ca 99 37 bc 60 ba 86 bd 14 da 4c 3d
       0.059841707 -0.0112061 -0.06578517 0.050012663
000150 5c 32 fe 3d a4 e6 dc 3d 28 be 92 3c 46 67 a1 bd
       0.12411949 0.10786179 0.01791294 -0.07881026
000160 40 9f 4e 3b ba 8f c6 bd 7a 9a c7 bd 4a 93 e7 bd
       0.0031528026 -0.096953824 -0.09746261 -0.1130739
000170 ab 5c 72 bc 38 52 f2 bc 85 e9 cb 3d b8 bb 94 3c
       -0.014792602 -0.02958022 0.0995665 0.018155918
000180 6c 07 2f bd 50 bc 82 bd 50 03 78 bc c0 bd e8 bd
       -0.042731687 -0.06383574 -0.0151375085 -0.11364317
000190 90 e2 f4 bc c2 43 ed bd ae f6 b0 bd 96 1f 93 3d
       -0.02989319 -0.115851894 -0.086408004 0.07183759
0001a0 ee 77 a8 3d 40 81 12 bc e0 b8 92 bd a0 0a 44 3d
       0.08226 -0.008941948 -0.07164168 0.047861695
0001b0 68 32 4c bd 68 99 da bc ee 41 8a 3d 5c 29 44 3d
       -0.04985276 -0.026684478 0.06750856 0.047891006
0001c0 98 f3 aa bc 8d 6b 3e 3d 1a 91 b6 bd 28 09 97 bd
       -0.020868108 0.046489287 -0.08914395 -0.07374793
0001d0 86 a7 9c bd 94 7e 6d bd e8 9c ee bd 5e 99 f9 3d
       -0.0764914 -0.057982042 -0.11651021 0.121874556
0001e0 34 c8 e1 bd d2 83 a3 3d c8 f9 12 3d 4e ac bd bd
       -0.11024514 0.07984127 0.03588274 -0.0926138
0001f0 80 7e ca bd 08 55 4c bd 6e e9 d1 bd 3e e4 85 bd
       -0.09887409 -0.04988578 -0.10249601 -0.06537674
000200 f0 10 84 bc 03 ec 55 3c fd 57 10 3d ce 2a 91 3c
       -0.016121358 0.013056758 0.035240162 0.017720606
000210 96 68 ae bd 32 ca 9f bb d4 b4 a7 3c 69 dd b9 bd
       -0.08516042 -0.0048763985 0.020471968 -0.09075434
000220 e0 f8 e0 3d 22 4b df bd 90 94 95 bc 2c 75 f9 bd
       0.10984969 -0.10903002 -0.018259317 -0.12180552
000230 71 bd 15 3d 83 5c d5 3b 16 be 61 bd 15 9d 33 bd
       0.03655762 0.0065112724 -0.05511292 -0.043850977
000240 3c 94 02 3c ef a4 bb 3d 18 54 60 bb e7 29 c1 3d
       0.007969912 0.09162318 -0.0034229811 0.0943182
000250 2b cd 0e bb 73 9b a8 3d 8f d0 81 3c e6 eb d1 3d
       -0.002178977 0.082327746 0.015846519 0.10250072
000260 fa 05 b3 bd 56 39 b5 3d 27 de 27 3d 80 c6 8b 3c
       -0.08741374 0.088488266 0.040983345 0.017062426
000270 4f af 3a 3d cb 1b 3c bd ec 50 c9 3d 93 43 7c bd
       0.045577344 -0.045924943 0.09829888 -0.06158788
000280 75 c1 b7 3c 89 b8 2b bd a8 e6 75 3d 67 fa 17 bc
       0.022431115 -0.041924033 0.060034424 -0.009276009
000290 d3 a8 be bd cb da ff 3a e2 47 a2 bd 37 f1 b8 3d
       -0.093095444 0.0019520161 -0.07923867 0.09030383
0002a0 17 6f fb 3d 76 2b 17 3c ec 0a da 3d 84 28 4f bd
       0.12277048 0.0092266705 0.106466144 -0.050575748
0002b0 dd 0b 53 3d 9d ed ac bd 5a a1 b3 3b 5b 91 f1 3d
       0.051524986 -0.08443759 0.005481881 0.117953025
0002c0 11 67 41 bd 03 6c bb bd 74 9a cc bb db 7c 58 bd
       -0.047217432 -0.09151461 -0.006243998 -0.052853446
0002d0 94 64 93 bd 09 24 11 3d 29 d7 85 3d df fb dd 3d
       -0.07196918 0.035434756 0.06535179 0.10839056
0002e0 4a fe 15 3d 3a 0d 72 bd f4 2a f1 bd e9 ce 98 39
       0.036619462 -0.059094645 -0.11775771 0.0002914586
0002f0 b5 f7 cf bd 69 93 8e bd 42 0d 7e 3d a0 03 5b ba
       -0.10154668 -0.0696171 0.062024362 -0.0008354727

net.4.bias f4 [3]
000000 d3 ff d7 3d fa c4 e2 bd e5 9b 11 bd
       0.105468415 -0.110727265 -0.035549063
