models/actor_servertestcuda5v5_ep0.pth (torch, 288544 bytes, 10 tensors)

lstm.weight_ih_l0 f4 [320, 80]
000000 79 c3 a0 3c f4 94 e7 bc 2d d1 49 3d 8f 61 7a bd
       0.019624459 -0.028269269 0.04927175 -0.061128195
000010 98 96 63 3d a7 4d 32 3d 4c 82 b2 3b ea 28 cb 3d
       0.05556354 0.043531086 0.0054476615 0.09919913
000020 df a2 8b 3c fb 6a 90 bc 6c d6 17 3d 76 b4 64 bd
       0.017045436 -0.017629137 0.037069723 -0.055836163
000030 ba 41 5e bd 65 39 d9 bd a8 81 06 bd 14 cd b8 3d
       -0.0542619 -0.1060665 -0.032838494 0.090234905
000040 d3 4f ad 3d 88 a4 af 3d e5 62 9c bc ea a7 a1 3c
       0.08462491 0.08576304 -0.019090125 0.019733388
000050 84 4c de 3c 92 0d 01 bd 58 6b 3e 3c 31 e7 2e 3d
       0.027136095 -0.031507082 0.011622272 0.04270095
000060 bf 62 b1 3d 5c 88 20 bd 49 a5 c6 bd 44 9a 04 3d
       0.086614124 -0.039192542 -0.096994944 0.03237368
000070 0e bf ec 3b bf ed 72 bd 0f f5 55 3d b5 76 ba bd
       0.007224924 -0.059308764 0.05223566 -0.09104673
000080 3d 87 d5 3d 89 32 de 3d 57 fa d9 3d ac a0 0f 3c
       0.10426185 0.108494826 0.10643452 0.0087663345
000090 f9 87 c5 bd 35 c6 69 bd b1 8b 15 3d 21 1b 67 bd
       -0.09645075 -0.05707379 0.036510173 -0.056422357
0000a0 92 e9 ce 3d a7 76 8a bc 51 fb 3d bd 93 86 c9 3d
       0.10103144 -0.016902281 -0.046382252 0.09840121
0000b0 b0 98 b3 bb 89 a6 c5 bd e6 1d d4 bd b1 3f 94 bc
       -0.0054808483 -0.09650905 -0.10357265 -0.018096777
0000c0 1a 34 e5 bc 22 eb ae bc b8 ef 37 bd c0 84 55 3d
       -0.027978946 -0.021352354 -0.044906348 0.052128553
0000d0 64 08 a4 3d 30 72 f8 bc 44 46 84 3d d5 c6 c0 bc
       0.08009413 -0.030327886 0.064587146 -0.02353231
0000e0 af 8b 8c 3d 77 48 66 bd 6d 8c 0a 3d 89 60 e2 3c
       0.0686258 -0.05622145 0.033825327 0.027633922
0000f0 dd 30 ce bd b0 ed 24 bd 1d c6 6c bd a8 2d dc 3d
       -0.10067914 -0.04026574 -0.057806123 0.10750896
000100 ee e9 bc 3c 7c 62 bf bc 9d 17 9a bd 20 38 b8 3b
       0.023060765 -0.02336239 -0.07524035 0.005621925
000110 63 8b b6 3d 63 04 d5 3d f4 6f 80 bd d9 e6 9a bc
       0.08913305 0.10401227 -0.06271353 -0.018908905
000120 1c 76 41 bd 8e 3d 61 3d 8b 52 48 bd 37 12 93 3d
       -0.04723178 0.054990344 -0.048906844 0.071812086
000130 38 14 db 3d 2a 9d cc 3d a0 72 55 3c 98 02 06 3d
       0.10697216 0.09990914 0.013027817 0.032717317
000140 e9 61 d1 3d 00 ef 06 bd 34 46 42 3d 1e fb bc 3d
       0.10223753 -0.032942772 0.047430232 0.09227584
000150 df 69 1c 3d 49 eb ad 3d c9 95 9f bd 83 70 0f 3d
       0.038186904 0.08492143 -0.07792241 0.03501941
000160 03 ac 30 3d 78 0b 2d bc 71 cf 7e bd b8 e1 19 bd
       0.043132793 -0.010561816 -0.06220955 -0.037568778
000170 0f 87 cf bd 9f bd 86 3d 5f 2a d8 3d c0 26 4d 3d
       -0.10133182 0.06579136 0.10554957 0.050085783
000180 d2 4d 2b 3c 05 7c 5e bd fe a7 5a bc 29 8e c4 3d
       0.0104555655 -0.054317493 -0.0133457165 0.095974274
000190 87 43 d2 3d 1e 69 44 b9 fd ea 2b bd a0 5d 5f ba
       0.10266786 -0.00018731176 -0.04197215 -0.0008520726
0001a0 b7 95 88 bd c4 0c ab 3d 06 ac 4f bc f6 de aa 3d
       -0.06669181 0.08352044 -0.012675291 0.08343308
0001b0 53 56 3d bd 5c 04 a8 3d 92 dd 3a 3d 36 97 07 3d
       -0.046224903 0.082039565 0.045621462 0.03310319
0001c0 fd c9 de bc ac 42 00 bd ea 3e 00 3d 82 91 8c 3d
       -0.027195925 -0.031313583 0.03131 0.06863691
0001d0 3f 64 ca bd 47 aa 8d 3d 21 48 4f 3d da 0a 7f 3d
       -0.09882402 0.069172435 0.050605897 0.06226621
0001e0 93 e1 ae 3d 1f 0d bf bd 76 5f 71 3d f6 9c 31 bd
       0.085391186 -0.093286745 0.05892893 -0.04336258
0001f0 1c e6 7e 3d 30 97 38 bd e2 22 d5 3c 3a 8b 0c 3a
       0.06223117 -0.04506606 0.02601761 0.00053613225
000200 0c 3c 8e bc bb 37 d4 3c 6d c5 c0 3d 0c 90 b9 bd
       -0.017362617 0.02590548 0.09412656 -0.09060678
000210 82 bb 86 3d be 0d 80 bd da bf f3 bc da 9e 8d bc
       0.06578733 -0.06252621 -0.029754568 -0.01728766
000220 5b 4b 2f 3d aa 06 20 bd 83 7d 20 bd 7c bd 3a 3d
       0.042796474 -0.039068855 -0.039182197 0.045590863
000230 5f f6 d9 bd ba 0e a9 3d ca 1e 5f bc 6c 71 45 bd
       -0.10642695 0.08254762 -0.0136181805 -0.04820387
000240 c9 bc 0d bd 52 b8 cd 3d 1b 1d a8 3d 6f 8f a7 bd
       -0.034603868 0.10044922 0.082086764 -0.08181655
000250 42 5a 8d 3c 9c cc 87 3d 68 7a 00 bd 50 6a 82 3c
       0.017254952 0.06630823 -0.031366736 0.015919834
000260 64 69 a2 3d 3c 13 cd 3d 6c 38 ad 3d 7e 1e d5 3b
       0.07930258 0.10013434 0.08458027 0.006503879
000270 ad 47 db 3c 12 cd 17 3b 8f 84 b9 3d 12 12 01 3d
       0.026767576 0.0023163003 0.09058487 0.031511374
000280 3a f7 5f 3d 4b c6 cf 3d 78 b2 48 3c 3e af 3a 3d
       0.054679133 0.10145243 0.0122495815 0.04557728
000290 11 45 7c bd cf e0 c7 3c b7 6a 89 bc a6 56 38 3c
       -0.061589304 0.02439919 -0.016774518 0.011251127
0002a0 e7 d9 5d bd 93 4f 85 bd d2 45 6d 3d 19 a9 00 bd
       -0.054162886 -0.06509318 0.057927914 -0.031411264
0002b0 82 a4 e3 3d 5e a0 91 3d 05 eb 8f bd b5 c1 44 bd
       0.11115362 0.07110666 -0.07027248 -0.048036296
0002c0 25 ed 3c 3c 89 23 ea 3c f8 bf 47 bc 92 e3 0f bd
       0.011531149 0.028581398 -0.012191765 -0.035129137
0002d0 8b b1 8a bc 07 4c a1 3d 35 25 70 bd 18 87 b3 bd
       -0.016930362 0.07875829 -0.058629233 -0.087660015
0002e0 f1 e5 93 3c 8d f8 7a bd f1 3b 0b bd 15 75 d3 3d
       0.01805398 -0.061272193 -0.03399271 0.10325066
0002f0 ff 8f c6 3d 90 29 7c bd 4a 00 9f bc 64 68 a2 3d
       0.09695434 -0.061563075 -0.019409318 0.07930067
000300 89 04 9d 3d 91 e1 d8 bc 3d a3 24 bd 29 7d b5 bd
       0.07666881 -0.026474746 -0.04019474 -0.08861763
000310 5b 28 87 bd 5f 76 d1 3d 0e 17 0e 3d c1 9f df bc
       -0.06599494 0.102276556 0.034689955 -0.027297856
000320 2a 8d 55 3d ee 12 96 bd 3e bc 2c bd cd cd 7c bd
       0.052136578 -0.07327829 -0.04217171 -0.061719704
000330 81 27 c5 bd 54 be a2 3d c0 8f 84 3d 0d 37 13 bd
       -0.096266754 0.079464585 0.06472731 -0.035941172
000340 e2 42 44 bd d7 0c 2e bc 84 b0 71 3d 42 2c 6b 3d
       -0.047915347 -0.010623178 0.05900623 0.057415254
000350 ac 32 26 bc 18 c1 d8 3d 0c ea a9 bd ec e2 cf 3c
       -0.010143917 0.10583705 -0.08296594 0.02537676
000360 38 fe ba bc aa 12 d3 3d c9 6d b5 bd f9 ca 85 3c
       -0.0228263 0.10306294 -0.088588305 0.016332136
000370 b8 b1 0d bd b8 70 a4 bd 4b 36 20 bc 2b dc 91 bd
       -0.034593314 -0.08029312 -0.009778569 -0.07122072
000380 0a 3f a3 bd ba fe 90 bb 62 35 73 3d d4 92 b5 bd
       -0.07971008 -0.004424897 0.05937708 -0.08865896
000390 46 b4 b2 3c db e6 bd 3d 3c 2e f6 3c 98 10 81 3d
       0.021814477 0.09272548 0.030051343 0.06301993
0003a0 54 df 9a bd be 2a e4 bd 05 18 1f bd 3a 4e b0 3d
       -0.07562128 -0.11140965 -0.038841266 0.086086705
0003b0 75 68 7e bd d0 1a 9c 3d 61 0c f3 3a 83 31 9a bd
       -0.062111337 0.076223016 0.0018543118 -0.07528975
0003c0 1d c2 44 3c 22 f3 7d bd 19 ed d9 bd e8 b5 b5 bd
       0.012009171 -0.061999448 -0.10640926 -0.088725865
0003d0 86 80 8c 3d a3 70 c7 3d 1f 9e ad bd 65 65 92 bb
       0.068604514 0.097382806 -0.08477425 -0.0044676536
0003e0 89 48 39 3c 6a 0f 81 3d 9f fe 23 bc 7b f9 0d 3d
       0.011308798 0.06301768 -0.010009437 0.03466175
0003f0 76 7b aa 3d e2 79 e0 bc 80 04 20 3d 55 a5 77 3d
       0.083243296 -0.027401868 0.03906679 0.060460407

lstm.weight_hh_l0 f4 [320, 80]
000000 f4 33 42 3d 11 c3 e3 3d e0 6c 42 bd d2 e0 cd 3d
       0.047412828 0.1112119 -0.047467113 0.10052647
000010 66 75 8c 3d 87 ab 24 3d 79 54 90 bd 87 75 91 bd
       0.068583295 0.040202644 -0.07047362 -0.07102495
000020 84 96 18 3d d9 2d cc bd 68 08 9c bd 1e ef 8c 3d
       0.037252918 -0.09969682 -0.07618791 0.068815455
000030 d2 a9 c1 3d b4 74 15 3d 88 28 c4 bd c1 11 6f bd
       0.09456219 0.03648825 -0.09578043 -0.05836654
000040 4f 98 b9 bd 52 ab 83 bd 01 c9 53 bd b4 ae d8 3d
       -0.09062254 -0.06429161 -0.051705364 0.10580197
000050 a6 ab 48 3d 70 19 f5 bc 78 03 8b bc fc bc f9 3c
       0.04899182 -0.029919356 -0.016969427 0.030485623
000060 b9 a4 c7 3d 3f e4 02 bd 9e 3f 47 3c d5 e1 9b 3d
       0.09748215 -0.031955954 0.012161164 0.076114334
000070 00 36 c7 3b e4 8e e0 3d be 2b 37 3c 1b a7 d0 bc
       0.0060794353 0.10964754 0.011179863 -0.025470307
000080 60 e9 be 3c cc 0d 32 bb 0a bb b4 bc 0f 75 18 bc
       0.023304641 -0.0027168868 -0.022061843 -0.009305253
000090 4b 5e d3 3d 0f a9 c1 3d 98 bd 8b 3d a4 18 a2 3c
       0.10320719 0.094560735 0.068232715 0.01978714
0000a0 69 a2 8a 3d 7c 49 48 bb 19 9e a4 3d 16 40 bc bd
       0.067692585 -0.0030561378 0.08037967 -0.09191911
0000b0 64 e3 ae 3c ed 83 e3 3c 19 6a 25 3c 8e b0 13 bd
       0.021348663 0.027772868 0.010096096 -0.036057048
0000c0 9f 10 85 3c 32 58 d4 bd 46 23 ab bd cb 4f 78 3d
       0.016243277 -0.103683844 -0.08356337 0.06062297
0000d0 c7 20 33 bd 12 e0 83 3c 19 05 98 bd 52 e1 ac bd
       -0.04373243 0.016098056 -0.07422847 -0.08441414
0000e0 c4 40 c5 bd c5 06 c3 3d e1 df 71 bd 60 31 94 bd
       -0.09631494 0.095227756 -0.0590514 -0.0723598
0000f0 cf 8a 81 3d 26 34 b4 3d 26 ec da 3d 6b 67 a8 3c
       0.06325304 0.08799009 0.10689573 0.020557126
000100 01 4b 81 bd 73 7e 65 3b 0a fb c9 bd 08 c1 e0 3d
       -0.06313134 0.0035017997 -0.09862335 0.10974318
000110 06 5d ba 3c 94 95 dc bc 00 e1 00 3d 21 ce d8 bd
       0.022749435 -0.026926793 0.031464577 -0.10586191
000120 90 d7 94 3d a8 f1 62 bd a1 ce 5f 3d a0 8a de 3d
       0.07267678 -0.055406243 0.054640416 0.10866284
000130 02 d6 12 3d 7a 7a 63 bc 7f de 8d 3d c3 00 a0 bd
       0.035848625 -0.013884181 0.069272034 -0.07812645
000140 da 09 8c bd a6 2f c3 bd 57 b3 ad bc 4e 2c d7 bd
       -0.068378165 -0.095305726 -0.02120368 -0.10506497
000150 6f 50 d4 3d 1d e7 7c bb 31 c6 14 bd 3d f8 9d bd
       0.10366904 -0.0038589903 -0.036321823 -0.07713363
000160 fe 99 ec bc 80 44 5a bd 98 e7 4a bd ae 4a b0 bd
       -0.028882023 -0.053287983 -0.04953727 -0.08607994
000170 57 e1 5e 3d 36 a8 e2 bd 23 d5 74 bd c9 7a b5 3a
       0.05441412 -0.1106724 -0.059773576 0.0013845797
000180 9f 00 9c 3c c7 17 fe 3c a8 2d 2f bd 5b 0d 9e 3d
       0.019043265 0.031017197 -0.04276815 0.07717391
000190 c4 a8 01 3d 59 56 79 bc 63 02 2d bd fc 20 76 bd
       0.031655088 -0.015218341 -0.042238604 -0.06009005
0001a0 90 e4 83 bd 24 b9 24 3d 90 27 be bd 3a 26 96 bd
       -0.06440079 0.040215626 -0.0928489 -0.0733151
0001b0 2e 73 52 bd 1d 15 2d 3d 59 b8 3e 3d cf 58 63 3d
       -0.051379375 0.042256463 0.046562526 0.055504616
0001c0 6f ba 76 bc 7c d5 d3 bd 53 89 8a bd ec db b7 3d
       -0.015059098 -0.10343453 -0.06764474 0.08977494
0001d0 04 a6 48 3d 03 25 e0 3d 0a fe e2 3d 2e 00 a0 bc
       0.04898645 0.109445594 0.1108361 -0.019531336
0001e0 d3 5e a9 3d bd 56 ce 3d fc 2c 09 bd 72 1a 23 3d
       0.082700394 0.10075138 -0.033490166 0.039820142
0001f0 5e 57 25 bd a0 03 59 3d 2c df af 3c 79 26 09 3d
       -0.040366523 0.052981973 0.021468721 0.033483956
000200 ff 27 dc 3d 5c 1c a2 bd f4 da d5 bd 22 04 25 bc
       0.10749816 -0.07915565 -0.104421526 -0.010071786
000210 92 58 d3 bb 26 d2 cf bc c0 f1 9a 3c db 2c 71 3d
       -0.0064497674 -0.025368761 0.018914104 0.058880668
000220 7a c8 88 bd 08 ad c3 3d ac 32 c4 bb 8a ec 8d 3d
       -0.06678863 0.095544875 -0.005987486 0.06929882
000230 b2 bf a9 3d 12 9d dd bd 71 a6 d7 3d a7 a5 82 bb
       0.08288516 -0.108209744 0.10529793 -0.0039870325
000240 9e 15 be bc 95 03 dc bd 87 f8 86 3d d1 7b 52 3d
       -0.023203667 -0.10742871 0.065903716 0.05138761
000250 dd 72 af 3d d9 71 ab bc b1 2b c9 bc f1 df 21 3d
       0.0856683 -0.02092831 -0.024556966 0.039520208
000260 21 d8 1f 3d e5 48 46 3d ba 56 b4 bd fe 37 ce bd
       0.039024476 0.04840936 -0.08805604 -0.100692734
000270 3e 40 b5 3d c8 9c ab 3d b8 eb dc bd 6b d5 89 3d
       0.08850144 0.08379513 -0.10787147 0.06730159
000280 95 a3 2f bc 8d 40 81 bb 57 fe 03 bc a7 37 d8 bd
       -0.010720153 -0.0039444626 -0.008056245 -0.1055749
000290 34 1e 99 bd 0c 9b d1 bd 5d 66 f9 3c 38 20 51 3c
       -0.07476464 -0.10234651 0.030444318 0.012764029
0002a0 f2 b9 04 3b 39 db 5f 3d e5 fd 3a 3d d2 c8 d7 bd
       0.0020252434 0.054652426 0.04565229 -0.1053635
0002b0 9d 32 0f 3d 52 9a 97 3d e6 28 60 3d 52 9b 3d bd
       0.034960378 0.07402481 0.054726504 -0.046290703
0002c0 fb 8f ac bd 6f 3c 87 bd d1 ec d4 3d 62 f8 9f bc
       -0.084258996 -0.06603324 0.10396732 -0.019527618
0002d0 51 8e c2 bd 35 3f b6 bd 40 d1 3c 3c b1 a5 82 bd
       -0.09499801 -0.088987745 0.011524498 -0.063792594
0002e0 ad b6 a3 bc c4 74 df bd 68 d1 98 3c d4 84 e0 3d
       -0.019984568 -0.10910943 0.01865454 0.10962835
0002f0 73 a0 08 bd 3c 6c 4b 3c f9 9d a4 3d e4 bf 8e bd
       -0.03335614 0.012415942 0.080379434 -0.06970194
000300 2d 98 b5 bd 74 07 2b 3d 51 cd 51 3d f8 d2 87 3b
       -0.08866916 0.041755155 0.051221196 0.0041450225
000310 02 78 ce 3c 37 82 78 3d c5 1f a2 3b 34 e2 81 3d
       0.025203709 0.060671058 0.004947635 0.06341973
000320 73 3e cf 3d f6 06 a1 3d 69 31 8a bd 64 a2 1f bd
       0.10119333 0.07862656 -0.067477055 -0.038973227
000330 77 20 b7 bd e9 46 bb 3d 39 6d c6 3d f6 40 77 3d
       -0.08941739 0.091443844 0.09688801 0.060364686
000340 99 a0 b3 3c 0c fc 20 3d 5f 55 00 bc dc 5f 56 3d
       0.021927165 0.03930287 -0.007832854 0.052337512
000350 28 0a b2 3d cc 05 0f bd b2 95 8c 3d 97 9b b8 3d
       0.086933434 -0.034917638 0.068644896 0.090140514
000360 30 93 36 38 45 4a 8b 3d 8d 6a 76 3c 84 20 b9 bd
       4.352926e-05 0.06801275 0.015040052 -0.09039405
000370 db 9f 8d bc a0 c4 e0 3d c4 5f d1 3d c9 5e 22 3d
       -0.01728814 0.10975003 0.10223344 0.039641175
000380 6c 8b a2 bd 63 b9 1b bd bf 5a 57 bd 79 05 bf 3d
       -0.07936749 -0.038018595 -0.052576777 0.09327216
000390 dc 4d 32 bc 9d 23 e8 bc 13 68 4d bd 5e 78 be 3b
       -0.010882821 -0.028337294 -0.05014808 0.0058126887
0003a0 7a 5e d8 bc ec 37 af bd 4f da 7c bd 4f f1 eb 3c
       -0.026412237 -0.08555588 -0.061731633 0.028801588
0003b0 7b fd b5 3c f4 3e bb bc 2d 14 6b 3d 72 a6 7a 3d
       0.022215595 -0.022857167 0.057392288 0.06119389
0003c0 d8 06 8f 3d a2 31 52 ba 6b 31 89 bd 95 0b dc bd
       0.06983727 -0.000801826 -0.06698879 -0.107443966
0003d0 57 38 84 3d c9 bf 21 bd a5 4c 3a ba 03 0d 12 bc
       0.064560585 -0.03948954 -0.0007106758 -0.008914235
0003e0 df 2e 93 bd 73 ae 82 3d 26 c8 a7 bd 99 67 85 3d
       -0.07186674 0.0638093 -0.08192472 0.065139
0003f0 d6 a2 2d bd 94 28 69 bd fd ee 7a 3d 01 5f b7 bd
       -0.04239162 -0.056923464 0.061263073 -0.089536674

lstm.bias_ih_l0 f4 [320]
000000 ef 1c 89 3d 3e 45 e2 bd 06 21 21 bc 4d 5c 52 3d
       0.06694972 -0.11048363 -0.009834534 0.051357556
000010 1e 39 01 3d 8c 22 ba 3d b8 b5 cc bb 28 0b 1b bd
       0.03154861 0.090886205 -0.0062472485 -0.037852436
000020 74 56 a2 3d 53 61 a0 3d dc 72 72 bd 79 b5 c7 bd
       0.07926646 0.07831063 -0.05919157 -0.0975141
000030 72 5b d1 bc ee a2 8b bc 36 d7 ad 3d a8 11 c5 3d
       -0.0255563 -0.017045464 0.08488314 0.09622508
000040 7f 3f 32 bc f9 ab 91 3d 82 a1 16 3d 4e 48 b8 3d
       -0.010879396 0.07112879 0.03677512 0.08998166
000050 7a 02 80 3d 0f 71 6b bd a2 0a 98 3d 01 45 cb 3d
       0.06250472 -0.057480868 0.07423903 0.09925271
000060 3c 72 46 bd aa a8 3d 3d 2d f1 6d 3b 05 42 94 3d
       -0.048448786 0.04630343 0.0036307082 0.07239155
000070 d8 92 6f bd 82 f2 78 bd 71 ef b0 3d e3 47 94 bd
       -0.05848965 -0.06077815 0.0863942 -0.07240274
000080 70 23 dc bd c2 c9 a1 bd 19 ba 56 3c 02 4a 2c bd
       -0.10748947 -0.078998104 0.013105893 -0.042062767
000090 a1 e0 b0 3c 75 83 be bd cd d3 b2 bd 44 c1 99 bd
       0.021591486 -0.09302417 -0.08731804 -0.075075656
0000a0 7a c5 51 bd 43 5e 1e 3d 73 89 bf 3d 9c 67 c1 bd
       -0.05121372 0.038664114 0.09352388 -0.0944359
0000b0 b9 6c 3c 3d d0 68 4d bd e5 d0 57 3d 91 5f 6e 3d
       0.046002124 -0.050148785 0.05268945 0.058196608
0000c0 ff f8 b8 3d 40 13 ba bd ec 0c 96 bd 4d 0e 41 bd
       0.09031867 -0.09085703 -0.073266834 -0.04713278
0000d0 27 9b f3 bc 4e 9b b1 3d 75 a8 bd 3d 4e 21 df 3c
       -0.029737068 0.086722 0.09260646 0.02723756
0000e0 4a 83 ba 3d 42 2c 35 3d cb 85 82 bd 14 4e 9f bc
       0.09107073 0.04423166 -0.06373175 -0.01944641
0000f0 0e 19 ea bc 59 02 d3 bd 4b 75 ba 3d e7 17 7e 3d
       -0.0285764 -0.10303182 0.09104403 0.062034514
000100 b9 ab ac 3d 29 da 8b bc 79 fd 65 bd de d4 95 3d
       0.08431191 -0.0170718 -0.056149933 0.07315992
000110 19 d0 31 3d 40 80 cd bc 55 ec dd bd b7 37 95 3d
       0.043411348 -0.025085568 -0.108360924 0.072860174
000120 fa 67 dd bd 7d 76 39 3d 5f 6e 16 bd 8d e5 b9 3d
       -0.108108476 0.045279015 -0.03672635 0.090769865
000130 8a 74 1f 3c de 08 a0 3d 3e 5a a9 bd cf 62 03 bd
       0.009732375 0.07814191 -0.082691655 -0.032076653
000140 ca 20 13 bd c6 dc 7e 3c 99 7b 08 3d 0e 02 b3 bd
       -0.035919942 0.015555566 0.033320997 -0.08740626
000150 40 2f 3f 3d dd 8e ba 3c 6b 92 9f bc 22 36 b2 3c
       0.04667592 0.0227732 -0.019478997 0.021754328
000160 8d a3 e0 bd fc 5f 22 bd c7 bc 9c 3d 0c eb b7 3d
       -0.10968695 -0.03964232 0.07653194 0.089803785
000170 68 d9 e7 bb 3c 3f d7 3d 7e 5b 71 bd 7a 23 2b bd
       -0.0070754774 0.10510108 -0.058925144 -0.04178188
000180 32 81 b7 3d 03 24 d8 3d 6f 35 61 3d 5c f1 87 bd
       0.08960189 0.10553744 0.0549826 -0.066378325
000190 9b 73 6d 3d e8 af b2 3d 27 25 8c 3b 1d f3 98 3c
       0.057971578 0.08724958 0.00427689 0.018670613
0001a0 35 5b c4 3d ff 5b 3d bd cf 8d 81 3c dc 95 e1 bd
       0.09587709 -0.046230312 0.01581469 -0.110149115
0001b0 92 c9 aa 3d 96 86 d7 bc 2e 52 df bd d0 cd 16 3d
       0.08339228 -0.026309293 -0.109043464 0.03681737
0001c0 4b c3 d9 bd cb 9f a3 3d c7 70 d8 bd 42 15 28 3d
       -0.10632952 0.079894625 -0.105683856 0.041035898
0001d0 d3 23 13 bd c7 0b 90 bd 6c 7a 9f 3d 2f 50 06 3d
       -0.035922837 -0.07033496 0.07787022 0.032791313
0001e0 a1 be aa 3d 12 4d 53 3d 7a fb f6 bc ad b9 65 bd
       0.08337141 0.05158717 -0.03014921 -0.056085277
0001f0 98 79 8d bb c2 c1 9a bb 26 99 2b bd bb de 85 3c
       -0.0043174736 -0.0047228048 -0.0418941 0.016341558
000200 96 92 6b bd 5b 12 9b 3d 10 21 6b 3d 15 92 b5 bd
       -0.057512842 0.075718604 0.057404578 -0.088657536
000210 1f f9 e2 ba 39 61 44 bd 9d 9a 92 3b f7 2c cd bd
       -0.0017316676 -0.04794428 0.0044739977 -0.10018342
000220 13 10 9e bd ae 11 6e 3d 6b bd bd 3d cc b4 8f 3c
       -0.0771791 0.05812233 0.09264644 0.017542265
000230 18 ac a5 3d 5d b1 99 3d 1b a0 38 3c 93 ef b3 bd
       0.08089465 0.075045325 0.011268641 -0.087859295
000240 0d 6b 18 3d 05 59 b5 3c 16 a3 ce bd d9 a8 73 bc
       0.037211467 0.022137174 -0.100897 -0.014871799
000250 4a 7c b3 bc 44 ae 69 bd 7c 78 ee 3c d5 87 32 3d
       -0.021909852 -0.05705096 0.029110186 0.04358657
000260 7a f0 cf 3c f6 20 d9 3c 3e 0b ab bd 51 34 99 bd
       0.025383223 0.026504975 -0.08351754 -0.07480682
000270 7c ea e7 3c d2 14 6c bd 65 f8 88 3d 8a 7d 6c bd
       0.028310053 -0.057637043 0.066880025 -0.05773691
000280 ba d4 34 bd 49 39 fd bc 5f 21 18 3d 8d cb 7c bc
       -0.044148184 -0.030911105 0.0371412 -0.01542939
000290 d5 15 7e bd be bc b2 3c 09 7d d0 3d 85 44 ba 3d
       -0.06203254 0.021818515 0.101800986 0.090951
0002a0 b4 88 a5 3d 3b 7a 66 bc 76 3e be bd 98 aa 0e 3c
       0.08082715 -0.014067228 -0.09289257 0.008707665
0002b0 75 54 ee ba 66 83 d3 3d 34 9c fc 3b c2 1a cb bc
       -0.0018183129 0.10327797 0.0077090506 -0.024793033
0002c0 f8 90 9e 3d c0 13 96 3d 7d bc a1 3d 85 36 12 3d
       0.07742494 0.07327986 0.078972794 0.035696525
0002d0 be 05 5d 3c 2e a2 a9 bd e9 0d ab 3d c1 3f 73 bc
       0.013490139 -0.082828864 0.083522625 -0.014846743
0002e0 ab 08 32 bd 7e f4 85 3d a4 0c a1 bd cd 43 05 bd
       -0.043465298 0.06540774 -0.07863739 -0.032535363
0002f0 05 b7 73 bd 7a 0c bd bc 79 de 3d 3c f3 b3 b1 3d
       -0.059500713 -0.023077238 0.011588686 0.08676901
000300 51 d3 b7 3d 49 12 c5 bd 2f 51 dd 3d d9 d6 1a 3d
       0.08975852 -0.09622628 0.108065 0.03780255
000310 6a 3a cc 3d 8b 8e bb bd 35 6d b9 3c 13 2c a5 bc
       0.09972079 -0.09158047 0.022635082 -0.020162618
000320 97 85 27 bd d9 e3 e1 3c ac 32 87 3c 1d f4 b6 3d
       -0.040898886 0.027574467 0.016503654 0.0893328
000330 98 8d 1d bd f4 4d 90 3d e3 d4 fb bc 92 2f 7a bd
       -0.038465112 0.070461184 -0.03074116 -0.061080523
000340 1f 19 3c 3d 77 42 e3 ba 8d 93 46 3d 5c 54 c9 3b
       0.045922395 -0.0017338534 0.04848056 0.0061440896
000350 57 b7 90 3d f0 e3 af 3d cf 52 cc 3d 92 95 aa 3c
       0.07066219 0.085883975 0.09976732 0.020823274
000360 eb ca c7 bd bd 98 3f bd 6b 14 b4 bd 6a 35 01 bd
       -0.097555004 -0.046776522 -0.08792957 -0.03154508
000370 87 b2 05 3d 26 66 b5 3d 9c 20 ca 3d 92 af 80 bc
       0.03264096 0.08857374 0.09869501 -0.015708718
000380 d0 fa cf 3d 79 c7 a1 bc 5d 65 74 3d 2a 81 2a 3b
       0.101552606 -0.019748436 0.05966698 0.002601693
000390 f3 68 8d 3d 9e f5 c7 bd 0d 0a 92 3c 4f 3e ac 3c
       0.06904783 -0.09763645 0.017827058 0.021025805
0003a0 6c 00 d3 bd 75 64 9a bc 1d 87 01 bd 59 9d 73 bd
       -0.10302815 -0.01884673 -0.031622995 -0.05947623
0003b0 55 f2 a7 3b 86 bc 71 bc 0c 1e 74 3d 50 49 ca 3d
       0.005125324 -0.01475442 0.059598967 0.098772645
0003c0 2b 80 38 3d 88 32 08 bd 9d 01 c2 bd 18 96 09 bd
       0.045044105 -0.033251315 -0.09472964 -0.033590406
0003d0 2d f0 e1 bc d7 56 be bd 1c 26 7b 3d 67 f2 ed 3b
       -0.027580345 -0.09293907 0.06131564 0.0072615626
0003e0 cf 11 6e bd 14 b6 a1 bd d9 bc b9 bd 9d 9a 57 bd
       -0.058122452 -0.07896057 -0.09069223 -0.052637685
0003f0 af 79 ac bd 5f 6c 70 3d 14 b0 12 bc 6a 96 2e 3c
       -0.08421647 0.0586971 -0.008953113 0.010655979

lstm.bias_hh_l0 f4 [320]
000000 39 55 c6 3c 2a 4f b7 3d 5d 21 d1 3d 3f e1 5f 3d
       0.02421056 0.08950646 0.10211442 0.05465817
000010 da 25 23 bd 12 b8 96 3d 42 2c 35 bd 03 63 dc 3b
       -0.03983102 0.073593274 -0.04423166 0.0067256703
000020 a3 85 94 3d bc 8a 83 3d fd 5d 94 3c b3 79 9e 3d
       0.07252052 0.06422946 0.018111223 0.07738056
000030 99 d8 79 3c ae 8d b5 3c 9e 98 e0 3d 0f f9 c8 3d
       0.015249395 0.022162285 0.109666094 0.09813129
000040 ff 23 45 bd bf 10 ba 3c 97 c9 8f bd 38 69 84 3d
       -0.04813003 0.022713063 -0.07020872 0.064653814
000050 86 a5 45 bb cf 3f 26 3d e2 f2 b5 3d 8b 70 11 bc
       -0.0030158474 0.040588196 0.08884217 -0.00887693
000060 73 c7 3b bd e7 6e 8d bd 26 38 d7 3d 03 ae 23 3c
       -0.045844506 -0.069059186 0.10508756 0.009990218
000070 69 9a 07 bd 78 e2 8f bc 60 92 dc 3d 62 3e be 3d
       -0.03310624 -0.017564043 0.10770106 0.09289242
000080 55 ab 61 bd 89 c6 65 3d c9 3d af 3a 19 0d de bc
       -0.055095036 0.05609754 0.0013369854 -0.027105855
000090 c9 f4 05 3b 1d 9b d3 bd 49 f6 73 bd fe 75 b7 3d
       0.0020440093 -0.1033232 -0.059561048 0.08958052
0000a0 f3 1f a8 bc b5 95 a9 bb 0f 13 c5 3a 6d ed ae 3d
       -0.020523047 -0.005175317 0.0015035587 0.08541379
0000b0 9c 02 ae 3c 6d ca 52 3d 7d 01 81 3d d5 42 13 bd
       0.021241479 0.05146258 0.06299112 -0.035952408
0000c0 30 60 16 bd ee 10 52 3c c5 3f de bc 78 72 b8 bd
       -0.036712825 0.012821419 -0.027130017 -0.09006208
0000d0 26 60 63 bc b3 56 d3 3c ee b0 a8 3d e8 0a c1 bd
       -0.013877904 0.025798177 0.08236872 -0.09425908
0000e0 41 93 8e 3c c4 01 b9 3d eb 73 9c bd 3c bd b0 bd
       0.0174042 0.0903354 -0.07639297 -0.086298436
0000f0 83 e3 32 bc 05 51 e4 bd 53 a3 bb 3c 9e 31 d4 3d
       -0.010918501 -0.11148266 0.022905027 0.10361026
000100 f4 bd e5 3c 42 f4 5b 3d 35 6c 9e 3c cd fb 41 3d
       0.028044678 0.05369974 0.019338707 0.047359277
000110 72 51 e3 3b 24 c6 36 bd 5b cd c7 bd 11 0e 5a 3d
       0.0069371993 -0.044622555 -0.09755965 0.05323607
000120 86 bd b1 bd a5 cb df bd 3f 5a 92 bd ac 0a 7a 3d
       -0.08678727 -0.10927514 -0.07146119 0.061045334
000130 e0 42 2a 3d 6c f8 0e bd 31 e3 e8 3c ea ca d0 bd
       0.041567683 -0.034904882 0.028428646 -0.10194953
000140 49 a6 ac bd 22 aa 45 bd 50 4d 74 3d d4 79 7e bb
       -0.08430154 -0.048257954 0.059644043 -0.003882994
000150 90 e5 f5 3c 16 52 e3 3d 67 4c 91 bc c4 59 ed bc
       0.03001669 0.11099641 -0.017736627 -0.028973468
000160 5e 0f e3 bc 85 c9 b0 3d 2d 0a c7 3c 08 28 8d bd
       -0.027717289 0.08632187 0.024296844 -0.06892401
000170 1a 85 99 3c c8 d2 dc bd 61 3a d0 bc 44 75 a4 3d
       0.018740226 -0.10782391 -0.025418462 0.08030179
000180 ab 96 9f bd be ec 89 3d f9 ae 28 bd 95 61 b2 bd
       -0.077924095 0.06734608 -0.041182492 -0.087100185
000190 21 8c b9 3d d1 84 61 bd 46 ec b2 3d f8 a9 d5 3d
       0.090599306 -0.055058304 0.08736472 0.104328096
0001a0 91 66 db bd 3c f8 9b bb 42 8f 8f bc 03 d2 2a bd
       -0.10712922 -0.0047598165 -0.017524365 -0.04170419
0001b0 70 c3 d8 bc 29 cf 1b bd 6c 69 e1 3b 25 45 f2 bc
       -0.02646038 -0.03803936 0.0068790223 -0.029573986
0001c0 76 bc b4 bd 4e 00 df bd ec f0 6c bd e5 e8 8e bc
       -0.088250086 -0.1088873 -0.05784695 -0.017445037
0001d0 06 b8 63 3d 62 af 23 3d e6 59 bb 3d 69 fb da bd
       0.05559542 0.03996218 0.09148006 -0.10692484
0001e0 2f 70 fd 3b 83 49 91 3d c3 30 b0 3d 74 76 73 bd
       0.0077343206 0.070940994 0.086030506 -0.059439138
0001f0 87 cb ad bd e0 c5 4c bc 97 07 65 3d 62 ef 3d bd
       -0.084860854 -0.012498349 0.05591544 -0.04637087
000200 01 7e d7 3d a7 39 d1 3c 39 79 a1 3d 1c 51 df 3d
       0.1052208 0.025540186 0.078844495 0.10904142
000210 c9 19 4f bc 86 b9 6c 3c b7 67 dc bd 8e 21 46 bd
       -0.012640425 0.014448529 -0.107619695 -0.048371844
000220 09 64 af bd b4 f2 9b 3d f2 22 d2 3d 31 f4 4d bc
       -0.08564002 0.07614651 0.102605715 -0.012570427
000230 a2 b3 8d 3d a7 16 5c 3d 93 15 00 bd 73 c6 9f bd
       0.06919028 0.05373254 -0.031270575 -0.07801523
000240 a5 7c c1 bd 04 52 5a 3d 17 ca 1b 3d ee f5 93 bc
       -0.09447602 0.053300872 0.038034525 -0.018061604
000250 10 66 5e 3d b5 b3 be 3d f3 6d 0c 3d a0 bd ab bc
       0.054296553 0.0931162 0.034284543 -0.020964444
000260 a7 b6 b3 3a b9 66 92 bd bc 39 31 bd 2c 91 00 bd
       0.0013711051 -0.07148499 -0.04326795 -0.031388447
000270 3f 87 33 3d d9 47 be 3d d1 62 45 3d ce 9e d0 bb
       0.043830153 0.092910476 0.04818994 -0.0063665872
000280 5f c2 de 3d 27 33 30 bd 17 e7 61 bc 5d d8 bd bd
       0.10876917 -0.043017533 -0.013788006 -0.09269784
000290 25 09 8d 3d 03 53 63 bb ca 1e 03 3c f2 c4 dc bd
       0.0688651 -0.003468693 0.008002946 -0.10779752
0002a0 25 1a a6 3d c2 6c 19 bd 72 2b ad 3c b0 90 0a 3d
       0.081104554 -0.037457235 0.02113888 0.03382939
0002b0 01 72 c3 3c 51 cb df 3d 61 8d aa 3d d3 40 77 3a
       0.023858072 0.109274514 0.08327747 0.0009431962
0002c0 6e ea bb bd 1f b4 9d bc eb cf 6f bb fe 57 8b bd
       -0.09175573 -0.019250927 -0.0036592435 -0.068038926
0002d0 ee 2e 9c 3d 1c 41 10 3b cd 56 3f 3d a6 81 89 3d
       0.07626139 0.0022011464 0.04671364 0.067141816
0002e0 6d d6 92 bd 3b 22 d1 3c e6 c7 99 bd 7f fd dc bc
       -0.07169805 0.025529018 -0.07508831 -0.026976345
0002f0 ba 81 85 3d b3 e8 d6 3d bb bd 47 bd d3 f6 97 3d
       0.06518884 0.104936026 -0.048764925 0.07420125
000300 76 49 ca 3c d1 66 19 bd bf 1c 1f 3d aa 50 09 bd
       0.024693232 -0.03745157 0.038845774 -0.033524193
000310 24 9f 9d 3d 32 40 cb bd 4e 47 b5 3d 35 6e c5 bd
       0.07696369 -0.09924354 0.08851491 -0.09640161
000320 8b fe d2 3d 2d 62 4d 3c 3c 6e 9b 3d cb 8d 98 3c
       0.103024565 0.012535614 0.07589385 0.0186223
000330 da c7 97 bd c3 92 06 3c dd 73 78 bd dc 34 aa bd
       -0.074111655 0.008213702 -0.06065737 -0.083108634
000340 48 3d b3 3d 06 f7 15 3d 95 9a 29 3d 09 c1 5a 3c
       0.08751923 0.036612533 0.041407187 0.013351687
000350 cf 9f a1 3d e7 e9 08 bd 40 69 03 3c 60 24 5c 3d
       0.07891809 -0.03342619 0.008020699 0.053745627
000360 a1 65 d6 ba bf d7 96 3d 26 2c 86 3d a1 06 33 3d
       -0.0016357192 0.07365369 0.065513894 0.043707494
000370 11 13 70 bd c3 17 e8 bc 21 cf 4d 3c 3a 6c 1a 3c
       -0.058611933 -0.028331643 0.01256159 0.009425217
000380 1e c9 97 bd 35 a7 3a bb 71 cd 58 bc dd a0 bf bd
       -0.07411407 -0.002848101 -0.013232575 -0.09356854
000390 c6 14 9d bb 64 9f de 3d 5c 7b be 3d fb 76 33 3c
       -0.004793736 0.10870245 0.09300873 0.01095366
0003a0 4a 05 cb bc 90 2b b0 bd 1f af d0 3d 9a e2 94 3d
       -0.024782795 -0.08602059 0.10189652 0.07269783
0003b0 e4 57 c7 bd f4 54 90 bc 25 45 bf bd 86 ae c2 bd
       -0.09733561 -0.017618634 -0.0933936 -0.09505944
0003c0 e6 df 5c 3b 47 22 5c bc 96 7d 2a 3b c7 7b a3 bd
       0.003370279 -0.013435907 0.0026014796 -0.07982593
0003d0 ee 63 59 3d 06 6b a8 3d db c3 6f bd d8 5f 46 3c
       0.053073816 0.08223538 -0.05853639 0.012107812
0003e0 42 32 c0 3d ee 83 b9 bd e4 b7 84 bd 77 50 d6 3d
       0.09384586 -0.09058367 -0.06480387 0.10464566
0003f0 d1 b9 18 3d e2 9c 00 bd b7 9a c7 3d a4 de 09 3d
       0.037286583 -0.031399615 0.097463064 0.033659592

net.0.weight f4 [128, 80]
000000 52 36 ce bb a0 19 c3 bc e4 3d 0e bd 68 d7 04 bc
       -0.0062930966 -0.02381593 -0.034726992 -0.0081079975
000010 b1 66 7d 3d 39 2a 41 bd 13 fe c3 bd 1a 86 a8 bd
       0.061865512 -0.047159407 -0.09569945 -0.08228703
000020 e7 b7 fc bc 9c 23 7d bd 62 89 68 bd b0 b3 d1 3c
       -0.03084941 -0.061801538 -0.056771643 0.025598377
000030 f7 c9 b7 bd cd dc 92 bd a2 41 0b bb 1c 07 6b 3c
       -0.089740686 -0.07171021 -0.0021248837 0.014344957
000040 df c3 a7 3d 07 3d 97 3d 93 2f 3f bd f7 60 23 3d
       0.08191656 0.07384687 -0.04667623 0.039887395
000050 8f 96 96 bd 85 ea c2 3d c1 06 d9 3d e5 fa 1c bc
       -0.073529355 0.09517387 0.10596991 -0.009581302
000060 1a 1d d0 bd 12 d8 d0 3d 4c 40 45 bd 2d 38 63 3d
       -0.10161801 0.10197462 -0.04815702 0.055473495
000070 19 2f b0 3d a1 b4 5b bd 4d de f8 3c c2 56 74 bc
       0.08602733 -0.053639058 0.030379439 -0.014913263
000080 87 a3 e1 bd ec 99 be 3d 7b fc 11 3d bf fc 82 3b
       -0.110175185 0.09306702 0.035641175 0.003997415
000090 9b 05 ac bd 6d f1 83 3c 05 5f a4 bd bc 41 a5 bc
       -0.08399507 0.016106332 -0.08025936 -0.020172946
0000a0 71 46 dd 3d 61 4a 7d 3d 29 4d 6d bd e0 a3 c3 3d
       0.10804451 0.06183851 -0.057934914 0.09552741
0000b0 f9 83 92 3d 2c 95 27 bd ef 49 81 bd 7a af 0a bd
       0.07154078 -0.040913746 -0.0631293 -0.033858754
0000c0 30 72 61 3d 88 90 f4 bc fd 14 3d bd b5 d4 6d 3d
       0.05504054 -0.029854074 -0.046162594 0.05806418
0000d0 a6 03 4f bd a8 ed 1b 3d 82 e6 f3 bc 04 5d b8 3d
       -0.05054059 0.038068444 -0.029773 0.09002116
0000e0 e5 d9 a3 3c d2 60 7b 3d 9e bb df 3d ca 4b b8 bd
       0.020001361 0.061371632 0.10924457 -0.089988306
0000f0 08 ed 8e 3d 91 9e de bd 66 22 c2 3b 9f 85 0b bd
       0.06978804 -0.10870088 0.005924511 -0.034062978
000100 6c c8 12 bd 7c a5 5e 3d 34 7f 55 3c 43 c4 3b bd
       -0.03583567 0.054357037 0.013030816 -0.045841467
000110 f7 49 52 bd f2 2f 1f bc 6a 29 68 3d e4 fb 27 bd
       -0.05134007 -0.009716021 0.05668012 -0.041011706
000120 df 7e 03 bd 89 16 78 3c 92 a5 8f 3d 49 1b 78 3c
       -0.032103416 0.015142092 0.07014002 0.015143224
000130 96 b4 aa 3d a4 a8 99 bd e3 cb af 3d b9 c6 ac 3d
       0.08335225 -0.07502869 0.0858381 0.08436341
000140 69 3e c1 3d 01 6e 94 bc 11 71 d9 3d 3a ba d1 3c
       0.09435732 -0.01811886 0.10617269 0.025601495
000150 5d a1 a9 3d f5 cc bf 3d 66 8b af 3d eb e4 d7 bc
       0.08282731 0.09365264 0.0857151 -0.026354274
000160 7e 64 07 bd a5 18 ef bc 6f f0 4f bd 66 35 c2 3d
       -0.03305482 -0.029186556 -0.050766405 0.09482841
000170 95 04 88 bc 34 a2 0b bd 0d f3 ff 3b 0c b9 ae bc
       -0.016603747 -0.034090236 0.0078109563 -0.021328472
000180 b5 5d 66 3d 76 a7 5b bd 64 4d c4 3a 3f d9 20 bc
       0.05624171 -0.0536265 0.0014976677 -0.0098174205
000190 4e ad 97 bd a7 1f fc ba 23 59 93 bd 5b 2b f7 b8
       -0.07406102 -0.0019235507 -0.07194736 -0.000117859534
0001a0 45 3a dc bd 31 7e 95 3b b2 07 87 bd 4b ad e3 3c
       -0.107533015 0.0045621623 -0.06593265 0.027792593
0001b0 71 c0 4f bd 07 53 8d bd 08 80 1b 3d 73 90 5e bd
       -0.050720636 -0.06900602 0.037963897 -0.054336976
0001c0 65 8c ae bd da 77 d6 3d ed b1 93 bd 36 b8 a0 3b
       -0.08522872 0.104720786 -0.07211671 0.004904772
0001d0 31 89 2d bc 65 18 91 3d cd 11 63 3d a4 a6 27 bb
       -0.010591791 0.07084731 0.055436898 -0.0025581503
0001e0 51 d5 bc 3d ce 75 d1 bc 9b 14 c9 3d c9 85 81 3d
       0.092203744 -0.025568869 0.09818383 0.063243456
0001f0 30 15 9d 3d 73 28 ca 3c 2c 52 e4 bd 52 a6 74 bd
       0.07670057 0.02467749 -0.111484855 -0.059728928
000200 11 28 af 3d bb 6f 9f 3b c8 e8 8e bc f9 5b cb bd
       0.08552564 0.004865614 -0.017444983 -0.09929652
000210 d0 cd 3d bd 6d c7 16 3d 37 02 9d 3d 66 e5 ba bd
       -0.046338856 0.03681128 0.07666438 -0.091257855
000220 68 c8 ac 3d 4b e5 7b bb ef 75 a2 3d e4 b4 85 bc
       0.08436662 -0.003843623 0.0793265 -0.016321607
000230 d4 28 c3 3d c3 4a 96 bc a0 cc 27 3d ee 4c cb 39
       0.09529272 -0.018346196 0.04096663 0.00038776494
000240 20 21 96 bd b7 cf 4e 3d e7 cd e3 3d 4b 89 ca bd
       -0.07330537 0.05049106 0.11123257 -0.09889468
000250 9c e3 ac 3b 92 84 8c bd 97 2f d3 bd 80 89 cd 3c
       0.0052761566 -0.06861223 -0.103118114 0.02508998
000260 bb 7f d3 bd c3 78 ac 3d b2 52 6f bd 7d 5a 5c 3d
       -0.10327097 0.08421471 -0.058428474 0.053797234
000270 95 16 8f 3d 45 d6 6b 3d 56 8a af bd 31 02 55 3d
       0.06986729 0.05757739 -0.08571307 0.052004043
000280 08 6b b0 3d 6c d1 e1 3d 59 0a 3b bd 5d 72 b0 3b
       0.086141646 0.11026272 -0.045664165 0.005384727
000290 4d 46 f7 bb 21 a9 11 bd f9 9a a4 bd a6 4e d4 3d
       -0.0075462223 -0.035561685 -0.08037371 0.103665635
0002a0 d0 32 8d 3d 12 7f ae bd be 22 b3 bd e5 44 b5 bd
       0.06894457 -0.085203305 -0.08746861 -0.08851031
0002b0 1e a0 82 3c 2e 90 8f bd a3 04 3d bd 3e cb ba 3d
       0.01594549 -0.07009922 -0.046147 0.091207966
0002c0 bf 29 b0 3c 88 07 ae 3b 9b 06 44 3d a6 f6 8e bc
       0.021504281 0.0053109564 0.047857862 -0.017451596
0002d0 49 fa c3 bd 06 25 47 3d 23 2c 21 3d 46 78 89 bc
       -0.095692225 0.048619293 0.039348733 -0.016780984
0002e0 fd 58 85 3d 74 a7 c6 bd d3 34 f2 3b 5c 0e a5 bc
       0.06511114 -0.09699908 0.007391551 -0.020148449
0002f0 47 35 88 bd 34 9c 7d 3d 58 25 c7 bb 56 96 92 bd
       -0.06650787 0.061916545 -0.00607745 -0.071575806
000300 4f 9c bc 3b 89 6a 5e 3d a6 00 99 bd b8 61 a9 3b
       0.005755938 0.05430082 -0.07470827 0.0051691197
000310 61 5d 99 3d 2d 69 18 3d c8 1f 92 3d 0a e7 be bd
       0.07488514 0.03720968 0.07134968 -0.09321411
000320 5e 40 7a 3d d3 ae a7 3d 59 eb e2 3d be 72 98 bd
       0.06109654 0.08187642 0.11080045 -0.0744376
000330 ad 9c a0 3c 9b 9c ab bd c4 cd 1c 3d ff 41 d4 bd
       0.019605959 -0.083794795 0.03828217 -0.1036415
000340 69 93 e4 3d 6a fa d7 bc e3 11 37 bd b8 ad d8 bc
       0.11160929 -0.026364524 -0.044694792 -0.026450023
000350 37 82 51 3c b8 8a e5 bc f2 78 6d bd 84 11 c1 bd
       0.012787393 -0.028020248 -0.05797667 -0.09427169
000360 1c 32 c7 bd 3d 6d 3b bd fa 42 4b bd 4d 00 53 bc
       -0.097263545 -0.045758475 -0.04962442 -0.01287849
000370 3b 91 20 bd 31 cc 9f 3c e5 0a b8 bd 91 d5 87 bc
       -0.039201003 0.019506546 -0.08986453 -0.016581329
000380 f9 ad bb bc 44 f1 ac 3d 65 ea 89 3c 66 9e 74 bd
       -0.022910105 0.08444455 0.0168354 -0.059721373
000390 dd 69 64 3d 8e 3b 78 bd ca 09 d2 bd 9d 7a bf bd
       0.05576502 -0.06060367 -0.10255773 -0.093495585
0003a0 31 94 cb 3d bf f3 b8 bd 26 72 01 bd 2c 99 e3 3d
       0.09940375 -0.09030866 -0.031603 0.111131996
0003b0 83 7a 97 bd e7 39 9b bd 13 ae 88 3d be 52 de bd
       -0.07396414 -0.07579403 0.06673827 -0.108556256
0003c0 5e 39 e0 3d 91 ee 2c 3b 0e 97 72 bd 68 a3 70 bd
       0.10948442 0.0026387314 -0.05922609 -0.058749586
0003d0 35 7c 16 bd 29 10 b2 bd 7b 1f 16 3d 08 c2 63 bc
       -0.036739547 -0.086944886 0.036651116 -0.013901241
0003e0 8a 21 09 bd 28 db bc 3d 5a 89 bc 3d 9f 23 08 bd
       -0.03347925 0.09221488 0.09205885 -0.033237096
0003f0 7f 45 10 3d 30 35 55 3c d9 7d e4 bd d4 b5 ea 3c
       0.035222527 0.013013169 -0.11156816 0.028651156

net.0.bias f4 [128]
000000 b8 a4 8b 3d db 50 bf bd f0 fc 9e bc 86 6b 0f 3d
       0.06818527 -0.09341594 -0.01940772 0.03501465
000010 e4 dd a3 3c a3 64 cb bd 49 87 9a bc 1c 69 02 bc
       0.020003267 -0.09931304 -0.018863337 -0.00795963
000020 75 ee 8b 3d 62 6e 42 bd 45 e5 e2 3d aa d1 4a bc
       0.068325914 -0.04746855 0.11078886 -0.012379089
000030 b8 ba c2 3d 43 e4 b9 3d 2c ff b4 bd 5a 13 1e bd
       0.0950827 0.090767406 -0.08837733 -0.038592674
000040 6c d1 ed ba 85 5f 6c 3c 59 fd 29 3c 40 94 20 3d
       -0.0018144078 0.0144270705 0.010375344 0.039203882
000050 63 9d db 3d f4 2a c2 bd 75 d9 81 bd ef b6 a6 3a
       0.107233785 -0.09480849 -0.06340305 0.0012719313
000060 93 12 6d 3d 05 14 af bd 0b 74 3a 3d de a8 a9 bd
       0.057879042 -0.0854874 0.045520823 -0.08284162
000070 09 5e 52 3d 95 f1 93 3d 43 8e 70 bc 48 4b db 3b
       0.05135921 0.072238125 -0.014682355 0.006692324
000080 07 54 3c bc 66 42 e2 bd 56 97 db bd f7 95 b5 3d
       -0.011494643 -0.11047821 -0.107222244 0.08866494
000090 41 65 7d bd ab 18 b5 3d 1e cb 5c bd c6 67 e1 3d
       -0.06186414 0.08842596 -0.053904645 0.11006121
0000a0 80 db d4 bd d4 e1 dd bb f5 28 bc bc c5 c7 e0 bd
       -0.10393429 -0.0067713056 -0.022968749 -0.10975603
0000b0 50 f7 80 bd 4b 54 05 3d eb 50 c6 3d 0e ba de 3c
       -0.06297171 0.03255109 0.09683403 0.027188327
0000c0 7e c2 dc 3c c3 95 8b 3c c9 c0 b7 bd d9 78 1a 3d
       0.02694821 0.017039185 -0.08972318 0.037712906
0000d0 3e 42 11 bd db aa c9 3d 88 49 c7 bd cb c0 c8 bd
       -0.035463564 0.09847041 -0.09730822 -0.09802397
0000e0 f9 e0 6b 3d a8 ff bd 3d df 52 9f 3d 69 f9 22 3d
       0.057587598 0.09277278 0.07779478 0.039788637
0000f0 5d 9a ae bd b9 08 0b 3c d6 ac 29 bd 5a be b6 bd
       -0.08525536 0.008485966 -0.041424595 -0.089230254
000100 b5 5e cb 3c 2c a8 2b 3d f4 88 34 bd f7 cf 26 3d
       0.024825433 0.041908428 -0.04407592 0.040725674
000110 67 73 cb bd 33 04 0e 3d f0 99 4e 3c 93 bc 04 3c
       -0.099341206 0.034671973 0.012609944 0.0081016
000120 42 25 a4 3d 55 f3 98 bd 42 a2 90 bd 67 03 a3 bb
       0.08014919 -0.07468287 -0.07062198 -0.004974771
000130 15 24 26 3c 8f f2 66 bd 05 8d d2 bd 45 59 4c bd
       0.010140439 -0.056383666 -0.102808036 -0.04988982
000140 fc 21 cd bd d1 ca 67 3d 6c 76 2d bd 70 8d 8c 3c
       -0.10016248 0.056589905 -0.042349264 0.017157286
000150 6c 31 1c bd d6 9c 6e bd b9 d2 a9 bc 02 b0 28 3d
       -0.03813307 -0.05825504 -0.020730363 0.04118348
000160 04 b8 de 3c 37 f2 e1 3c 74 94 1d 3c 18 62 fc 3c
       0.027187355 0.027581317 0.0096179135 0.030808493
000170 6b ad bd 3d 15 58 bf 3d fb c0 bc 3c fb 33 dc 3d
       0.092615925 0.09342972 0.023041239 0.10752102
000180 69 9a 25 3d 04 b8 4e bc b4 7b 81 3d 38 7c 91 3d
       0.04043046 -0.012617115 0.063224226 0.07103771
000190 98 db ae bd d6 b8 e3 3d f8 b8 6e bc b0 84 bb bc
       -0.08537978 0.11119239 -0.014570467 -0.022890419
0001a0 87 43 98 3d c5 d7 8e bd cf 36 98 bd c8 0d b8 bd
       0.07434755 -0.069747485 -0.07432329 -0.089870036
0001b0 e6 18 95 bc 3b da aa bd eb 48 d3 bc 13 25 df bd
       -0.018200349 -0.083424054 -0.025791606 -0.10895743
0001c0 06 74 a8 bb 3b c4 b8 3d a2 e0 52 bd fe 5f ac 3d
       -0.005140784 0.09021803 -0.051483758 0.084167466
0001d0 56 45 58 3d 65 ea 09 3b e4 18 af 3d 90 23 b9 3d
       0.0528005 0.002104425 0.085496694 0.09039986
0001e0 03 8f b0 3c eb 35 b5 3d c6 7f e3 3d 5f da 7e bd
       0.021552568 0.08848175 0.11108355 -0.062219974
0001f0 57 fd 0d bd 91 65 86 3c 29 3b c0 bb 90 99 b1 bd
       -0.03466543 0.016405853 -0.0058664274 -0.08671868

net.2.weight f4 [64, 128]
000000 6a eb ad bd 42 f6 a5 bd 0a 6a a5 bc 8d 9c 82 3d
       -0.08492167 -0.081036106 -0.020192165 0.06377516
000010 a1 66 a2 3c 69 b1 0a bd a7 23 85 3c 3b 18 ac 3d
       0.019824328 -0.033860598 0.016252352 0.08403059
000020 e1 ef 88 bd ca e9 30 3d 74 1d 2d bd bd 84 28 bd
       -0.06686378 0.04319171 -0.042264417 -0.041142214
000030 6f 4d 4b 3d 10 ec 9e 3d ab bc 82 3d 35 e2 88 bd
       0.049634393 0.07759869 0.06383642 -0.066837706
000040 b1 d9 2c 3d d5 ce d2 bc 8a c6 b2 bd ed 48 38 bb
       0.042199794 -0.02573339 -0.087292746 -0.002811964
000050 e8 31 e5 3c b4 2f a5 3d 01 99 1d 3d 03 fe c9 3c
       0.027977899 0.08065739 0.038475994 0.024657255
000060 5d bf 81 3d 5a 2f 68 bc b6 2c 1a 3d 18 49 3e 3d
       0.06335328 -0.014171446 0.037640296 0.046456426
000070 15 7c 85 bb 53 25 3f 3d 2c ab 25 3d 2d 9c 86 3d
       -0.0040736296 0.046666455 0.040446445 0.06572757
000080 e9 36 9c 3c 6c f1 2a bc 9b 8a 0d bd d3 99 de 3c
       0.019069152 -0.010433536 -0.034556013 0.027172958
000090 35 eb 62 bd 18 c3 7f 3d b5 0d ab bd a6 3c 5c 3d
       -0.055400092 0.062441915 -0.08352224 0.053768776
0000a0 d3 62 21 bd 55 f5 22 3d d6 ad 9c bb ce 91 53 bd
       -0.039400887 0.039784748 -0.004781465 -0.051652722
0000b0 c0 49 61 ba 6b 75 b1 3d 75 40 46 3d fd 8e fd b9
       -0.00085940585 0.08664974 0.048401315 -0.00048362455
0000c0 f6 20 bf ba 48 c6 3f bd 09 e8 a0 bd 0b 47 50 bd
       -0.0014581967 -0.046819955 -0.07856757 -0.050849
0000d0 9f 87 00 3c 9e a4 77 3d c9 6d ab bb 04 3d d1 3c
       0.007844835 0.060459726 -0.0052315933 0.02554179
0000e0 5c 01 89 3d d0 43 87 3b 18 f6 ae 3d aa 17 af bd
       0.066897124 0.004127957 0.085430324 -0.085494354
0000f0 a1 41 39 3d cb fa c3 3c 23 eb eb 3b 30 11 0e bd
       0.045228604 0.023923298 0.0071996613 -0.03468436
000100 5b 2a 94 bc de 58 c3 bc a1 1e aa bd 62 52 45 bd
       -0.018086603 -0.023846086 -0.08306623 -0.04817427
000110 44 d4 02 3d e8 d6 61 3d 96 57 88 3b 93 77 f3 ba
       0.031940714 0.05513659 0.0041608317 -0.0018575065
000120 b9 91 71 bd 6d ce 4d bd 05 14 a1 3d f6 81 2d bd
       -0.058976863 -0.05024569 0.078651465 -0.04236027
000130 70 5d 76 bd e9 de a1 3c 9e 53 95 3d ae cf a0 bd
       -0.060147703 0.019759612 0.07291339 -0.07852112
000140 f7 1e de 3c 97 84 a7 3c 29 25 47 3b 0b d8 8e bd
       0.027114375 0.020448966 0.003038714 -0.06974801
000150 26 0d df bc 89 40 72 3d a3 3f f9 3c 15 15 06 bb
       -0.02722795 0.059143577 0.030425852 -0.0020459343
000160 e8 be af 3b e6 63 79 3d 46 6f 85 3d e5 f7 c8 3c
       0.005363334 0.060886286 0.06515364 0.024532268
000170 26 ad 14 bd 6c ad 69 3d 46 2a 24 3c a9 fa 19 bd
       -0.03629794 0.057050154 0.010019844 -0.037592564
000180 25 61 b2 3d 68 76 f6 bc f8 d7 67 bd 8a 08 20 3d
       0.08709935 -0.030085757 -0.05660245 0.039070643
000190 6e 51 a8 3c 90 d8 bb ba e6 60 99 bd 48 69 5b 3d
       0.020546641 -0.0014331508 -0.07489185 0.0535672
0001a0 c9 0d 2b bd 1f a8 55 39 0e 67 75 bd dd 02 a6 bd
       -0.041761193 0.00020375893 -0.059912734 -0.08106015
0001b0 23 c3 1c bb 67 95 5e 3d bf f2 2f 3c 25 4f 9e 3d
       -0.0023920021 0.0543417 0.0107390275 0.07729939
0001c0 ec 67 20 bd fe 2d 6e 3c 35 13 75 3d a3 a1 4d bd
       -0.039161608 0.014537333 0.05983277 -0.050202977
0001d0 00 7d 18 3d 63 9d 2a bd 07 c1 2f bd c6 b4 fd 3c
       0.037228584 -0.041654002 -0.042908695 0.030969989
0001e0 f6 d4 4c bd 45 ba a6 bc 94 ca bf bb fc 49 b4 3d
       -0.050007783 -0.020352492 -0.0058530066 0.08803174
0001f0 1c 66 ad 3c f4 1d 28 bd ef 25 9d bd e5 07 5c bd
       0.021166854 -0.04104419 -0.07673251 -0.053718466
000200 0d 90 bd bc 65 19 73 3d da 1e b1 bd 44 08 9a 3d
       -0.023139978 0.05935039 -0.086484626 0.07521108
000210 28 69 66 bd 65 e4 35 bc 57 b9 50 3d 1b d7 a7 3d
       -0.05625263 -0.011101817 0.050958004 0.08195325
000220 86 92 a9 bd 0c 28 42 3d 28 ea 9b bd ec 39 9e 3d
       -0.082799 0.047401473 -0.07613021 0.077258915
000230 02 e0 ee bc 86 a4 f6 bc 3d 31 49 bd 29 5d 57 3d
       -0.02915955 -0.030107748 -0.049119223 0.05257908
000240 22 bc 6a bd b0 0a 7a bd 42 34 b1 3b f7 7a 91 bd
       -0.057308324 -0.06104535 0.005407841 -0.07103532
000250 98 27 ad bc b1 7f 80 3c 92 58 1b 3d 4c 79 80 3d
       -0.021137044 0.015685888 0.037926264 0.062731355
000260 4a 48 5f bd 0c 28 38 bd 82 7f 14 bd 6f a5 b2 3d
       -0.0545123 -0.044960067 -0.036254413 0.0872296
000270 4c 90 d6 3c a1 b3 93 bd b2 61 7c bd bf 4f 94 bd
       0.026191853 -0.07211996 -0.061616607 -0.07241773
000280 4c ff a3 bd 74 c2 a4 3d c0 d6 a1 3d 6e ea ac 3c
       -0.080076784 0.080449015 0.079022884 0.021107879
000290 9a 11 4e bd bc 1c 98 bd a5 89 0f 3c e9 ac db ba
       -0.050309755 -0.07427356 0.008760844 -0.0016759905
0002a0 8d 9c 4b bd 08 9d 82 3d a1 80 84 bd 89 65 a0 bd
       -0.049709845 0.063776076 -0.064698465 -0.07831866
0002b0 13 51 b3 3d c9 0b 3a bd 64 c0 9a bd 94 90 77 3d
       0.08755698 -0.045421395 -0.07556227 0.060440615
0002c0 ad 95 95 3c da a8 91 3d 09 f1 20 3c a0 d5 80 bd
       0.018259848 0.07112284 0.009823092 -0.06290746
0002d0 68 09 9b 3d e7 6b 5a bd 07 ee 83 bc 07 a9 6a bd
       0.075701535 -0.05332556 -0.016104711 -0.057290103
0002e0 f9 cf 71 3d ee 09 a7 3b 33 37 8b 3d df 02 a0 bc
       0.05903623 0.0050976193 0.06797638 -0.019532619
0002f0 9e e5 90 3d e4 bc 0a bd 02 c1 93 bd 72 b6 69 3d
       0.07075046 -0.033871546 -0.07214548 0.05705876
000300 7d 93 0f 3d ce 27 9a bb 2d 96 5a bd 8e 4c b0 3d
       0.035052765 -0.004704452 -0.053365875 0.08608352
000310 fd 3f aa 3d 9f 1f 93 3d 46 14 76 bd 42 42 89 bb
       0.08312986 0.071837656 -0.060077928 -0.0041888067
000320 9f f7 67 bd 1d 67 d9 3c 1d df b9 3c 28 3b b0 bc
       -0.056632634 0.026538426 0.022689397 -0.021512583
000330 e1 68 16 bd cb 71 71 3d 62 41 b5 3c 82 92 b3 bd
       -0.036721114 0.058946412 0.022125904 -0.087681785
000340 d5 30 ac bd dc 67 ac bc 17 30 55 3c 31 5c 2a bd
       -0.084077515 -0.021045618 0.013011954 -0.041591827
000350 93 e4 fc bc ab 8d 6b bd 2c 15 92 3d 7a 17 82 bd
       -0.030870711 -0.057508152 0.071329445 -0.06352134
000360 fb 53 7a bc c2 0d 7a 3c 29 92 4a 3d 0f b6 02 bb
       -0.015278812 0.015262069 0.049455795 -0.001994494
000370 b5 ce 87 3d a0 71 41 3d df 8d 6a bc b8 95 78 bd
       0.06631223 0.047227502 -0.014316051 -0.060689658
000380 b8 ea 7a 3d 87 a3 ae bd 49 c8 97 3d 65 ae 19 3d
       0.061259 -0.08527284 0.07411248 0.03751983
000390 8e 4d c3 3c 8b f5 9e 3d ed 25 6a bc f2 f1 1f 3d
       0.023840692 0.07761677 -0.014291269 0.039049096
0003a0 97 57 25 bd 07 7d a9 3d c4 d9 07 bc ad 0f 35 3d
       -0.040366735 0.082758 -0.008291665 0.044204403
0003b0 29 bd 66 3d 4c 72 1e bb 8e 02 b2 bd e9 18 b8 bc
       0.05633274 -0.0024177013 -0.086918935 -0.022472816
0003c0 be 88 60 3d a7 eb 7f bc b6 89 9a bd a3 64 ab bc
       0.054817908 -0.015620149 -0.075457975 -0.02092201
0003d0 96 89 99 3d d2 1c 1d bd 42 c2 d6 3b ec 01 61 3d
       0.074969456 -0.038357563 0.006553919 0.054933473
0003e0 32 b6 eb bc 6a 6d a6 3c ae b3 05 3b 47 62 e1 3c
       -0.028773401 0.020315845 0.0020401287 0.027512683
0003f0 ae 11 9b ba 65 58 a8 3d e9 2b ab 3d 66 a3 17 3d
       -0.001183083 0.08219985 0.083579846 0.037021063

net.2.bias f4 [64]
000000 97 c9 87 3c 85 a4 10 bd b8 5f 8c bd 7c d6 88 bd
       0.016575618 -0.035313148 -0.068541944 -0.06681535
000010 2d 9f af bb 94 23 92 bd 4f cd 5c bd 49 96 ac 3d
       -0.0053595514 -0.07135692 -0.053906735 0.08427102
000020 19 75 8c bd b2 49 26 3d 52 dd a9 bd 46 6a 1a bb
       -0.06858272 0.040597625 -0.082941666 -0.002356188
000030 fe 4e ba 3c 42 5d 01 bd 32 3e 04 3c 1e ce 64 3c
       0.022742745 -0.03158308 0.008071469 0.013965158
000040 1b 81 2c bd fc 3c af 3d 99 23 8f bc 2e 82 a4 bd
       -0.042115312 0.08556554 -0.017473029 -0.08032642
000050 54 79 c7 bc 0e 5f c7 3b b5 2f f0 bc b8 6e 39 3d
       -0.024349846 0.0060843294 -0.029319623 0.045271605
000060 5f 8a 6c 3c 5e 7f 28 3c 29 45 4f bd ff a1 5a bd
       0.014437287 0.010284273 -0.050603066 -0.053377148
000070 24 cc 09 ba 27 70 4a bd f9 18 d2 3c f1 71 bc 3c
       -0.00052565546 -0.049423363 0.025646674 0.02300355
000080 17 17 ae bd a1 58 93 3d ea 7d 27 bd 8d 8a 92 3d
       -0.08500498 0.07194639 -0.040891565 0.07155333
000090 6b 55 28 3d 73 fe 82 bb 65 40 5a bb 05 96 13 3d
       0.041097086 -0.003997618 -0.0033302542 0.03603174
0000a0 00 f6 75 bc 42 e8 62 bd 21 62 75 bb 9d 12 7f bd
       -0.015012264 -0.05539728 -0.0037442523 -0.06227361
0000b0 3f f5 17 3d f9 d0 a8 bd 3c 0b 5d 3c eb a0 86 bd
       0.03709912 -0.08242983 0.013491448 -0.065736614
0000c0 3d d9 93 3d 47 a5 30 bd bb 7d 3e 3d 59 c6 08 bd
       0.07219169 -0.04312637 0.046506625 -0.033392284
0000d0 05 b9 83 3d 84 a1 25 3d 04 1b 67 bd 82 d4 3d 3d
       0.06431774 0.040437236 -0.05642225 0.04634524
0000e0 de a6 84 bc 4d 61 27 bd 48 da 40 bc 09 3b 7a bd
       -0.01619285 -0.040864278 -0.011770792 -0.061091457
0000f0 63 dc 41 3d d3 57 72 bc c2 f8 89 3c f8 f3 75 3b
       0.047329318 -0.014791447 0.01684225 0.003752945
