models/actor_foundertest3v3_ep0.pth (torch, 140582 bytes, 10 tensors)

lstm.weight_ih_l0 f4 [192, 48]
0.06808585 -0.056588598 0.077543244 -0.14157483 -0.101031944 0.056431904 0.08290622 0.13215098
-0.03203509 0.13581017 0.047917947 0.121741176 0.102188826 -0.044616193 0.078454286 0.030386358
-0.12814942 0.08619845 0.028251037 -0.12649114 0.04807973 -0.065990835 0.008426845 -0.1002789
0.017062813 0.12595266 0.033785254 0.08574857 0.00011654198 0.09020521 -0.13641468 0.09364885
0.0064747185 -0.06778301 0.08225834 -0.08367458 0.0059307218 0.010428458 0.04857132 0.077738
-0.061126933 -0.0019070357 0.04638876 -0.08050572 0.05553758 0.09147608 -0.1399639 0.10590047
0.10461508 -0.11854386 -0.07807301 0.016251117 -0.047858305 -0.04128073 0.04761535 -0.041421205
-0.06355613 0.12859088 -0.044211723 -0.027463995 -0.04655905 -0.07313826 -0.13316746 -0.10486529
0.11274475 -0.034188986 0.02848801 0.037708223 0.0996616 -0.13095659 0.11527988 -0.039966427
-0.12570354 0.12058693 0.1418184 -0.07015512 -0.09582633 0.118027866 -0.0049923807 0.1300745
-0.12181072 0.046568885 -0.08677531 0.06813866 -0.06489819 -0.12198041 -0.08975537 0.04153627
-0.11165417 0.11654937 -0.13076985 0.1019765 -0.13991499 0.12712839 0.09827931 -0.06854901
0.13269699 0.05763866 -0.06126772 0.04094106 -0.04117579 -0.083404996 -0.017967507 0.06258209
0.02975221 0.10564023 -0.12812613 0.05915378 0.10139099 0.04714769 -0.074864045 -0.101738684
0.06892575 -0.009036958 0.020386115 -0.010336772 -0.044429846 -0.020549633 0.09427597 -0.052501045
-0.032875694 0.10794428 -0.04169231 -0.121479236 0.02244015 -0.08349693 0.12304407 -0.016707152
0.04707645 -0.08616607 0.008041114 0.11027709 -0.122881696 -0.019227237 0.09938148 -0.1077835
-0.06590702 -0.09420661 0.017430037 0.079524025 0.10094614 -0.012432024 0.019423932 0.013206169
0.12731528 0.09167531 0.033152297 0.10330981 0.119553655 -0.030163042 -0.020755932 0.03518839
-0.06347455 0.14251733 -0.060232684 0.023866445 -0.095320895 -0.06344157 -0.014911994 0.12313655
-0.13209102 -0.14366497 0.05366975 -0.06720418 0.119617045 0.09397662 -0.12549058 0.13458598
0.0051276386 0.08821635 0.025787815 0.0068472773 0.1071288 0.13990492 -0.117002875 -0.0048764944
0.064026535 -0.02579315 -0.019810908 -0.11004458 -0.074866414 0.11094004 -0.08663802 -0.07761721
-0.106306374 0.013521597 -0.10299363 0.012215197 0.019068956 0.0046241432 0.050213695 0.14124167
0.02776198 -0.01037173 -0.02345828 0.0332056 -0.08065791 -0.005705923 0.105843514 -0.04949721
-0.1324977 -0.08214389 -0.12986654 -0.05504083 0.1379529 -0.022059113 0.06121768 0.111374706
-0.020268373 0.043768227 -0.12200326 0.11581686 0.09905028 -0.09396641 -0.1358137 0.037232816
0.043775663 -0.029960297 -0.028904065 -0.071849346 0.1039588 0.07017298 -0.12351838 0.09476428
0.07049137 0.057097733 -0.14376296 0.08477332 0.14003891 -0.013920069 0.0074409097 0.10143024
-0.03675186 0.006083399 -0.06357523 0.03220153 -0.074891396 -0.07706759 0.037997797 0.03544478
0.0282394 -0.03599053 -0.018793896 0.07823978 -0.1139894 -0.05695831 0.022520453 0.078636736
-0.07489794 -0.05130715 0.12409192 0.025641486 0.11494592 0.05922459 0.112189084 -0.14384493
00000000: 9870 8b3d 72c9 67bd fece 9e3d fef8 10be
00000010: d6e9 cebd 2425 673d bcca a93d 9652 073e
00000020: 3a37 03bd d211 0b3e 9c45 443d 7053 f93d
00000030: 6048 d13d 78bf 36bd a4ac a03d d0ec f83c
00000040: 9a39 03be d088 b03d b86e e73c e586 01be
00000050: 40ef 443d 3426 87bd c010 0a3c 065f cdbd
00000060: 50c7 8b3c bcf9 003e 6862 0a3d f29c af3d
00000070: 0068 f438 82bd b83d 4ab0 0bbe f8ca bf3d
00000080: e029 d43b d2d1 8abd 1077 a83d 945d abbd
00000090: 8056 c23b 20dc 2a3c b8f2 463d 1a35 9f3d
000000a0: 3c60 7abd 80f5 f9ba 2402 3e3d 2fe0 a4bd
000000b0: 607b 633d d057 bb3d b252 0fbe 58e2 d83d
000000c0: 6e40 d63d 20c7 f2bd bee4 9fbd 1021 853c
000000d0: 1207 44bd fc15 29bd 5008 433d 48a9 29bd
000000e0: b729 82bd 54ad 033e 5a17 35bd 2cfc e0bc
000000f0: b4b4 3ebd 83c9 95bd 0d5d 08be 9dc3 d6bd
00000100: b8e6 e63d c009 0cbd b05f e93c f073 1a3d
00000110: 621b cc3d 7c19 06be dc17 ec3d d6b3 23bd
00000120: 6eb8 00be 48f6 f63d d838 113e 7dad 8fbd
00000130: 9840 c4bd 98b8 f13d 2097 a3bb 4032 053e
00000140: e677 f9bd 04bf 3e3d 41b7 b1bd 488c 8b3d
00000150: 58e9 84bd ddd0 f9bd aad1 b7bd f021 2a3d
00000160: f1aa e4bd 70b1 ee3d 88e8 05be 0ed9 d03d
00000170: e045 0fbe f22d 023e aa46 c93d 6c63 8cbd
00000180: b8e1 073e 8416 6c3d dcf3 7abd d0b1 273d
00000190: f2a7 28bd 3dd0 aabd 9830 93bc 0a2b 803d
000001a0: e8ba f33c e859 d83d 7f33 03be 3c4b 723d
000001b0: 14a6 cf3d f01d 413d 5252 99bd 5f5c d0bd
000001c0: f228 8d3d c00f 14bc c800 a73c 905b 29bc
000001d0: 12fc 35bd b457 a8bc c213 c13d 560b 57bd
000001e0: aaa8 06bd e411 dd3d 8ec5 2abd 1bca f8bd
000001f0: 68d4 b73c 7000 abbd 88fe fb3d 70dd 88bc
00000200: 3cd3 403d d677 b0bd e0be 033c f4d8 e13d
00000210: 66a9 fbbd 7082 9dbc 8488 cb3d 98bd dcbd
00000220: 42fa 86bd 65ef c0bd 70c9 8e3c 7edd a23d
00000230: dabc ce3d b0af 4bbc f01e 9f3c b05e 583c
00000240: f05e 023e 44c0 bb3d b4ca 073d 1894 d33d
00000250: 8cd8 f43d 7c18 f7bc 5808 aabc b421 103d
00000260: f2fe 81bd 10f0 113e 8cb6 76bd 9083 c33c
00000270: 9a37 c3bd a7ed 81bd 7051 74bc 042f fc3d
00000280: de42 07be e91c 13be d0d4 5b3d 58a2 89bd
00000290: c8f9 f43d d076 c03d 9a80 00be e8d0 093e
000002a0: c005 a83b c6aa b43d f840 d33c 205f e03b
000002b0: 5866 db3d 3c43 0f3e 349f efbd 00cb 9fbb
000002c0: 5820 833d 284c d3bc 7c4a a2bc 0e5f e1bd
000002d0: 9053 99bd 8834 e33d 466f b1bd c6f5 9ebd
000002e0: 28b7 d9bd b089 5d3c 53ee d2bd 4022 483c
000002f0: 8036 9c3c 2086 973b e0ac 4d3d a8a1 103e
00000300: 186d e33c 30ee 29bc 942b c0bc 9802 083d
00000310: f92f a5bd c0f8 babb 7cc4 d83d 96bd 4abd
00000320: 7aad 07be 0e3b a8bd bcfb 04be 7e72 61bd
00000330: 8643 0d3e 50b5 b4bc 64bf 7a3d 6c18 e43d
00000340: dc09 a6bc 5046 333d d8dc f9bd 6431 ed3d
00000350: e0da ca3d 7671 c0bd bf12 0bbe 7081 183d
00000360: 1c4e 333d 4c6f f5bc 38c8 ecbc c025 93bd
00000370: 5ae8 d43d dab6 8f3d 34f7 fcbd c613 c23d
00000380: c85d 903d 50df 693d 9936 13be a29d ad3d
00000390: 5c66 0f3e 0011 64bc e0d2 f33b a8ba cf3d
000003a0: 1e89 16bd 4057 c73b bb33 82bd c0e5 033d
000003b0: a960 99bd 9dd5 9dbd 94a3 1b3d 8c2e 113d
000003c0: 5056 e73c ce6a 13bd a8f5 99bc 2e3c a03d
000003d0: 4673 e9bd 1e4d 69bd d07c b83c 4c0c a13d
000003e0: 1764 99bd 7227 52bd e823 fe3d 180e d23c
000003f0: c468 eb3d 7c95 723d 64c3 e53d 164c 13be

lstm.weight_hh_l0 f4 [192, 48]
-0.035350405 0.14005563 -0.08113974 -0.010528579 0.13981563 0.06866212 -0.038542457 0.05933389
-0.04519169 0.012909785 0.01147373 -0.10957808 -0.1326966 0.14120096 -0.022427365 -0.10905668
-0.13751736 0.062080637 -0.0471254 -0.09714621 -0.09479891 0.1187475 0.07843749 0.030221745
0.02440025 0.04626663 0.08024426 -0.02271144 -0.14112344 -0.13559318 0.068593875 -0.021305852
-0.09910655 0.005106315 0.0919158 0.006765038 0.021819174 0.029759303 0.05037211 0.034031883
-0.062402703 -0.07264619 -0.10180314 -0.13079326 -0.09505846 -0.14032538 0.00049872696 0.124827474
0.10756427 -0.12874396 0.07544476 -0.018438354 0.14273125 0.05572711 -0.08305849 0.012126699
0.05121404 0.05371806 -0.0067874044 -0.061898947 0.1368011 0.1149205 -0.067429215 -0.11179569
0.07951489 -0.02400937 -0.07270078 0.08164741 0.10359143 0.14270929 0.03107883 0.055836484
0.006176293 0.039943352 0.057662547 -0.14183919 0.12822968 -0.13834134 -0.020794772 0.089468345
-0.14361286 0.057078525 -0.029248007 0.093335524 0.105897516 -0.0555489 -0.02313444 -0.038139537
0.024101198 0.07614793 0.1395675 -0.049819537 -0.0073961318 0.0348195 -0.06588093 0.00877586
-0.12786877 0.08041592 0.13535175 0.120119065 0.06596871 0.009977102 -0.080363646 0.05889015
0.11319682 0.035840094 -0.0902102 -0.020940952 0.07116246 0.13020658 0.024832264 -0.101914555
0.06758061 -0.086293176 -0.027032755 -0.08142029 0.13283727 0.1389482 -0.022380114 -0.14310169
-0.06321314 0.14180267 0.081513464 0.10115513 0.013347074 -0.029348075 0.13020861 0.10637763
-0.02549287 -0.08231299 -0.090110354 0.08997986 0.04995051 -0.0017289817 0.119785756 -0.044517785
-0.027557306 0.0027666837 0.014108643 -0.14296682 0.039840385 0.13530365 0.002895087 0.068973675
0.047597572 -0.13873549 -0.03849473 0.047539696 -0.040199265 -0.13088581 -0.13083313 0.026223153
0.038207784 0.06933378 -0.107449755 -0.013868898 0.084620476 -0.12698834 -0.011087075 0.08433522
0.0956032 -0.11112858 0.07650727 -0.009881422 -0.088954985 -0.041255146 0.09430888 -0.028450817
0.0067519695 -0.11498617 -0.026032545 0.013371259 -0.09025723 -0.06463341 0.08407578 0.13044855
0.05459638 -0.049469024 -0.003867656 0.027144715 -0.0068278313 -0.07344231 0.09108135 0.12725335
0.12090883 -0.14309786 -0.118368134 0.0026986152 7.399917e-05 0.10632023 -0.107720226 0.087164104
-0.039023742 0.11285168 0.0614634 -0.12969594 0.07987282 -0.08964574 -0.09339875 -0.13134871
0.07178238 -0.00693807 0.040983498 0.0774914 -0.043401457 -0.12376863 -0.123380095 -0.054871432
0.07182188 0.07310605 0.03308451 -0.002613604 -0.035502024 0.057582214 -0.086520016 0.14116609
-0.114809185 -0.12554689 0.007656023 -0.064293645 -0.057391547 -0.080720216 0.09454121 0.130929
0.1184369 0.13433126 0.00096449256 0.073667064 0.08543816 -0.0077100396 0.01434195 0.066965744
0.07811116 -0.0179504 -0.020821184 -0.026883125 -0.023374863 0.0677609 -0.09717977 -0.11207779
0.101812676 -0.012687042 0.056060895 0.045816675 0.09514147 -0.056008928 -0.04198052 0.13526988
0.009697869 0.08410925 -0.029431477 -0.110075936 -0.09836191 0.032886118 -0.008592591 -0.045267902
00000000: 96cb 10bd be6a 0f3e 982c a6bd 1080 2cbc
00000010: d42b 0f3e ba9e 8c3d b2de 1dbd 1808 733d
00000020: ec1a 39bd 9083 533c 50fc 3b3c 796a e0bd
00000030: 9ee1 07be fc96 103e 98b9 b7bc 1c59 dfbd
00000040: 5ad1 0cbe 4448 7e3d 9006 41bd 98f4 c6bd
00000050: ee25 c2bd e431 f33d d6a3 a03d 9893 f73c
00000060: 08e3 c73c 1482 3d3d 1a57 a43d 580d babc
00000070: aa82 10be f0d8 0abe f27a 8c3d 9c89 aebc
00000080: 60f8 cabd e052 a73b 5a3e bc3d 40ad dd3b
00000090: 20be b23c c8c9 f33c fc52 4e3d 0465 0b3d
000000a0: fa99 7fbd 87c7 94bd 2a7e d0bd abee 05be
000000b0: 03ae c2bd 75b1 0fbe 00bd 023a 8ca5 ff3d
000000c0: a84a dc3d 75d5 03be c882 9a3d 080c 97bc
000000d0: 2428 123e 1c42 643d 921a aabd 10af 463c
000000e0: d0c5 513d 7807 5c3d e068 debb c089 7dbd
000000f0: 9615 0c3e 705b eb3d 5418 8abd 24f5 e4bd
00000100: b4d8 a23d 4caf c4bc 26e4 94bd c236 a73d
00000110: be27 d43d 6222 123e 0899 fe3c ccb4 643d
00000120: 8062 ca3b a49b 233d 902f 6c3d 4b3e 11be
00000130: a44e 033e 5aa9 0dbe cc59 aabc 2e3b b73d
00000140: 400f 13be 2ccb 693d 8499 efbc b226 bf3d
00000150: cce0 d83d 3e87 63bd 7084 bdbc 3438 1cbd
00000160: e06f c53c 72f3 9b3d c8ea 0e3e 920f 4cbd
00000170: 405b f2bb e49e 0e3d 95ec 86bd a0c8 0f3c
00000180: 08f0 02be 1ab1 a43d a699 0a3e fc00 f63d
00000190: 9a1a 873d 0077 233c b295 a4bd cc36 713d
000001a0: bcd3 e73d 10cd 123d 20c0 b8bd 5c8c abbc
000001b0: a0bd 913d e054 053e 086d cb3c 94b8 d0bd
000001c0: b467 8a3d 7aba b0bd cc73 ddbc aebf a6bd
000001d0: 7e06 083e 7048 0e3e 8056 b7bc 4089 12be
000001e0: e475 81bd b834 113e 88f0 a63d 6c2a cf3d
000001f0: b0ad 5a3c 606b f0bc 6855 053e 84dc d93d
00000200: 6cd6 d0bc b793 a8bd c78b b8bd 5c47 b83d
00000210: e898 4c3d 009f e2ba 3c52 f53d 4858 36bd
00000220: dcbf e1bc 4051 353b f027 673c e565 12be
00000230: ac2f 233d 0a8d 0a3e 80bb 3d3b 1242 8d3d
00000240: acf5 423d ad10 0ebe a6ac 1dbd fcb8 423d
00000250: fca7 24bd ee06 06be 1ff9 05be f0d1 d63c
00000260: c47f 1c3d defe 8d3d 9e0e dcbd 603a 63bc
00000270: 804d ad3d 3b09 02be 90a6 35bc f2b7 ac3d
00000280: 9ccb c33d 6297 e3bd d8af 9c3d b0e5 21bc
00000290: 082e b6bd 28fb 28bd 0425 c13d b011 e9bc
000002a0: a03f dd3b de7d ebbd 3442 d5bc 2013 5b3c
000002b0: c8d8 b8bd 855e 84bd ec2f ac3d 4e94 053e
000002c0: 74a0 5f3d 08a0 4abd 8078 7dbb 985e de3c
000002d0: 00bc dfbb ec68 96bd dc88 ba3d b44e 023e
000002e0: 0c9f f73d 3f88 12be fe6a f2bd 40db 303b
000002f0: 0030 9b38 6cbe d93d 6c9c dcbd 1883 b23d
00000300: 5cd7 1fbd c81e e73d 0cc1 7b3d 03cf 04be
00000310: 5c94 a33d 3098 b7bd d847 bfbd 4780 06be
00000320: a402 933d c058 e3bb 50de 273d d0b3 9e3d
00000330: bac5 31bd 687a fdbd b4ae fcbd dec0 60bd
00000340: 5a17 933d a0b8 953d a083 073d 0049 2bbb
00000350: 926a 11bd 54db 6b3d 6831 b1bd d88d 103e
00000360: 1421 ebbd 5d8f 00be 60df fa3b 63ac 83bd
00000370: 6613 6bbd a450 a5bd d29e c13d 4012 063e
00000380: 0c8f f23d 228e 093e 00d6 7c3a c2de 963d
00000390: 34fa ae3d 80a4 fcbb 80fa 6a3c 5625 893d
000003a0: bef8 9f3d b80c 93bc 3091 aabc 003a dcbc
000003b0: a47c bfbc 3ac6 8a3d 3006 c7bd 0a89 e5bd
000003c0: 2a83 d03d 50dd 4fbc 1ca0 653d 44aa 3b3d
000003d0: 88d9 c23d 9e69 65bd c4f3 2bbd 3084 0a3e
000003e0: d0e3 1e3c 7841 ac3d 481a f1bc 7e6f e1bd
000003f0: f871 c9bd 98b3 063d f0c7 0cbc d66a 39bd

lstm.bias_ih_l0 f4 [192]
-0.12056977 0.10925704 0.09190911 -0.05851282 0.14085129 -0.012253165 -0.12007769 -0.10940142
0.09922041 0.13165 -0.11825949 -0.048411846 0.06446369 0.100090444 0.052632734 0.088185474
0.045536846 -0.013584316 0.13646638 -0.10448212 0.01293923 0.007517576 -0.009813577 -0.10153527
0.098273695 0.07061839 -0.072322056 -0.045450203 -0.117328025 0.11672917 -0.120815486 0.09268768
0.03499244 0.09526251 0.10706544 9.2834234e-05 0.13935518 -0.018510073 -0.12450147 -0.051984705
-0.07226086 -0.027716152 0.03407672 0.047383144 -0.12397528 0.14081186 -0.009898946 -0.10632059
0.06976831 -0.04376033 0.11556131 -0.074898764 0.1283541 0.032205254 -0.026074544 -0.12896787
0.098472014 -0.096150346 0.13844529 -0.028941162 -0.11421176 -0.033449456 -0.087281264 0.055321842
0.058108777 0.09572199 0.009806469 0.029863954 0.09622583 0.036496118 0.115754336 0.05614291
0.04746072 -0.09217948 0.12861094 0.052071914 0.077349216 0.14083692 -0.019010112 0.055466443
-0.03930451 -0.10866754 -0.07860624 -0.027390681 0.053479865 -0.016167954 -0.04092776 -0.09498984
0.08936423 0.07822868 -0.12469499 0.02314666 -0.10409993 -0.11333218 0.05664897 0.12982544
0.069594726 0.091034904 0.032004684 0.081008226 -0.06589922 -0.08207615 -0.0652891 0.04850468
-0.050168693 0.12458259 -0.04011012 0.055411875 -0.08486928 -0.006529078 0.14422816 0.052674174
-0.026172586 -0.008395463 0.06581868 0.111656725 0.090453 -0.08295665 0.041624993 0.13579291
0.11692539 0.0574681 -0.03042265 -0.11051769 -0.14218794 0.10297139 0.03290063 -0.09903618
0.14059883 -0.038786 -0.11630708 -0.002864197 -0.027079172 0.031968787 0.10743186 -0.121411376
-0.10682384 0.08307913 -0.024108924 0.12294996 0.14084738 0.029317603 0.050565585 0.044628814
0.12859151 -0.083465286 0.059677675 0.049377814 0.06975119 -0.100628786 -0.12439668 -0.10402781
-0.007956266 -0.041152067 0.0023073405 0.0017400086 0.035883173 0.06371912 -0.0461908 0.08339383
-0.13460666 -0.03142461 -0.00025838614 -0.10720776 0.041946232 -0.109094426 0.05912 0.05785802
-0.050428107 -0.03334503 -0.045003884 0.10199596 0.0021042824 0.037879646 -0.13248095 0.046515718
-0.06696029 -0.07905791 0.13849664 -0.11174086 -0.01237379 0.011095896 0.05118321 0.11898345
-0.10145676 -0.12063273 0.1118567 0.080270946 0.019752756 0.112478495 0.021349818 0.119669646
00000000: 49ed f6bd 28c2 df3d d83a bc3d 24ab 6fbd
00000010: 523b 103e 80c1 48bc 4beb f5bd da0d e0bd
00000020: 1234 cb3d 42cf 063e 0832 f2bd 804b 46bd
00000030: 8a05 843d 38fc cc3d 6c95 573d 969a b43d
00000040: d884 3a3d c090 5ebc d8bd 0b3e b9fa d5bd
00000050: 10ff 533c 0056 f63b 20c9 20bc b9f1 cfbd
00000060: b843 c93d 60a0 903d 961d 94bd fe29 3abd
00000070: ad49 f0bd b40f ef3d 1c6e f7bd 0ad3 bd3d
00000080: 3c54 0f3d fe18 c33d 2045 db3d 00b0 c238
00000090: 20b3 0e3e 70a2 97bc a0fa febd eaed 54bd
000000a0: 80fd 93bd fc0c e3bc 0894 0b3d d414 423d
000000b0: c0e6 fdbd fc30 103e 302f 22bc 9cbe d9bd
000000c0: b0e2 8e3d 083e 33bd 68ab ec3d 8664 99bd
000000d0: 426f 033e a8e9 033d 489a d5bc 2710 04be
000000e0: b2ab c93d 79ea c4bd 9ac4 0d3e 0416 edbc
000000f0: dbe7 e9bd 4c02 09bd 85c0 b2bd 2899 623d
00000100: 7803 6e3d e409 c43d 50ab 203c 40a5 f43c
00000110: 0c12 c53d f47c 153d 9c10 ed3d 1cf6 653d
00000120: 2c66 423d 98c8 bcbd 96b2 033e 5c49 553d
00000130: 4469 9e3d 8e37 103e 18bb 9bbc c830 633d
00000140: c4fd 20bd 168d debd 4ffc a0bd 6c62 e0bc
00000150: b40d 5b3d a872 84bc dea3 27bd 098a c2bd
00000160: 9804 b73d 5c36 a03d 1660 ffbd 109e bd3c
00000170: 5832 d5bd b41a e8bd c008 683d f6f0 043e
00000180: ae87 8e3d 8270 ba3d 5817 033d a4e7 a53d
00000190: 2cf6 86bd 8a17 a8bd 4bb6 85bd d8ac 463d
000001a0: b07d 4dbd 2825 ff3d 824a 24bd 90f7 623d
000001b0: f2cf adbd e0f1 d5bb 8cb0 133e e0c0 573d
000001c0: e467 d6bc 208d 09bc f2cb 863d 48ac e43d
000001d0: 6c3f b93d 2de5 a9bd f87e 2a3d 4c0d 0b3e
000001e0: 9476 ef3d ac63 6b3d ec38 f9bc 1957 e2bd
000001f0: b799 11be aae2 d23d d0c2 063d 7bd3 cabd
00000200: 24f9 0f3e 12de 1ebd 6832 eebd 40b5 3bbb
00000210: 24d5 ddbc b4f1 023d 3c05 dc3d 87a6 f8bd
00000220: 75c6 dabd 6425 aa3d 1480 c5bc 30cd fb3d
00000230: 4c3a 103e 782b f03c dc1d 4f3d b4cc 363d
00000240: 7ead 033e d9ef aabd 9470 743d 6440 4a3d
00000250: b6d9 8e3d 7716 cebd b0c3 febd 880c d5bd
00000260: 005b 02bc 128f 28bd c036 173b 0011 e43a
00000270: 3cfa 123d 2c7f 823d 9032 3dbd 62ca aa3d
00000280: 54d6 09be 18b7 00bd 0078 87b9 be8f dbbd
00000290: d0cf 2b3d e66c dfbd d027 723d 88fc 6c3d
000002a0: b48d 4ebd cc94 08bd fe55 38bd 42e3 d03d
000002b0: 00e8 093b b027 1b3d 16a9 07be 4487 3e3d
000002c0: 7a22 89bd 1de9 a1bd 10d2 0d3e 64d8 e4bd
000002d0: 70bb 4abc 90cb 353c 7ca5 513d 98ad f33d
000002e0: 90c8 cfbd 4b0e f7bd 2015 e53d 1865 a43d
000002f0: 88d0 a13c 205b e63d d0e5 ae3c 5c15 f53d

lstm.bias_hh_l0 f4 [192]
0.08577068 0.13330951 0.12117496 0.13275313 0.022329435 -0.13572209 -0.093244344 0.10410769
-0.029408127 -0.06367071 0.13784516 0.1054313 -0.030450575 0.08943872 -0.070488304 -0.13641968
0.059640184 -0.12401995 -0.10061507 0.060943812 -0.12886292 0.026530728 -0.066646464 -0.02882798
-0.11123387 -0.07917995 -0.11352483 0.13413581 0.048329636 0.07102351 -0.08551185 -0.055734836
-0.050648354 0.08747928 0.13205427 0.07237819 0.06981686 0.06267227 -0.055736087 0.08980936
0.06174463 0.010291949 -0.092723265 0.04398614 -0.05968134 0.013752863 -0.018976212 -0.006477028
0.07132219 0.1310988 0.13873386 0.05954577 0.029379457 0.061081663 0.07804273 -0.10279899
-0.032492884 0.039787978 0.1312578 0.084356666 0.12610605 -0.014655709 0.12115544 0.10446672
-0.115621224 0.1270912 0.12614644 0.037702203 0.04764831 -0.063997336 -0.02373369 -0.07921698
-0.07350751 -0.079861425 -0.06775548 0.025306672 -0.11695621 0.10602257 0.07612288 0.070169955
0.015488043 -0.14096096 -0.08221763 0.014311194 -0.0689303 -0.034203954 0.121875525 0.059357315
-0.030053414 -0.1120032 -0.09098306 -0.14150526 0.07399072 -0.10084416 -0.022130638 -0.04409513
0.040264904 -0.11760393 0.018365234 0.08316806 0.08061509 -0.07690558 0.078440115 0.0942208
-0.027275361 0.12465951 -0.08573713 0.07956268 0.06901544 0.021483004 0.13982204 0.021817178
-0.09521869 -0.13487674 0.10554993 -0.051930815 -0.091997825 -0.10481374 -0.01481238 -0.0597831
0.013182804 0.025155112 0.10231672 -0.08798356 0.0491326 -0.047104284 -0.12285893 -0.033491462
0.056479126 0.036958426 0.13280645 -0.07236216 -0.14188288 0.12595117 0.06032902 -0.13333671
0.042507082 0.08865969 0.0953608 0.099622965 0.012388527 0.010152027 -0.06995787 -0.024193645
-0.08444086 -0.025107734 -0.024963252 -0.099109665 0.06731719 0.021419689 -0.035336778 0.10516982
-0.03647145 -0.1170036 -0.052367233 -0.08570282 -0.06391927 0.049785227 -0.023543179 -0.0028100312
0.03385748 0.018768534 0.10545014 -0.08802868 -0.022067167 0.019597843 -0.08107064 0.03454408
0.050567552 -0.029455103 0.13329089 0.08485556 0.023039326 0.029516831 -0.06419891 0.12681991
0.0859862 -0.12590265 0.12998283 -0.025531568 -0.07545023 -0.03038562 -0.14296389 -0.080546945
-0.13738932 0.021315664 0.0033654273 0.02656062 0.008398071 -0.1327766 -0.11332377 0.12656614
00000000: 8aa8 af3d 4a82 083e 942a f83d 70f0 073e
00000010: 38ec b63c bbfa 0abe e4f6 bebd 6a36 d53d
00000020: 50e9 f0bc ca65 82bd 4827 0d3e 5eec d73d
00000030: 7c73 f9bc a62b b73d 2c5c 90bd 9ab1 0bbe
00000040: 4449 743d 2cfe fdbd 460f cebd 38a0 793d
00000050: a4f4 03be f856 d93c f17d 88bd a828 ecbc
00000060: 95ce e3bd 1929 a2bd b57f e8bd e65a 093e
00000070: 4cf5 453d c674 913d d620 afbd 364a 64bd
00000080: a674 4fbd 5628 b33d 3c39 073e 043b 943d
00000090: 24fc 8e3d 525a 803d 864b 64bd f8ed b73d
000000a0: f0e7 7c3d 909f 283c b2e5 bdbd d02a 343d
000000b0: 6c74 74bd b053 613c 0074 9bbc 403d d4bb
000000c0: 5e11 923d c43e 063e 4010 0e3e 44e6 733d
000000d0: 30ad f03c c430 7a3d ded4 9f3d 4788 d2bd
000000e0: 4217 05bd b8f8 223d 7268 063e 30c3 ac3d
000000f0: f221 013e 801e 70bc 5820 f83d a6f2 d53d
00000100: d2ca ecbd 3224 023e 882c 013e a06d 1a3d
00000110: e02a 433d 0911 83bd 286d c2bc 833c a2bd
00000120: 1b8b 96bd 638e a3bd 63c3 8abd f04f cf3c
00000130: bd86 efbd 5c22 d93d 50e6 9b3d 44b5 8f3d
00000140: 90c1 7d3c 1258 10be b861 a8bd 8079 6a3c
00000150: 542b 8dbd 7219 0cbd e099 f93d a820 733d
00000160: 9432 f6bc ef61 e5bd 5455 babd c1e6 10be
00000170: 7288 973d 6287 cebd 504b b5bc 189d 34bd
00000180: d0ec 243d 54da f0bd b072 963c 0454 aa3d
00000190: 8619 a53d ac80 9dbd 36a5 a03d d6f6 c03d
000001a0: 9470 dfbc 7c4d ff3d f396 afbd c2f1 a23d
000001b0: f857 8d3d 20fd af3c 822d 0f3e f0b9 b23c
000001c0: 0402 c3bd 211d 0abe 902a d83d 68b5 54bd
000001d0: 5b69 bcbd 96a8 d6bd a0af 72bc 20df 74bd
000001e0: b0fc 573c 1812 ce3c 6e8b d13d ba30 b4bd
000001f0: 443f 493d 6cf0 40bd 769d fbbd 582e 09bd
00000200: a856 673d b861 173d 6afe 073e 9d32 94bd
00000210: bf49 11be 58f9 003e 901b 773d 6b89 08be
00000220: e81b 2e3d 3693 b53d 864c c33d 2007 cc3d
00000230: 40f9 4a3c b054 263c 1246 8fbd c031 c6bc
00000240: 54ef acbd bcae cdbc bc7f ccbc 02fa cabd
00000250: 98dd 893d 5878 af3c 4cbd 10bd 4663 d73d
00000260: 1663 15bd 959f efbd 067f 56bd f684 afbd
00000270: 1be8 82bd 98eb 4b3d a0dd c0bc 8028 38bb
00000280: 24ae 0a3d 78c0 993c 3ef6 d73d 6148 b4bd
00000290: 34c6 b4bc a88b a03c 5d08 a6bd 187e 0d3d
000002a0: ec1f 4f3d d44b f1bc 687d 083e c0c8 ad3d
000002b0: f8bc bc3c 48cd f13c b87a 83bd 14dd 013e
000002c0: 8819 b03d a0ec 00be 381a 053e 9427 d1bc
000002d0: a685 9abd 44eb f8bc 2065 12be ccf5 a4bd
000002e0: c9af 0cbe 309e ae3c 808e 5c3b a895 d93c
000002f0: 1098 093c 97f6 07be 4b16 e8bd 8e9a 013e

net.0.weight f4 [128, 48]
0.12461248 0.017141372 0.12056965 -0.036917403 -0.1343771 0.04836692 0.027086467 0.05200821
0.098690405 0.11215299 0.06223698 0.047401994 -0.139491 -0.12586492 0.02940844 0.04391493
-0.021739192 0.10921526 -0.037499547 -0.026800603 0.10201338 -0.017630398 0.11357948 -0.022980787
-0.015216529 -0.095066085 -0.09336231 -0.08206725 -0.12130447 -0.122178435 -0.10067211 0.02754213
0.12974152 0.13394585 0.07080421 -0.09625231 0.047168985 -0.06756183 0.12103516 0.08981016
0.027572379 0.026177406 -0.02920559 -0.14013672 0.12884232 -0.12633583 -0.03546749 -0.015182227
0.03276664 -0.091181174 0.016717836 0.12020001 0.12678948 -0.021634303 0.13718593 -0.14296633
-0.10377757 0.13746846 -0.009696379 0.12631288 0.13438237 -0.014666766 -0.07685725 0.11136764
0.053850934 -0.0029112846 0.083604544 -0.10593365 -0.03321395 0.049668968 0.14241633 -0.03542891
-0.05168414 -0.09648867 0.096239865 0.076653525 -0.028309911 0.07556525 0.10892454 0.006762415
0.14065734 0.08588712 0.009504408 -0.1337912 -0.06871383 -0.10661022 0.14363867 0.0774827
0.10673955 0.06689985 0.13857904 0.047237992 -0.13547279 -0.063194074 -0.008289576 0.036702976
-0.11010024 0.10395317 -0.038429342 -0.12188795 0.0075556785 0.0037243068 -0.050810486 0.09927513
0.046511576 0.018961608 0.06905176 -0.0236326 0.10798964 -0.07335249 0.074283734 -0.058674045
-0.09920033 0.05549921 -0.026800245 -0.08505972 -0.07835599 0.119835496 -0.09976411 -0.12610728
0.095093355 0.12092793 -0.05705621 0.14033982 0.0753807 0.02986458 0.056750536 0.11696282
-0.13167118 0.00080145895 -0.13745742 0.020106286 -0.12174762 0.014826894 0.058853388 -0.007569939
0.120280534 -0.10885559 0.037413016 0.12041357 -0.059613273 0.06377271 0.08940084 0.071419135
0.044661686 -0.11390796 0.1414091 0.11532092 0.123544246 -0.12640166 0.08084005 -0.0030703545
0.13747084 0.041733623 -0.06365111 0.07301083 -0.11588293 -0.062978394 0.082152575 -0.04338838
0.034583226 -0.06429803 0.040389657 -0.044652328 -0.13207407 -0.11031264 0.1418153 0.09896588
0.02857314 0.12119639 -0.072735526 -0.013077289 0.057308495 0.032360315 0.113416135 0.13152206
-0.08709961 0.04018727 0.061190516 0.047397956 0.08709934 -0.011061877 -0.0032399595 0.03222494
-0.08761607 0.06827399 0.05171013 0.01440084 -0.12745422 -0.093367904 -0.024493575 0.100522384
0.07836424 -0.055842318 -0.004885614 0.14394122 -0.019525647 -0.0819083 -0.0651263 -0.01760824
0.018750295 0.10607928 -0.06672405 -0.040638022 0.09180483 0.028742328 -0.13055167 -0.12938493
0.0054298043 0.02905646 -0.12978004 -0.12691621 0.041211948 0.122199565 0.091772765 0.02051191
-0.08253891 0.107081175 0.011161491 -0.073652096 0.09896594 -0.039112665 0.13448665 0.0459439
0.039711803 0.110262185 -0.1314652 -0.06364782 -0.11082964 0.008134082 0.03250712 0.03712903
0.12072292 -0.14314944 0.12238932 -0.015855432 -0.030194737 -0.03438875 -0.050591126 0.040094703
-0.1183828 -0.014575392 -0.03670621 0.078428656 0.015744105 -0.13741466 0.12883997 0.08689894
0.048465475 0.13389078 -0.004146397 -0.061404817 0.13790455 -0.1253123 0.09197974 -0.023331575
00000000: d434 ff3d 106c 8c3c 38ed f63d b436 17bd
00000010: 279a 09be 641c 463d 70e4 dd3c 9006 553d
00000020: 321e ca3d 78b0 e53d 34ec 7e3d 9828 423d
00000030: bbd6 0ebe bce2 00be f8e9 f03c 24e0 333d
00000040: 6416 b2bc 40ac df3d 2099 19bd f08c dbbc
00000050: 64ec d03d a06d 90bc 5c9c e83d 3442 bcbc
00000060: c04e 79bc 02b2 c2bd bd34 bfbd e012 a8bd
00000070: 7a6e f8bd b038 fabd 2e2d cebd 08a0 e13c
00000080: f6da 043e 1a29 093e cc01 913d ee1f c5bd
00000090: 4434 413d db5d 8abd 48e1 f73d 64ee b73d
000000a0: 78df e13c 0072 d63c 9040 efbc 0080 0fbe
000000b0: 3eef 033e 2e5e 01be 5c46 11bd e0be 78bc
000000c0: 5036 063d 32bd babd d8f3 883c 6c2b f63d
000000d0: 1ad5 013e 6c3a b1bc 787a 0c3e c465 12be
000000e0: 5689 d4bd 88c4 0c3e 90dd 1ebc 2a58 013e
000000f0: 889b 093e e04c 70bc 5567 9dbd b814 e43d
00000100: cc92 5c3d 40cb 3ebb dc38 ab3d bef3 d8bd
00000110: 5a0b 08bd b071 4b3d 96d5 113e e81d 11bd
00000120: c0b2 53bd da9b c5bd 6819 c53d 86fc 9c3d
00000130: 30ea e7bc f4c1 9a3d d413 df3d 4097 dd3b
00000140: 7a08 103e 96e5 af3d 60b8 1b3c 8f00 09be
00000150: d6b9 8cbd 7656 dabd 0416 133e 40af 9e3d
00000160: 449a da3d ca02 893d aae7 0d3e a07c 413d
00000170: 61b9 0abe e56b 81bd 00d1 07bc dc55 163d
00000180: 3c7c e1bd 66e5 d43d 1668 1dbd 64a0 f9bd
00000190: a095 f73b 8013 743b a81e 50bd c250 cb3d
000001a0: ec82 3e3d 6055 9b3c 026b 8d3d 2899 c1bc
000001b0: ac29 dd3d d539 96bd 1222 983d 3254 70bd
000001c0: 8b29 cbbd 2453 633d 308c dbbc ca33 aebd
000001d0: 1b79 a0bd 506c f53d 2051 ccbd 4422 01be
000001e0: 4ec0 c23d 10a9 f73d c6b3 69bd 3eb5 0f3e
000001f0: 3261 9a3d 90a6 f43c 4073 683d 348a ef3d
00000200: cfd4 06be 0019 523a a3c1 0cbe f0b5 a43c
00000210: d156 f9bd 80ec 723c 4010 713d 400d f8bb
00000220: a455 f63d aeef debd 643e 193d 649b f63d
00000230: 0c2d 74bd 449b 823d ca17 b73d 3244 923d
00000240: 2cef 363d 9448 e9bd 8ccd 103e 602d ec3d
00000250: c404 fd3d 706f 01be 788f a53d 0038 49bb
00000260: 28c5 0c3e e0f0 2a3d 835b 82bd b486 953d
00000270: 0854 edbd d1fa 80bd 9c3f a83d 04b8 31bd
00000280: 24a7 0d3d b0ae 83bd a06f 253d 5ce5 36bd
00000290: 6d3e 07be 98eb e1bd 0838 113e a0ae ca3d
000002a0: 3812 ea3c d035 f83d 5df6 94bd 2042 56bc
000002b0: 50bc 6a3d 408c 043d b846 e83d b8ad 063e
000002c0: 4861 b2bd 689b 243d e8a2 7a3d 5c24 423d
000002d0: 2461 b23d e03c 35bc 8055 54bb 4cfe 033d
000002e0: 0e70 b3bd 3cd3 8b3d 00ce 533d 80f1 6b3c
000002f0: 5c83 02be ac37 bfbd c0a6 c8bc aede cd3d
00000300: 6e7d a03d eaba 64bd 8017 a0bb 5465 133e
00000310: 40f4 9fbc 8abf a7bd f060 85bd 283f 90bc
00000320: 389a 993c 1840 d93d 9ea6 88bd 0e74 26bd
00000330: 2c04 bc3d 0875 eb3c 56af 05be 7c7d 04be
00000340: 80ec b13b d007 ee3c 0fe5 04be 53f6 01be
00000350: dccd 283d c443 fa3d 5cf3 bb3d 9808 a83c
00000360: 290a a9bd 604d db3d b0de 363c e9d6 96bd
00000370: a8ae ca3d 9a34 20bd deb6 093e ac2f 3c3d
00000380: d8a8 223d 24d1 e13d d09e 06be ca59 82bd
00000390: a6fa e2bd d044 053c 3026 053d 9c14 183d
000003a0: 943d f73d c495 12be 40a7 fa3d 40e3 81bc
000003b0: f45a f7bc 38db 0cbd a438 4fbd 583a 243d
000003c0: ae72 f2bd a0cd 6ebc 4059 16bd 349f a03d
000003d0: c8f9 803c 6eb6 0cbe a0ee 033e 12f8 b13d
000003e0: bc83 463d aa1a 093e 80de 87bb 9e83 7bbd
000003f0: da36 0d3e de51 00be e05f bc3d dc21 bfbc

net.0.bias f4 [128]
0.04879181 0.14379412 0.030192733 0.093773216 -0.04320415 0.056162164 0.12696698 0.068017766
0.08454636 0.08246757 -0.12515025 -0.06757711 -0.040491804 0.061232656 -0.004971683 0.006446719
-0.11571813 0.086253524 0.07065342 -0.0503937 -0.01582244 0.116164744 -0.057629287 0.029082477
-0.035016634 -0.11989455 0.1068885 -0.10369472 -0.01642178 0.054816738 0.034049064 0.088492095
-0.05938548 0.010333553 -0.022970483 0.108840495 -0.020104624 0.108801246 0.08834025 -0.13814047
0.10589266 0.06457235 -0.106253445 -0.102386385 0.030668512 0.13636488 0.10248269 0.12581298
0.0019493252 -0.040701754 0.05818428 0.0988494 0.021445885 -0.103950724 -0.101217955 -0.118254125
0.12766507 0.02979052 0.019304454 0.0609906 0.013995171 -0.084244385 -0.02825953 -0.033592463
-0.12270141 0.08960368 -0.026020639 -0.018052056 -0.11964295 -0.121583596 0.041460752 -0.00182271
-0.04916483 -0.14250545 0.014002711 0.0189524 0.09992683 0.03644885 -0.053286865 -0.12384105
0.1403926 0.077701375 -0.10924254 0.11860511 0.043612212 0.02199471 0.09120728 -0.063521355
0.06504232 0.10019992 0.019983396 0.11822647 0.08848089 -0.111582145 0.040073454 0.041250587
0.0024992824 0.08552401 -0.074486464 -0.0068049133 0.022694573 -0.07969917 0.101218015 -0.09946558
-0.07160945 0.08840254 -0.043117948 0.071205765 -0.13754435 -0.11883348 -0.12254505 -0.14273669
-0.06243603 0.034764618 -0.06929427 0.096852526 -0.09251548 0.051015258 -0.13328834 0.1320225
0.12220961 -0.020086706 0.13896996 -0.036705628 0.1431123 0.12187928 0.12129167 0.037468657
00000000: ecd9 473d c43e 133e c056 f73c 2c0c c03d
00000010: d6f6 30bd 4c0a 663d a203 023e e64c 8b3d
00000020: a426 ad3d c2e4 a83d 6327 00be de65 8abd
00000030: bcda 25bd 18cf 7a3d 80e9 a2bb 003f d33b
00000040: a0fd ecbd b0a5 b03d beb2 903d a069 4ebd
00000050: 109e 81bc c8e7 ed3d b00c 6cbd 603e ee3c
00000060: 9a6d 0fbd 468b f5bd 5ce8 da3d e65d d4bd
00000070: f886 86bc 8487 603d 0877 0b3d 583b b53d
00000080: 303e 73bd 104e 293c 982c bcbc c4e7 de3d
00000090: 74b2 a4bc 30d3 de3d bceb b43d b274 0dbe
000000a0: 40de d83d 823e 843d 689b d9bd f4af d1bd
000000b0: 883c fb3c 3ca3 0b3e 72e2 d13d 1ed5 003e
000000c0: 8080 ff3a e2b6 26bd a452 6e3d 8e71 ca3d
000000d0: 48af af3c 1ee4 d4bd 5c4b cfbd 382f f2bd
000000e0: a2ba 023e 400b f43c 6024 9e3c 48d1 793d
000000f0: 004c 653c 5288 acbd 8880 e7bc 4098 09bd
00000100: e04a fbbd 2282 b73d 3c29 d5bc e8e1 93bc
00000110: 5d07 f5bd d200 f9bd c0d2 293d 00e8 eeba
00000120: 1061 49bd f3ec 11be a06b 653c 1042 9b3c
00000130: 70a6 cc3d 644b 153d 5443 5abd 60a0 fdbd
00000140: 14c3 0f3e e621 9f3d 8eba dfbd 3ce7 f23d
00000150: b8a2 323d 402e b43c e2ca ba3d 7c17 82bd
00000160: e834 853d 9e35 cd3d 38b4 a33c b820 f23d
00000170: 7835 b53d 2e85 e4bd 1024 243d 60f6 283d
00000180: 00cb 233b 3627 af3d 5c8c 98bd c0fb debb
00000190: f8e9 b93c 5239 a3bd 644b cf3d 9cb4 cbbd
000001a0: faa7 92bd 640c b53d 729c 30bd 54d4 913d
000001b0: 6dd8 0cbe f85e f3bd e6f8 fabd 9129 12be
000001c0: ecbc 7fbd 5865 0e3d 27ea 8dbd 9e5a c63d
000001d0: c278 bdbd 60f5 503d bd7c 08be e830 073e
000001e0: 0849 fa3d e08c a4bc 244e 0e3e a458 16bd
000001f0: 088c 123e d89b f93d c467 f83d bc78 193d

net.2.weight f4 [64, 128]
0.086709805 0.044267677 -0.059891917 -0.027493432 0.08333822 -0.07312048 0.0873216 0.04022289
0.050070547 0.014370158 -0.040237397 0.07057316 0.016166627 -0.07148427 -0.035944033 -0.027146846
0.011869922 0.025163531 -0.004840389 0.038617335 0.0726042 0.030279107 0.0034673288 -0.073935494
-0.07352693 0.042649157 0.004045911 0.07678548 -0.073990844 -0.027463034 -0.083757125 -0.032365154
-0.055363216 -0.07341169 0.04083381 0.054267623 0.07897716 -0.018933997 -0.03784002 -0.06645548
-0.010404058 -0.044068787 0.05501891 0.08061009 0.003093876 0.0013192669 0.0052060857 0.057165764
-0.08050177 -0.06544242 -0.07445816 0.05974681 0.04840318 0.013287313 -0.021055736 0.0030382574
0.056232013 -0.05264294 0.06918175 0.047123484 0.049891926 -0.012300253 0.019352444 0.053339534
-0.041470412 0.06954854 0.015726551 -0.0055985376 0.0062712803 0.076854296 0.025161795 -0.026762575
-0.05672463 0.06283512 -0.031306066 -0.0038028657 -0.02965841 0.057605393 0.070358284 0.046337254
0.06615957 -0.06811759 -0.05425414 0.081409015 -0.037585136 -0.0611622 -0.05717668 0.022490151
0.026942186 0.059720732 0.056795485 0.0370327 -0.019272849 -0.05714865 0.05217869 -0.06959462
0.024603225 0.08670377 0.07050345 0.06902491 -0.0460727 -0.051899597 0.0762916 -0.01707571
0.057017334 -0.025417164 0.054101534 -0.063264474 -0.026540365 0.07760573 0.054970182 -0.04664496
-0.0070517287 0.040890254 0.07012092 0.0076540187 0.055038385 0.023799978 0.07032991 0.0118816495
0.08461695 -0.07844498 0.07560443 0.023781262 0.06360745 0.03821843 -0.05409098 -0.059648357
0.06110672 -0.0088816285 0.0008631125 -0.016385175 -0.07084402 0.07103682 0.08278345 0.047058813
0.01254227 0.023350984 -0.031604655 0.03744688 0.081659354 0.0015837848 0.06525455 0.04384487
-0.055004977 0.07635874 0.07202155 -0.0014348775 -0.06702121 0.05484221 0.0071496144 -0.019680083
-0.052070543 -0.05788511 0.06266316 -0.084805734 -0.027020913 0.01780244 -0.0033449084 -0.050033733
-0.0025073662 0.02168119 0.028214768 -0.059466705 0.07619285 0.08767568 -0.03796921 0.07043352
0.07136082 -0.06049078 -0.042531934 0.050685234 0.018631123 0.0049703643 -0.04660707 -0.0013616607
0.06967848 -0.007769674 0.051822744 0.0070142373 0.04227016 -0.001698479 -0.08081043 -0.045644403
-0.036963504 -0.06468125 -0.010994002 -0.074832484 -0.087752976 0.036234424 0.0649127 -0.0677842
0.017566629 -0.014117129 0.027046964 0.075707145 -0.026020482 0.046797536 -0.046255764 0.034952633
-0.030312728 0.07985864 0.08357277 0.015721954 0.0089692995 -0.06974302 -0.0027885213 -0.061565332
-0.040765315 0.047645576 0.06694838 -0.017292924 -0.07073892 0.06485102 -0.007723339 -0.08173917
-0.0035840645 -0.08363275 -0.06858404 -0.010896996 -0.061509173 0.06909857 0.015791528 0.064862676
-0.053115197 0.037389867 0.048905723 0.06714659 0.044090994 -0.068715945 0.061268277 -0.03570725
0.032832824 0.010831341 0.06486095 -0.05751229 -0.058986515 -0.06757836 0.0531454 -0.07309074
0.03325463 -0.021469586 -0.05253884 -0.05668985 0.07410956 0.05910685 0.03662675 0.06884713
-0.006333396 -0.054933675 -0.0078009814 0.049036898 -0.053191304 0.011639439 -0.028208032 -0.022138014
00000000: e994 b13d 0652 353d 3a51 75bd e839 e1bc
00000010: 3bad aa3d 31c0 95bd abd5 b23d c2c0 243d
00000020: c616 4d3d d070 6b3c f8cf 24bd a988 903d
00000030: e06f 843c 5866 92bd 0d3a 13bd 1063 debc
00000040: 107a 423c c023 ce3c 209c 9ebb 362d 1e3d
00000050: 83b1 943d e40b f83c 203c 633b 7e6b 97bd
00000060: 4995 96bd e2b0 2e3d 9093 843b b541 9d3d
00000070: 8388 97bd 28fa e0bc db88 abbd 5391 04bd
00000080: 8ac4 62bd de58 96bd 5a41 273d ba47 5e3d
00000090: c7be a13d 781b 9bbc 23fe 1abd d019 88bd
000000a0: c875 2abc 7981 34bd 825b 613d e716 a53d
000000b0: a0c2 4a3b 40eb ac3a d097 aa3b a626 6a3d
000000c0: 1dde a4bd ad06 86bd 857d 98bd 12b9 743d
000000d0: 6a42 463d 08b3 593c 147d acbc 801d 473b
000000e0: 8a53 663d 20a0 57bd 29af 8d3d 8e04 413d
000000f0: 7a5b 4c3d 0087 49bc 0489 9e3c 8e7a 5a3d
00000100: e1dc 29bd 776f 8e3d f8d4 803c f073 b7bb
00000110: 507f cd3b c965 9d3d 1c20 ce3c 303d dbbc
00000120: 1658 68bd b3af 803d ca3a 00bd 8039 79bb
00000130: 32f6 f2bc a2f3 6b3d 0118 903d 22cc 3d3d
00000140: ab7e 873d 3c81 8bbd 9739 5ebd c5b9 a63d
00000150: dff2 19bd 3785 7abd 1832 6abd 443d b83c
00000160: dcb5 dc3c ba9d 743d 62a2 683d 9aaf 173d
00000170: 18e2 9dbc b414 6abd 52b9 553d a087 8ebd
00000180: b48c c93c bf91 b13d 1d64 903d ef5c 8d3d
00000190: bab6 3cbd ac94 54bd c53e 9c3d 5ce2 8bbc
000001a0: 028b 693d a837 d0bc 9299 5d3d ce90 81bd
000001b0: 2e6b d9bc c1ef 9e3d 6a28 613d c90e 3fbd
000001c0: 3012 e7bb 8a7c 273d 8f9b 8f3d 90ce fa3b
000001d0: ee6f 613d 2cf8 c23c 2109 903d 40ab 423c
000001e0: a74b ad3d c3a7 a0bd 7fd6 9a3d ecd0 c23c
000001f0: 9f44 823d ee8a 1c3d 818e 5dbd d651 74bd
00000200: 0a4b 7a3d 4084 11bc 8042 623a 343a 86bc
00000210: ab16 91bd c17b 913d 5f8a a93d bec0 403d
00000220: 187e 4d3c 904a bf3c e273 01bd e661 193d
00000230: 053d a73d 0097 cf3a 2da4 853d ae96 333d
00000240: e64c 61bd f961 9c3d 0980 933d 8012 bcba
00000250: 6b42 89bd 3aa2 603d 5047 ea3b 2038 a1bc
00000260: ec47 55bd f018 6dbd 8b55 803d a1ae adbd
00000270: f65a ddbc 6cd6 913c 4036 5bbb 2cf0 4cbd
00000280: a052 24bb c09c b13c a822 e73c 5c93 73bd
00000290: ff0a 9c3d 4f8f b33d 9a85 1bbd 733f 903d
000002a0: 9f25 923d 2ec5 77bd f735 2ebd 529b 4f3d
000002b0: 4ca0 983c 70de a23b 0ee7 3ebd c079 b2ba
000002c0: 97b3 8e3d c098 febb 1644 543d b0d7 e53b
000002d0: 7a23 2d3d 809f deba f07f a5bd a0f5 3abd
000002e0: 0b67 17bd 9a77 84bd 3020 34bc c641 99bd
000002f0: d5b7 b3bd 8c6a 143d f3f0 843d 71d2 8abd
00000300: e4e7 8f3c 884b 67bc 9891 dd3c 590c 9b3d
00000310: e828 d5bc c6ae 3f3d af76 3dbd 7e2a 0f3d
00000320: 6652 f8bc ed8c a33d 3328 ab3d 54cb 803c
00000330: f8f3 123c 6ed5 8ebd a0bf 36bb ee2b 7cbd
00000340: 88f9 26bd 0228 433d 3b1c 893d e4a9 8dbc
00000350: 91df 90bd 9dd0 843d 1014 fdbb de66 a7bd
00000360: a0e2 6abb a647 abbd ca75 8cbd 5089 32bc
00000370: 0bf1 7bbd 8d83 8d3d 3c5d 813c b9d6 843d
00000380: 528f 59bd 1e26 193d 5e51 483d 2784 893d
00000390: c298 343d f2ba 8cbd 72f4 7a3d c441 12bd
000003a0: b67b 063d f075 313c d1d5 843d 0292 6bbd
000003b0: d89b 71bd 8666 8abd feae 593d 99b0 95bd
000003c0: 0236 083d fce0 afbc f732 57bd 9e33 68bd
000003d0: c1c6 973d 061a 723d ee05 163d b9ff 8c3d
000003e0: 6088 cfbb 2202 61bd 609f ffbb eada 483d
000003f0: 20df 59bd 58b3 3e3c 8814 e7bc c85a b5bc

net.2.bias f4 [64]
0.044889458 0.045166127 -0.060880408 -0.030963361 -0.0012408793 0.0039214194 -0.014199801 0.076839365
0.01044552 -0.011017725 0.009487182 -0.035448775 0.0137204975 -0.042354535 -0.08415145 -0.060913406
0.002104476 0.07132267 0.07231658 -0.008391276 -0.052485395 0.07997852 0.03883464 0.016127735
0.07659093 0.03377989 -0.03414704 0.009620555 0.08566856 8.0540776e-05 0.078069665 -0.036847293
0.053714357 -0.013807908 0.06451691 0.019076109 -0.063642286 0.014148742 0.020625338 -0.06413652
0.087309234 -0.04119986 -0.07293493 -0.046219457 0.024097756 0.03978952 -0.015647113 -0.06455133
0.06943094 -0.010105267 -0.053591065 0.0727414 0.028227717 -0.021020964 0.03502363 0.03617897
-0.018146798 0.034448452 0.008778095 0.065769695 0.07034158 -0.060000032 -0.031169638 -0.01662115
00000000: 02de 373d 1e00 393d bc5d 79bd e0a6 fdbc
00000010: 00a5 a2ba 407f 803b 48a6 68bc f55d 9d3d
00000020: b023 2b3c b083 34bc 2070 1b3c bc32 11bd
00000030: f0cb 603c f37b 2dbd 9857 acbd 5680 79bd
00000040: 40eb 093b 9f11 923d b71a 943d 907b 09bc
00000050: edfa 56bd c7cb a33d 1211 1f3d 501e 843c
00000060: b5db 9c3d c85c 0a3d c4dd 0bbd 889f 1d3c
00000070: ff72 af3d 00e8 a838 fde2 9f3d 30ed 16bd
00000080: 9603 5c3d 903a 62bc 7121 843d 8045 9c3c
00000090: e356 82bd 20d0 673c 78f6 a83c 025a 83bd
000000a0: 2fcf b23d 2fc1 28bd e95e 95bd 9d50 3dbd
000000b0: a868 c53c 56fa 223d 602e 80bc 7d33 84bd
000000c0: cf31 8e3d 9090 25bc 4e82 5bbd 71f9 943d
000000d0: d03d e73c 2834 acbc f074 0f3d 6630 143d
000000e0: 98a8 94bc d219 0d3d 00d2 0f3c 43b2 863d
000000f0: 3f0f 903d 98c2 75bd 7857 ffbc 1429 88bc

net.4.weight f4 [12, 64]
-0.027091563 -0.015563697 0.009719089 -0.07997024 -0.006694898 0.042297795 -0.08721781 0.006014392
-0.10548915 0.01646334 -0.11607288 -0.042161778 -0.12073237 -0.0045420825 -0.06558566 -0.085848734
-0.061835513 -0.08052115 -0.01917921 0.067340195 0.046926588 0.042088345 -0.12127221 -0.07274963
0.054438725 0.05410871 0.009616911 0.044114187 0.108851045 -0.10344967 -0.110643595 -0.108529896
-0.08315651 -0.078591675 0.03520681 0.05560641 0.01239711 -0.06602508 0.030382648 0.007529229
0.038370848 0.06002347 0.057612106 -0.05711344 0.032088757 -0.046381876 -0.0144723505 -0.08579366
0.016225114 -0.093418375 -0.06600432 0.103922516 -0.10922246 -0.108483136 0.10384433 -0.056319267
-0.11018334 0.09825353 -0.048006088 0.076136455 -0.046295583 0.03945549 -0.033727914 0.11550772
-0.0026563108 0.09058282 -0.010487482 -0.094568074 0.015806302 -0.103397936 -0.0024231672 -0.007857785
0.101875305 0.038370907 0.0030025989 0.124367 0.11820878 -0.07555604 -0.034616187 0.01578708
-0.05290453 0.09137489 0.061875224 -0.040821746 -0.04499364 -0.0062295794 0.119965926 0.010981306
-0.108479515 -0.104588285 -0.0051598847 1.475215e-06 0.046525702 0.07527535 -0.05716668 0.09348191
0.07251683 -0.008689374 0.06126575 0.08081007 0.059221655 0.0038100183 -0.08094749 -0.032801688
0.063298464 -0.06917371 -0.0590443 -0.061466694 0.0065042228 -0.09760767 -0.027855098 0.12058927
0.037859425 -0.025956929 0.12088762 0.11230016 0.02175133 -0.02850765 0.031642184 0.03353809
-0.009673506 -0.047297806 0.11128926 0.015463054 -0.02733758 0.10461329 -0.07331684 -0.106148824
0.10600412 -0.11707802 -0.03224252 -0.081573084 -0.0547937 0.034186453 -0.091239914 0.09322898
0.090225115 0.11178827 -0.053383082 0.039647296 -0.06372279 0.00073847175 0.09393515 0.114003405
0.057161346 0.09986663 0.041636884 0.06691012 0.11709906 0.08853093 -0.038106218 0.016150251
-0.004267305 -0.044866487 0.09598258 0.09574036 0.014446422 0.037282363 0.1201856 0.123333305
0.0566514 0.015163347 -0.060211822 0.005146131 -0.020019978 0.10229595 -0.09129463 -0.06499812
-0.09981434 0.074334145 -0.032409623 -0.076488 0.108887 0.10932058 0.07397851 -0.007824644
0.12203018 -0.027387947 0.08447623 -0.01216206 -0.028005958 -0.054666176 0.10447851 -0.12185681
-0.07020275 -0.09922008 -0.05757083 -0.011623263 0.031045511 -0.06400268 -0.08123781 -0.051359132
-0.1116088 -0.07086095 -0.019775525 0.06278288 0.013937414 0.09744105 0.060657978 0.082077846
-0.023193166 0.04186684 0.043631345 -0.1128626 -0.02958852 -0.08008948 -0.0067823976 0.05210705
-0.034345105 -0.119514614 -0.004233137 0.045314297 0.05376865 0.113236085 0.044887513 -0.052330792
-0.019523934 -0.0059414357 -0.12102452 -0.124948055 0.10016996 -0.0034546107 0.06555216 0.08396633
0.037818924 0.0069704056 -0.01794976 0.027536094 -0.077181414 0.10077885 -0.034228563 0.08240579
-0.043540746 0.026548907 0.054052263 -0.09794916 -0.07955171 0.08570318 -0.039032787 0.10121262
0.042347968 -0.08884272 0.108977556 0.1080686 -0.06244573 0.049831375 0.09287526 -0.0903196
-0.050455064 -0.10071534 0.034637794 0.04075806 0.049537614 -0.030289248 -0.102958694 0.09181152
00000000: 20ef ddbc e0fe 7ebc d03c 1f3c 70c7 a3bd
00000010: e060 dbbb 7440 2d3d 409f b2bd 6014 c53b
00000020: b20a d8bd 20de 863c 9eb7 edbd d4b1 2cbd
00000030: 8842 f7bd c0d5 94bb c651 86bd 76d1 afbd
00000040: 3c47 7dbd 46e8 a4bd b81d 9dbc a8e9 893d
00000050: 1836 403d d464 2c3d 905d f8bd c2fd 94bd
00000060: 24fb 5e3d 18a1 5d3d 4090 1d3c 14b1 343d
00000070: 4ced de3d 6cdd d3bd 1c99 e2bd ec44 debd
00000080: f64d aabd acf4 a0bd 0435 103d 8cc3 633d
00000090: 401d 4b3c 2838 87bd 08e5 f83c c0b7 f63b
000000a0: c02a 1d3d 2cdb 753d acfa 6b3d c8ef 69bd
000000b0: 806f 033d ecfa 3dbd 701d 6dbc 96b4 afbd
000000c0: 88ea 843c 2252 bfbd 462d 87bd 54d5 d43d
000000d0: 06b0 dfbd 682c debd 56ac d43d 08af 66bd
000000e0: cea7 e1bd 2639 c93d 08a2 44bd 6eed 9b3d
000000f0: 70a0 3dbd 149c 213d 4826 0abd 508f ec3d
00000100: 8015 2ebb 7c83 b93d b0d3 2bbc e8ac c1bd
00000110: 387c 813c 4cc2 d3bd 00ce 1ebb f0bd 00bc
00000120: 00a4 d03d d02a 1d3d 40c7 443b 20b4 fe3d
00000130: 7217 f23d 20bd 9abd b4c9 0dbd e853 813c
00000140: 6cb2 58bd c222 bb3d e070 7d3d b434 27bd
00000150: 404b 38bd 8021 ccbb b2b0 f53d f0ea 333c
00000160: 822a debd 6232 d6bd 4014 a9bb 0000 c635
00000170: bc91 3e3d f629 9a3d 9c27 6abd 7273 bf3d
00000180: b483 943d e05d 0ebc ccf1 7a3d c07f a53d
00000190: 6892 723d 80b1 793b ccc7 a5bd 105b 06bd
000001a0: a0a2 813d f2aa 8dbd 70d8 71bd 80c4 7bbd
000001b0: 6021 d53b 88e6 c7bd 6030 e4bc 82f7 f63d
000001c0: 7c12 1b3d a0a3 d4bc ee93 f73d a0fd e53d
000001d0: d82f b23c e088 e9bc 3c9b 013d 3c5f 093d
000001e0: a07d 1ebc 58bb 41bd a0eb e33d c058 7d3c
000001f0: 10f3 dfbc 7e3f d63d 2427 96bd 8e64 d9bd
00000200: b018 d93d 9ac6 efbd bc10 04bd ca0f a7bd
00000210: 5c6f 60bd 1807 0c3d fedb babd d6ee be3d
00000220: f2c7 b83d 40f1 e43d 38a8 5abd 3465 223d
00000230: 1881 82bd 0096 413a 1261 c03d 9e7a e93d
00000240: 0422 6a3d e086 cc3d 708b 2a3d 2c08 893d
00000250: a2d1 ef3d b44f b53d 4415 1cbd 884d 843c
00000260: c0d4 8bbb ecc5 37bd 8492 c43d 8613 c43d
00000270: b0b0 6c3c 64b5 183d de23 f63d 2c96 fc3d
00000280: 4c0b 683d b06f 783c aca0 76bd e0a0 a83b
00000290: f000 a4bc 8a80 d13d aef8 babd bc1d 85bd
000002a0: 766b ccbd 803c 983d f4bf 04bd bea5 9cbd
000002b0: 2600 df3d 78e3 df3d 0c82 973d f032 00bc
000002c0: f6ea f93d b05c e0bc e001 ad3d 6043 47bc
000002d0: c06c e5bc a4e9 5fbd d4f8 d53d 1090 f9bd
000002e0: 76c6 8fbd e633 cbbd 64cf 6bbd 806f 3ebc
000002f0: 2853 fe3c d613 83bd 0260 a6bd f45d 52bd
00000300: 2893 e4bd 8c1f 91bd 4800 a2bc 5094 803d
00000310: c059 643c 2c8f c73d 8074 783d 6e18 a83d
00000320: 98ff bdbc 907c 2b3d c8b6 323d 8224 e7bd
00000330: a063 f2bc f405 a4bd e03e debb 346e 553d
00000340: 74ad 0cbd 14c4 f4bd 20b6 8abb 7c9b 393d
00000350: 843c 5c3d 52e8 e73d f8db 373d d058 56bd
00000360: a8f0 9fbc 60b0 c2bb b4db f7bd c4e4 ffbd
00000370: e825 cd3d c066 62bb 3640 863d 8af6 ab3d
00000380: 04e8 1a3d 0068 e43b 600b 93bc 6093 e13c
00000390: 4a11 9ebd 2465 ce3d 4033 0cbd 5ec4 a83d
000003a0: c857 32bd 187d d93c e865 5d3d 9299 c8bd
000003b0: 02ec a2bd 2685 af3d d8e0 1fbd 9048 cf3d
000003c0: 1075 2d3d 2cf3 b5bd a02f df3d 1253 dd3d
000003d0: 18c7 7fbd fc1b 4c3d 6235 be3d 7cf9 b8bd
000003e0: f8a9 4ebd d843 cebd 5ce0 0d3d ecf1 263d
000003f0: f4e7 4a3d 2821 f8bc 02dc d2bd ae07 bc3d

net.4.bias f4 [12]
-0.0895299 0.042446494 -0.029092133 0.044269234 0.10254182 -0.1127318 -0.034420103 -0.052427217
-0.02719967 0.12145482 -0.07287121 -0.09331104
00000000: 745b b7bd 60dc 2d3d a052 eebc a853 353d
00000010: 7201 d23d eedf e6bd 18fc 0cbd ecbd 56bd
00000020: d8d1 debc 4ebd f83d 803d 95bd dc19 bfbd
