models/actor_newinduce5v5_ep0.pth (torch, 288425 bytes, 10 tensors)

lstm.weight_ih_l0 f4 [320, 80]
00000000: 0465 1a3d 39d6 afbd 7569 46bc 0d62 b63d
00000010: 120c b2bd 16ab 89bd 9ea2 5e3d f8f6 a53b
00000020: 5c29 69bd ba32 2d3d a8d1 df3d af73 b5bd
00000030: 2781 bf3d 6d87 503d f389 a03c cdaa 8dbd
00000040: b67b 87bd a9a6 b2bc a9e3 f5bb 09ec a23b
00000050: 7d09 5d3c 7456 d7bb 7da2 883d 209c b63d
00000060: 818d bd3d d104 a9bd 70db 2ebd b6c9 133c
00000070: 6a95 c13b 37d0 ae3a 82ee 0b3d e77a 0abd
00000080: 6135 afbd 917c 2abd 0f3e 69bc 8038 d03d
00000090: c832 b5bb 9fc3 3bbd 249a c63d 9820 c83c
000000a0: 2280 bb3c 86ff ae3d 18e0 4cbb bf9d c23d
000000b0: ddc5 103d 054a cd3d 2156 28bd 7776 fa3b
000000c0: c7a3 bfba 4d92 06bd 32fe 3d3d 6ddd 893d
000000d0: 301d 1cbd 92cd 523d 4188 2dbd f96c 49bd
000000e0: 541f c43d f1cf c83d 1162 37bd 938d 513d
000000f0: 9838 1dbd 1f74 81bc c479 65bd 13ae b5bd
00000100: 0c7c d63c 4362 c4bd fba1 a43d 8623 e3bd
00000110: 3b1f d43d def5 183d 3b98 8cbd 1b94 8d3d
00000120: b79f adbd 23b4 e23d da09 7c3d 16c0 9cbc
00000130: 3ca9 6fbc d516 8fbd aec4 b2bc f5d6 11bd
00000140: 8a4a 243c 9416 c8bd de0f 843c 4e5b 22bc
00000150: 5406 7b3d 7db1 4ebd 209d b33d 6e81 aabd
00000160: 5715 a0bc 93f2 1bbd 0525 643d 3b32 67bd
00000170: 4612 a43d 53f1 073d 08bd 75bc 87d8 b2bd
00000180: 2a7a 813d ec8c c33c a8d3 3ebc 9c48 4b3d
00000190: 3427 5e3c 6a5f d93d 4d93 56bc ae94 0e3b
000001a0: c87b c03c 39a0 3cbd 9034 303d 27a8 ce3d
000001b0: af22 a63d fd51 bc3c 138b dc3d 51f1 40bd
000001c0: 9995 8cbd 8971 c6bc 58da d2bd f8fe c8bd
000001d0: dd56 523c 5130 cdbd 307a 19bd 40c1 e3bd
000001e0: 81c7 ca3d 0ec0 893d c509 4ebd c736 a5bb
000001f0: 8c93 53bc f5a2 c13d 0f9e 8bbd 76a5 afbd
00000200: 45c6 a83d 0b56 2d3c 63a8 813d 1d08 b13d
00000210: a70e da3b b33b db3d e935 9cbd df7e 99bd
00000220: 34f0 2dbd 1e2c e4bd 4e91 edbc 7a45 e33d
00000230: 4cd8 7cbd 54f7 59bd 45c5 c33d 27dc bd3c
00000240: 30f1 f4bc e30c 5fbd 1ad6 4d3d ba42 61bd
00000250: 7224 263d e25c c1bd 0ed7 8b3d f3d7 0b3d
00000260: df39 373d 6a4b 413d e65d 37bd fa1d 55bd
00000270: 7dc2 a73d d979 353d d5a0 293d 24b1 9dbd
00000280: 009d 5dbd 0967 dabc 1e71 ddbd 3bc8 f0bc
00000290: 7563 db3c ba70 db3d 063e 19bb 18cc 263d
000002a0: b372 663d f789 cabd e52a 7e3a 9523 85bd
000002b0: 1bbc cf3d 04c3 7e3d 2696 443d 983e ccbc
000002c0: 3333 433b 559d 54bd 10c4 223d 8a52 573c
000002d0: c2f8 c33c fe28 c1bd 41f3 643d 3611 adbd
000002e0: 2551 1b3d 42c0 2e3d 0646 c6bd df06 543c
000002f0: 39a6 55ba d4c8 9dbd 05ac aebc 5f2e 473d
00000300: 1241 563c fe7e a7bd 4cc1 c93d be6b 85bd
00000310: 1eea 7d3d 3474 9e3d 75ef 0b3d f3d9 21bd
00000320: 5a1c 8b3d ce90 513d 940b b73d 73d2 a03d
00000330: aede 7a3d d534 843d bb75 a83d 6a9e d33d
00000340: babf d5bd 2cca c8bc cadc 90bd a3ec 493d
00000350: b15b b03d ef80 63bd c23f c73c 4bff 6e3c
00000360: 7a6d 94bd da96 df3d 861d ad3d 1be4 56bd
00000370: fe1a 94bb 99c9 223b d9ad 42bd adeb bbbd
00000380: eaa1 a23d 5de4 c53d b682 203c 237b 8c3d
00000390: 26f1 b03c dad4 e93c 9fb7 10bd fcf5 e0bc
000003a0: a83b 993d 177b 96bc 0d10 81bd 06ec e43d
000003b0: 9cfa 193d af98 413d 3590 c33d 2953 1dbc
000003c0: 197f c9bd bb1c b63c 7556 d53d 96f8 b23b
000003d0: 2849 cc39 0385 b33b 7576 763d 63d2 d73c
000003e0: 4549 1f3d e4b1 89bd 4d87 dcbd b8c9 dfbd
000003f0: cac2 2f3d a287 0a3d 93e8 ccbd 0643 6bbd
0.037693992 -0.085857816 -0.012110104 0.089054205 -0.086937085 -0.06722085 0.054354303 0.0050648414
-0.05692421 0.042284705 0.10928661 -0.088599555 0.09350806 0.050910402 0.01959703 -0.06917343
-0.06615393 -0.021807985 -0.007503946 0.0049719852 0.013491032 -0.0065715853 0.06671617 0.08916497
0.09255505 -0.08252872 -0.04268974 0.00902026 0.005907704 0.0013337199 0.034163006 -0.033808615
-0.08555103 -0.041622702 -0.014235987 0.101670265 -0.0055297352 -0.045840856 0.09697369 0.024429604
0.022888247 0.08544831 -0.00312615 0.09502744 0.035344947 0.10023884 -0.041097764 0.0076435166
-0.0014620953 -0.032854367 0.046384998 0.06731687 -0.038113773 0.05146558 -0.04236627 -0.04917619
0.09576288 0.09805287 -0.044771258 0.051160406 -0.03838405 -0.015802441 -0.056024328 -0.08871093
0.026182197 -0.095890544 0.08038708 -0.1109076 0.10357519 0.037343852 -0.06864973 0.069130145
-0.08477729 0.110695146 0.061532833 -0.019134562 -0.014627751 -0.06986777 -0.0218223 -0.03560539
0.010027537 -0.097699314 0.016120847 -0.009909464 0.06128533 -0.050462235 0.087702036 -0.08325468
-0.019541426 -0.038073134 0.055699367 -0.056444388 0.08011298 0.03318913 -0.014998682 -0.087327056
0.06322129 0.023870908 -0.0116471425 0.049629793 0.013559151 0.10613902 -0.013096643 0.00217561
0.023496523 -0.046051238 0.043018878 0.10090666 0.08112084 0.022988314 0.10768714 -0.047105137
-0.06864471 -0.02422406 -0.10295552 -0.098142564 0.012838093 -0.10018981 -0.037470043 -0.11120844
0.099013336 0.06726085 -0.050302286 -0.0050419304 -0.012913596 0.0945491 -0.06817257 -0.08576481
0.08240942 0.010579596 0.06330945 0.086441256 0.0066545787 0.10704746 -0.0762747 -0.07494902
-0.042465404 -0.11141227 -0.02899995 0.11097236 -0.061729714 -0.053214386 0.095591106 0.023176266
-0.029900163 -0.05445565 0.05025301 -0.054995276 0.0405621 -0.09441544 0.06828128 0.034141492
0.044732925 0.04719106 -0.044767283 -0.05203054 0.081913926 0.044305656 0.041413147 -0.076998025
-0.054104805 -0.02666046 -0.10812591 -0.029392352 0.026780823 0.1071486 -0.0023382916 0.040721983
0.05626173 -0.09889596 0.0009695723 -0.06500927 0.101433 0.0621977 0.047994755 -0.02493219
0.0029785156 -0.051907856 0.03973776 0.013142237 0.023922328 -0.09431647 0.055896048 -0.08450548
0.037919182 0.04266382 -0.09681325 0.012941091 -0.0008150074 -0.077043205 -0.02132226 0.048628207
0.013077037 -0.08178519 0.098513216 -0.06514691 0.06199085 0.07737008 0.03416391 -0.039514493
0.06792517 0.051163487 0.08937755 0.0785264 0.06124752 0.064553894 0.0822558 0.103329495
-0.104369596 -0.024510466 -0.07073362 0.04929794 0.08611239 -0.055542883 0.024322394 0.014587234
-0.072474435 0.109174445 0.08452897 -0.052463632 -0.0045198193 0.00248394 -0.047529075 -0.09175811
0.07941039 0.096626975 0.009796789 0.06859424 0.021599364 0.028543878 -0.035331365 -0.027461044
0.07482082 -0.01836924 -0.063018896 0.111778304 0.037592515 0.04726475 0.0954899 -0.009602346
-0.09838695 0.022230497 0.10416881 0.0054617627 0.00038964418 0.0054785027 0.060171563 0.026345437
0.038888235 -0.06723383 -0.10767994 -0.10927147 0.042910375 0.033820756 -0.100052975 -0.057436965

lstm.weight_hh_l0 f4 [320, 80]
00000000: 59a1 4f3c 31fa c9bc f8fc c73d 57cd 6d3c
00000010: 5e93 3d3d 68a9 26bc c23f a13d bf79 bbbd
00000020: 4937 abbd 80e0 883d 2870 50bd 5f66 e23d
00000030: 413e 05bd dabb 5b3d 4cd3 d7bd 9e1a b33d
00000040: 3264 97bd 34cc 3bbd f78d 6f3d 7fa3 7b3d
00000050: 78be 5d3d 30ae a23d 24b5 c13c 3d39 b03d
00000060: a8db 763d a53c 14bd cf30 433d c510 10bd
00000070: 19d1 55bd 141c 5fbd 2d71 aabd a26c 933d
00000080: 6396 7abc 0c6b cfbd 9a8e 25bc 11db bfbd
00000090: 9362 77bd 6d4b af3c f71b 6dbc 9294 d1bd
000000a0: f660 10bd c19f d7bd 569f 7e3c f078 43bd
000000b0: 9208 933c 4151 0a3c 1224 91bb f239 2a3c
000000c0: 7458 fe3c ab05 d33c 0bb5 973d 81ae 0e3d
000000d0: bd21 7cbd 1519 88bd f1c0 f23c c454 a23b
000000e0: 1f7c 2a3d 2138 973d 7ef3 bf3b 46f3 83bd
000000f0: 6b88 c93d eede 863d c6dc 043c 05d4 94bd
00000100: 34bd babc b844 47bd ee62 1f3c d2fa fd3b
00000110: ea39 273c 2ff4 e83c c5cb 5a3d 2d5e 1e3d
00000120: 1b20 c13c 94e1 9e3d 0e7b 11bd c0f4 dd3d
00000130: 4adb a43d 71e3 49bd 7318 a13d cf64 883d
00000140: f7aa 9bbd 4f7e 733c 1cdb b93c 936f ac3d
00000150: a702 d83d f61c d8bc 79b8 aebd 5c97 d93b
00000160: ab4b 14bd a898 cbbd 89b7 8fbc 71dd 823d
00000170: 0de6 a2bd 1ebf 843d 47a0 7f3d d287 59bc
00000180: 6dc3 863d 23a4 80bd d9d2 cf3d 647a 15bd
00000190: 44eb 513d 2b9b dd3c 8f9a 973d 7f5d 463d
000001a0: 2a56 e03b 506b c3bd d364 d9bd 9a42 8e3d
000001b0: 4ec1 d33c 572a ad3d ae00 8e3c 8ca2 28bd
000001c0: 07ab 533d b4f8 df3d f2b4 413d d6b8 2f3d
000001d0: 57b0 64bd b488 e23c 2b17 173c 9506 37bd
000001e0: afed 76bd c0fd 3d3d 87dc 9dbd 1299 203c
000001f0: f4b1 d13d 9968 603d a4f7 c4bd 512e d6bc
00000200: 53f4 1d3d b202 81bc 8ed7 743d 14bc adbd
00000210: fc25 d63d 5e26 933c fc64 0f3d f413 543d
00000220: 5265 b6bc 0e1b 54bc a57e 9fbd 70fd 7fbd
00000230: 0f96 ddbd 1c52 d1bc e51a d8bc 8c5b 9cbd
00000240: cf2d bd3d f796 8a3c 2497 44bd b29a 22bc
00000250: a7fa 96bd 0aff 92bc f8a9 913d 0f68 d43d
00000260: 8898 0c3d 1130 e03d 7a34 903c f3a3 d03b
00000270: 19d5 6e3d 5c98 753c 26b9 aabc 668f 4cbd
00000280: 0748 2f3d 0451 203b 8e8a 403d 6383 e0bc
00000290: 43a2 b8bd 8861 bdb9 44ef e93a 37f1 e53c
000002a0: 6361 bfbd 3ff1 38bd 8b29 613d a365 db3d
000002b0: a3a7 cf3c 3204 58bd 75aa c9bd 8a53 e2bd
000002c0: 1b4e fbbc 859e 3cbd 7c63 53bd 529f 293c
000002d0: 3923 aa3c 27fa 86bd 1222 2fbd 1bf6 893d
000002e0: efb1 c13d 83f2 c5bd ea4f 13bd bc2c 5ebd
000002f0: 0233 2ebd 3ff0 c83d 0a75 80bc b6a1 503c
00000300: 035c 63bc 7fbf cebd 3d7c c53c a58c 543d
00000310: fa25 41bd 9cdc 44bc bfa3 cf3d 173e 103d
00000320: cce8 4b3d 3d3c bdbd 11df d03c b600 ecbc
00000330: 26f9 e2bd 04a5 24bd 9d52 c1bc e312 a7bd
00000340: 41d0 b73d 4039 69bb 40a6 973c 90b1 51bd
00000350: 5061 213c 28c4 26bd 498e e2bd 11bf a8bd
00000360: 1097 023d 8ca1 84bd f1b6 483d d1b1 94bd
00000370: e7dd c73c e69a e3bb b5b5 37bd ee54 74bd
00000380: c53e a43d 0e66 2c3d 5001 d53d b57e d9bc
00000390: fa5c 65bd 8f5f 153d 17c9 9ebc 71db 853d
000003a0: 0e24 7c3d 6835 e03c 1b28 2e3d 1913 ad3c
000003b0: 2904 ae3d 6d00 d9ba f5d5 b33c 133e c5bd
000003c0: 3b15 93bd 40c7 b53d 028e 133c c71d bd3d
000003d0: cec1 073c d92b e23a f8ad 8b3c bb13 d93d
000003e0: f4c8 03bd b691 bc3d b06d e93b 6d17 383d
000003f0: f015 97bd 91f8 823d adfd c33d cff4 0abd
0.012672746 -0.024655433 0.09765047 0.014514289 0.04628312 -0.010172226 0.07873489 -0.091540806
-0.08360154 0.06683445 -0.05088821 0.11054682 -0.032530073 0.053645946 -0.105383486 0.08745311
-0.073921576 -0.04584904 0.058484998 0.06143522 0.054136723 0.0794338 0.023645945 0.08604667
0.060268074 -0.036190648 0.04765397 -0.035172243 -0.052201364 -0.054470137 -0.08322368 0.071984544
-0.015294644 -0.101278394 -0.0101048 -0.093679555 -0.060396742 0.02139827 -0.014471999 -0.10233416
-0.03524872 -0.105285175 0.015540918 -0.047722757 0.017948423 0.008442224 -0.0044293487 0.010389792
0.031048037 0.025759539 0.07407578 0.03483439 -0.061555613 -0.06645409 0.029633017 0.0049539525
0.041622277 0.073837526 0.005857884 -0.06442885 0.09840473 0.06585489 0.008109277 -0.07267002
-0.022795297 -0.04864952 0.0097281765 0.0077508474 0.010206679 0.028436748 0.053416986 0.03866403
0.02357488 0.07757869 -0.035517745 0.10837698 0.080496386 -0.04928917 0.078659914 0.06659853
-0.07600968 0.014861657 0.022687487 0.084197186 0.10547381 -0.026380997 -0.08531279 0.006640358
-0.036204975 -0.09941226 -0.017543571 0.06389893 -0.07954035 0.06481765 0.06240871 -0.013277011
0.06580243 -0.062813066 0.10147638 -0.036493674 0.051249757 0.027051529 0.074025266 0.04842901
0.006846209 -0.095419526 -0.10614934 0.06946297 0.02584901 0.08455341 0.017334308 -0.04117064
0.051676776 0.10936108 0.047291704 0.042900883 -0.055832233 0.027653076 0.009221832 -0.04468401
-0.060285266 0.046384573 -0.07708078 0.00980212 0.1023902 0.054787252 -0.09617546 -0.026145132
0.038563084 -0.015748356 0.05977588 -0.08483139 0.10456464 0.01796263 0.035008416 0.05177684
-0.02226511 -0.012945903 -0.077878274 -0.062497556 -0.10819637 -0.025551848 -0.026380012 -0.07634649
0.09237253 0.016917689 -0.0479957 -0.009924578 -0.07372027 -0.017943878 0.07112497 0.1037141
0.034325153 0.10946668 0.017603148 0.0063672005 0.058308695 0.014989939 -0.020840239 -0.049941443
0.0427933 0.0024462352 0.047007136 -0.0274064 -0.09015324 -0.00036121556 0.0017847796 0.028069122
-0.09344747 -0.045151945 0.05497126 0.10712745 0.02534849 -0.052738376 -0.09846965 -0.1105109
-0.030676892 -0.046049614 -0.051608548 0.010352926 0.020768749 -0.065906815 -0.0427571 0.06736394
0.09457766 -0.09665396 -0.035964884 -0.05424188 -0.042529114 0.09811448 -0.015680809 0.012733867
-0.013876918 -0.10095119 0.024107093 0.05189194 -0.047155358 -0.012015488 0.10138654 0.035215463
0.04978256 -0.09240005 0.025496991 -0.028808933 -0.110826775 -0.040196434 -0.023598963 -0.08157899
0.08975268 -0.0035587102 0.018511891 -0.051194727 0.009849861 -0.040714413 -0.11062295 -0.08239568
0.031882346 -0.06476125 0.04900259 -0.07260478 0.024397803 -0.0069459556 -0.044851024 -0.059651308
0.08019785 0.042089514 0.10400641 -0.026549676 -0.055996872 0.036468085 -0.019382996 0.06535996
0.061557822 0.027369216 0.042518716 0.02112727 0.08496887 -0.0016555913 0.021952609 -0.0963098
-0.07181784 0.088758945 0.009006025 0.09234195 0.008285953 0.0017255499 0.017050728 0.105994664
-0.032174066 0.0920748 0.0071236715 0.044944216 -0.07377231 0.063950665 0.09569869 -0.033924874

lstm.bias_ih_l0 f4 [320]
00000000: ebc9 99bc f698 6d3c 3417 b9bd 561d 5f3d
00000010: c9b2 6bbd 8a96 833d 5268 d3bd cdd1 e73b
00000020: 04bb bc3d 8c57 913d 8003 4abd df84 de3d
00000030: 992b e33c 0425 d0bd 75f6 c73d 7f3e ae3d
00000040: 3cf0 e43a 9128 ea3c cb2e aabd 9d8d 9cbd
00000050: 49dd 17bd 2eb3 75bd 7c72 1f3d 61f9 113d
00000060: ff81 173c 7600 a7bd f344 8a3d 4c2e aabd
00000070: 35c6 ea3c 4ced 87bc 76d7 40bc fa8b 953d
00000080: 9d08 c2bd 9f6c ae3d 646e dd3c 7a0c 80bd
00000090: 6f06 703d b840 cebc 1bc3 dbbc 7ba8 d2bb
000000a0: 39b6 eb3c 84ff 223d 31a2 ba3d b95e cdbd
000000b0: c9dd b53d 0bf6 cd3d e925 9e3c 73da cebc
000000c0: bdc8 45bd f0ce eebc c754 c83d 0526 dabb
000000d0: 6cdf 183d f259 e13d 2a1e bd3d cd41 c93b
000000e0: 8fef b3bc cef1 30bd 0440 b7bd 1d27 b2bd
000000f0: 01c5 70bd cea3 b73d a8e2 8ebd ab7d cb3d
00000100: ae5b 29bd 6e57 acbd 8ff2 5fbd 6427 79b8
00000110: 2b2b 6b3c 3a44 903d e891 2a3d da8c 593b
00000120: 6380 163d 3ce0 813c bc53 da3d c73b d83d
00000130: 9461 803d 2bed e13d 04be 49bb 9dba a43d
00000140: cbda 873c 4f27 79bd a7e7 a53c ed51 b5bd
00000150: 1d6b f8bc b9d6 393d a650 c93d a52b cebc
00000160: 7f8c 763d d049 0dbd 5209 193d 6066 053d
00000170: e580 4ebd cac6 b9bd d0b7 bb3c bd7b bf3d
00000180: ccfb 96bd aa7a cf38 8214 a3bc 8873 543d
00000190: 5ab3 c6bd ed7a cdbd 6971 953d 1ac0 e23b
000001a0: 0d65 b0bd 5eda 57bd 01e3 d73d 15de 7b3c
000001b0: b617 6a3d 8c05 10bd c4dd 2bbb d552 c2bd
000001c0: 8144 c13d 5c6e 4bbd 5496 1dbd 7576 acbd
000001d0: 5ae5 19bd b5ab 58bd 2291 dcbd 8a04 933d
000001e0: ff79 a3bd 3cd4 8bbd bb2e d5bd fe5c f53c
000001f0: 4a0b 88bd ec05 793d 9fae a03c 5e35 93bd
00000200: e0db a43d e482 e4bc 28c3 a23d 4250 4cbc
00000210: 433b 59bd bfdc 0cbd 7a22 373d 5ef7 d33d
00000220: be02 bc3d 4983 993d 2877 933d fc80 13bc
00000230: b6d8 d63d 946e dfbd c1aa aabc d328 a2bc
00000240: 9cc2 bfbc 39f1 a13d 39f5 bdbc 7554 7dbc
00000250: 5e30 eb3c 98a7 de3d 3fe9 45bd af28 20bd
00000260: 81ad c2bd dcbe 17bd 3793 373d eb90 683d
00000270: dd1c efbc bc80 c3bd 59a3 c93d 5c0a aa3d
00000280: e072 6b3d 36b0 aa3d eb47 573d 17f7 cabc
00000290: e3a5 e1bd b368 c5bc 84ec 96bc b829 c03b
000002a0: 07fe 63bd 7bca a3bd 5ddf 833d eb38 44bd
000002b0: a905 7dbd e965 9abd 35dc b63d eaa2 b9bd
000002c0: 91e8 873d 480e a4bd 677d 87bd ca87 d13d
000002d0: 7c64 bfbd 50bb 383d 24a8 833c 4779 6c3d
000002e0: 2b7f 61bd 8fda db3c e05e 6b3c c8cc 20bc
000002f0: aa0f 8fbd 3555 edbb 9816 9b3d efb8 173d
00000300: c93b b73b bea8 29bd 16d6 3d3d 2531 a5bd
00000310: a4dd 873d 5b6c b2bd 7f10 9c3d 7e31 15bd
00000320: 9076 863c f701 9dbc 3bf5 e0bd c26c 113d
00000330: c1b7 a4bd f252 8fbd 71b4 b73d 1783 89bc
00000340: 39fb 113d e263 89bd c040 0abd 0121 bf3d
00000350: 6f44 cd3d 12c9 b23c 1aa9 c53d ed50 bc3c
00000360: bf7c 40bd 5c1e e73c e0e7 c3bc d9ed a0bc
00000370: 24bb d03d 72c9 c9bc db9e 103d ba96 c03b
00000380: a7ab 603d 5821 aabd 6f82 83bc 6837 b33d
00000390: 6d2c b7bd a1fe c2bd e884 98bc 4bea fa3b
000003a0: 4119 cfbc 40a6 d53c 4f93 ce3d 2415 db3d
000003b0: 7887 a8bd 9910 82bd fef7 203d e828 7cbd
000003c0: f542 303d fcd1 cc3d 307c 663d 1366 93bd
000003d0: 82d5 413d 7ff9 c7bd 171e 4f3c c7c7 2e3d
000003e0: 1658 813d f96c c73d 6a1c 93bd 21d9 e93c
000003f0: b047 b8bd f72d 643d 1649 953a 5b5f a03c
-0.01877304 0.014501801 -0.09037629 0.054471336 -0.05754355 0.064251974 -0.10322632 0.0070745707
0.09215358 0.07096776 -0.049319744 0.10865187 0.02773075 -0.1016331 0.09763805 0.08508014
0.0017466615 0.028583797 -0.08309706 -0.07644198 -0.03707627 -0.059985332 0.03892754 0.035638217
0.009247302 -0.08154385 0.06751432 -0.08309612 0.028658966 -0.016592644 -0.01177012 0.07302089
-0.09474299 0.085168116 0.027030177 -0.0625238 0.058599886 -0.025177345 -0.026826432 -0.006428776
0.028773414 0.03979446 0.09112967 -0.100278325 0.08880193 0.100566946 0.019305186 -0.02525065
-0.048287142 -0.02915141 0.09781795 -0.0066573643 0.037322447 0.11003484 0.09234269 0.0061418773
-0.021964816 -0.043199353 -0.08947757 -0.086988665 -0.058781628 0.0896679 -0.06976825 0.09936079
-0.0413472 -0.084151134 -0.05467468 -5.940291e-05 0.014353554 0.07044263 0.041643053 0.0033195526
0.036743533 0.015853994 0.10660502 0.105582766 0.062686116 0.11031564 -0.0030783424 0.08043406
0.01658382 -0.060828503 0.020252062 -0.08853517 -0.030324513 0.04537079 0.098298356 -0.025167296
0.06019258 -0.03449422 0.037362404 0.032568336 -0.050415892 -0.09071119 0.022914797 0.09349773
-0.07372245 9.893377e-05 -0.01990724 0.05186799 -0.09702177 -0.10033212 0.07297022 0.006919873
-0.08613024 -0.052698486 0.105413444 0.015372773 0.05715152 -0.03516154 -0.0026224712 -0.09488455
0.09436894 -0.049665794 -0.038473442 -0.084210314 -0.037572242 -0.052898128 -0.107698694 0.071786
-0.07982253 -0.0682759 -0.10409304 0.029951569 -0.06642778 0.060796663 0.019614516 -0.07187913
0.0804975 -0.027894445 0.07947379 -0.012470307 -0.053035032 -0.034390207 0.044710614 0.10349916
0.091802105 0.07495744 0.072004616 -0.00900292 0.10490553 -0.10909763 -0.020833375 -0.019794857
-0.023408227 0.07907338 -0.02318822 -0.015462031 0.028709587 0.1087181 -0.048318144 -0.0391013
-0.095057495 -0.037047252 0.04481813 0.05677883 -0.029188568 -0.095460385 0.09845609 0.08302757
0.0574826 0.08334391 0.05255882 -0.024776025 -0.110179685 -0.024097776 -0.018423326 0.0058643483
-0.05566218 -0.079976045 0.064390875 -0.047905844 -0.061772976 -0.07538969 0.0892872 -0.090642765
0.066361554 -0.080105364 -0.066157155 0.10230978 -0.09345338 0.04510051 0.016071387 0.057732847
-0.055052917 0.026837615 0.014365882 -0.009814449 -0.069854096 -0.0072428235 0.07572669 0.0370416
0.0055918437 -0.04142069 0.046346746 -0.08066014 0.066340715 -0.087120734 0.07620334 -0.036424153
0.016413957 -0.019165976 -0.10984274 0.03550411 -0.08042861 -0.069982424 0.08969963 -0.016786141
0.035639975 -0.06708504 -0.033753157 0.09332467 0.10022818 0.021824393 0.09651394 0.022987807
-0.046993967 0.028212719 -0.023914278 -0.019644665 0.10191944 -0.02463219 0.035307746 0.005877343
0.0548512 -0.08307141 -0.016053407 0.08750802 -0.089440204 -0.09521223 -0.018618062 0.0076573244
-0.025280597 0.02608025 0.10086691 0.10697392 -0.082289636 -0.06350822 0.039299004 -0.06156245
0.043032605 0.10000989 0.05627078 -0.071972035 0.047322758 -0.097643845 0.012641451 0.04267099
0.06315629 0.09737582 -0.07183154 0.028545918 -0.08998048 0.055707898 0.0011389579 0.019576719

lstm.bias_hh_l0 f4 [320]
00000000: e6a0 bfbd 6827 9fbd b57a 39bd aa59 7bbd
00000010: a256 37bd 1d3e a0bd 7315 0f3d a67a c0bd
00000020: 56e3 1f3d 9e5d 9ebc 05d0 5c3c 8971 8dbd
00000030: b4ed 7a3c 228e 8abc 2d0a 833d c096 813a
00000040: 1052 f43b 5daa 9abd dfb4 663d f631 5c3d
00000050: 3a24 8bbb 3b35 6bbc 6929 db3d fd03 d1bd
00000060: c5bf 9b3d a73c b6bc 8076 6f3d ef5b cd3d
00000070: 9f31 acbd 441e 9a3d eaa2 b2bd 5743 f73c
00000080: 08ea c2bd f177 583d d080 11bc 7d4a da3d
00000090: b29b 4cbd 1a3b 823c fddf 413c 00fc 863d
000000a0: 9e26 503c efdb 03bd 8665 f8bb ad97 b8bd
000000b0: 02eb 72bc 775c 9b3d 9673 c5bd e3ef ba3d
000000c0: e46b 7cbd 25e1 4e3d 7fda d03d 60db 5e3c
000000d0: f192 98bd 4490 aeba 7118 d1bd 6638 b7bd
000000e0: f06d 2c3d 96e9 48bc b239 b23d e378 27bd
000000f0: dd90 873c 542c 653d f469 a0bd c2a9 8d3d
00000100: 2108 c73d 6ea2 abbc 4e73 91bd 42c1 b33d
00000110: 4ec5 4f3d 9e57 88bd 2f63 2f3d ecc7 aabd
00000120: 0998 ccbd ccdb ce3d f31c 953d f6a5 c0bd
00000130: bce4 2ebc c255 423d ab39 be3d 9142 dfbd
00000140: 291b a7bd 3997 5abd 223f 06bd dca2 843d
00000150: 8dda 393d 2392 963d 7ff5 a3bd 08d9 253d
00000160: 2658 b23c a2c3 1bbc 480f ffbc 1da6 ce3d
00000170: e9e9 d83d 2484 aebd 5a2d 293d c3a1 ae3d
00000180: ddf5 b1bd 8b79 46bd b837 6cbc 6742 d13c
00000190: 7ffb 4cbd 0e6a 8fbc d8af 0c3d 2fb3 cabd
000001a0: 9338 023d c488 d43d cde8 b6bd d7b6 de3d
000001b0: b968 b73d a145 04bd 6b3d e0bd ac85 b6bd
000001c0: 617d bbbd 9987 5b3d 9f85 843d b0ad b83d
000001d0: ba23 77bd 92f7 cc3d 853e c23c 411b c73d
000001e0: bca3 3e3d a959 bfbd c8dd b33d 4ec5 f5bc
000001f0: 9b28 a53d 5232 0ebd 1283 9abd 2f88 53bd
00000200: 471e 053d 4b28 a6bd b6f8 32bd e47c be3d
00000210: 1a9d 8bbd 9deb 86bd 36a1 d0bd d6ec f8bc
00000220: df42 11bc f12a 933d 7f87 afbd b436 90bd
00000230: acb8 8ebd 2f8a 07bb b275 8e3d 5b89 583c
00000240: 3db2 d8bd 2590 c83c 802d 963b 1834 a93d
00000250: e66b 923d d4b1 d5bd ce3b 58bd 8f74 a93c
00000260: bb4a a2bc cde5 a9bd 4efc 23bd a57f d23c
00000270: 5322 c7bc e886 de3d e6a6 813d b1fa ddbd
00000280: 9859 aebb bbbb fcbb 5699 a7bb dae2 bc3d
00000290: 9333 7ebd 95bc f43c ec09 19bc a3d5 cbbd
000002a0: 34c2 023d 8b8d 7bbd 1957 b8bd 5075 6ebd
000002b0: 4156 973d e642 cd3d c937 71bd 7881 37bd
000002c0: 10b3 9dbd c2a6 cc3d 2708 a23c fa62 aaba
000002d0: 0d7b 733d c1c4 9db9 215e c83d 9572 2f3d
000002e0: 53a6 22bd 68f4 763c 356f 133c eddb 693c
000002f0: 2de2 903d 0148 d73c 266a 13bd 1a99 833c
00000300: 705e 89bd bf07 1b3b 47b9 c9bd e1c0 b13a
00000310: c001 663d bacc 853d 2339 cabc 0ce3 f5bc
00000320: 8378 b0bc a5e4 693c ac0f 89bd 39c8 8cbd
00000330: b7e4 243b 361c c8bd 6c14 fe3c 83ca 793d
00000340: c95d b5bd 531e bd3d d1cf 413d c27a 983d
00000350: 0b26 87bd 3423 9bbd f69c c53d 63fc c6bd
00000360: 9977 b53d 1c2e a63d 38f1 aebd 861c bf3d
00000370: b9aa 093d 9cff 9fbd c611 27bc 0952 563d
00000380: c58b b03d 2200 d3bc 4578 45bd 694d d53d
00000390: 3113 9f3d d148 0c3c 1d33 c1bd 9784 59bd
000003a0: 0ea7 863c e914 313d 5565 f9bc 2349 ef3c
000003b0: 5357 9f3d ecba d63d 160d aebd 4bfe 8ebd
000003c0: 1530 2c3d 6d5e 353d 4857 a73d a4db 2abd
000003d0: 5cf4 023c 4122 dd3c f186 bc3d 4610 0dbc
000003e0: 06ec b7bd f804 83bd 7ba6 e7bc a4a2 9abd
000003f0: 9113 c7bb 36fb b23c dbfb fe3b 6f27 df3d
-0.09356861 -0.07771188 -0.04528304 -0.061364807 -0.044760354 -0.07824347 0.034932565 -0.09398393
0.039035164 -0.01933175 0.01347733 -0.06906421 0.015315462 -0.016913477 0.06398425 0.0009886846
0.0074560717 -0.075520255 0.056324836 0.053758584 -0.004246262 -0.014355953 0.10701258 -0.10205839
0.076049365 -0.022245718 0.05846262 0.100273006 -0.08407902 0.07525304 -0.0872248 0.030183477
-0.09517294 0.05284876 -0.008880809 0.10658739 -0.04995317 0.015897322 0.011833188 0.06591034
0.01270452 -0.032192167 -0.007580462 -0.09013305 -0.014826538 0.07585996 -0.09641187 0.09127786
-0.06162633 0.050507683 0.10197925 0.013602108 -0.07449902 -0.0013318141 -0.1020974 -0.08946304
0.042097032 -0.0122627225 0.08702411 -0.04088677 0.016548568 0.055950478 -0.07832709 0.06917144
0.09718347 -0.020951476 -0.07102071 0.087770954 0.050725274 -0.06657337 0.0428192 -0.08338913
-0.09989936 0.10100517 0.07280912 -0.094066545 -0.010674652 0.047445066 0.09288343 -0.109013684
-0.08159477 -0.053366873 -0.032775052 0.064763755 0.045374442 0.07352092 -0.08005809 0.04049018
0.021770548 -0.009507092 -0.031135216 0.10090277 0.1059149 -0.085212976 0.041303016 0.08526947
-0.08689473 -0.048455756 -0.014417581 0.025544358 -0.050044533 -0.017506626 0.034347385 -0.09897458
0.031792235 0.103776485 -0.08931122 0.10874718 0.08955521 -0.032292966 -0.109492145 -0.08912215
-0.091547735 0.053596113 0.06470799 0.09017503 -0.060336806 0.10008158 0.023711452 0.09721995
0.046542868 -0.09343273 0.08782536 -0.030001309 0.080643855 -0.034715958 -0.07544531 -0.051643547
0.032499578 -0.08113154 -0.04369422 0.09301165 -0.06817074 -0.065879084 -0.101869985 -0.03038637
-0.008866041 0.07185925 -0.08570766 -0.07041684 -0.06968817 -0.002068173 0.06956042 0.013216342
-0.10580871 0.024482796 0.0045830607 0.08261889 0.07149486 -0.10434309 -0.05279141 0.020685462
-0.019811025 -0.08295784 -0.04003554 0.025695631 -0.02430836 0.10865575 0.063306615 -0.10838831
-0.005320739 -0.007712809 -0.0051147146 0.09222956 -0.062060904 0.02987508 -0.009340744 -0.09952857
0.031923488 -0.061414283 -0.090009876 -0.058217347 0.073894985 0.100225255 -0.05889109 -0.044801205
-0.07700169 0.09992744 0.019779278 -0.0012999468 0.059443522 -0.00030091967 0.09783579 0.042833883
-0.0397094 0.015072919 0.008998682 0.014273626 0.070743896 0.026279451 -0.035989903 0.016064215
-0.06707466 0.002365574 -0.09849792 0.0013561511 0.056154013 0.06533189 -0.024685448 -0.030015491
-0.02154184 0.0142757045 -0.06692442 -0.06874127 0.0025160739 -0.09771006 0.031015597 0.060984146
-0.08855779 0.092342995 0.04731733 0.07445289 -0.06599053 -0.07575074 0.096490785 -0.09716108
0.08860702 0.081142634 -0.085421026 0.09331612 0.03361008 -0.078124255 -0.010197109 0.05232433
0.08620409 -0.0257569 -0.0482104 0.104151554 0.07767332 0.008562283 -0.09433577 -0.053104963
0.01643708 0.043232832 -0.030443827 0.029209679 0.07780328 0.10484871 -0.0849859 -0.06982096
0.042038042 0.044279505 0.081709445 -0.041713372 0.00799283 0.026993873 0.092054255 -0.008609837
-0.08980565 -0.06397432 -0.028277626 -0.075505525 -0.0060753305 0.021848302 0.0077814884 0.10896193

net.0.weight f4 [128, 80]
00000000: 3182 73bd 8c8f a8bd 56de 37bd f24c 5b3d
00000010: 14d9 d1bd f245 c53d c4d1 bd3d 4da1 9a3d
00000020: 8d0e 583d f5b6 4abd ae4a b53d 73e9 83bd
00000030: 2c75 9abb 2190 debd 098a b4bd 1bdd 99bd
00000040: 18a3 28bc 7dd3 973d 9566 76bc 9d6a c03d
00000050: 9570 a63c 89ab 9d3d 6738 f43c c520 8b3d
00000060: d5d6 d6bd 75d6 dfbc 13c9 d43d 2bd9 bd3d
00000070: dcfb 15bd e39d 1d3d 87b0 93bc 994d 9dbd
00000080: c296 9c3d 3cd1 cebd ce28 883d 80f6 9a3d
00000090: 70e8 183d 319b e93b b39e e13c 7684 d63c
000000a0: 8947 ac3d 7bea b3bd e9c5 b3bd 56a0 873d
000000b0: 497a b8bc 5cd6 393b b7f7 c7bd 1edb b1bd
000000c0: 1932 1e3d 7095 563d 910f 94bd c6d6 e1bd
000000d0: c3d9 a3bd b6be 40bd 725a db3d 160f a33c
000000e0: 036b 6d3d 0000 183c fa6b 9e3d b053 03bd
000000f0: ffad cb3d 73cb 533c 9e2f a93d 34d5 873b
00000100: 7894 3cbd c09c bfbd 2837 adbd 6a6b 8cbd
00000110: f732 ab3d da9e e83b 1e05 d7bd 1884 d13d
00000120: 1e00 68bd 8bf5 c4bb cc40 9cbd bda4 e33b
00000130: 0715 873d bab0 70bd f8ee b2bb 708b ddbd
00000140: 190b d7bb 9a63 81bc 263f bb3b 89d5 5f3d
00000150: bc92 be3d 34c5 e0bd ec2c e8ba 53e8 073b
00000160: 05ee 7fbc 6292 bebd 329a 133b abf4 11bd
00000170: 042f bc3d d8f1 8a3d ac0a 163d 99b9 c83d
00000180: aa1a c73c 079a 7e3b 0dd8 e1bc e7ff d53d
00000190: eccc bc3d 7e87 82bd 8b03 e13c 579e 1fbd
000001a0: 0d24 793d 5ec6 023d 3bc8 683d 25dd 3dbd
000001b0: aa51 a3bb 5fb9 9a3d 1916 6f3d ef59 29bd
000001c0: 7e27 263d 6acb d73d b1b1 c73d bbcb b5bb
000001d0: d528 2dbd b95d abbc 3c23 80bd 9e13 c83d
000001e0: 06fc 773d 3d2f 8f3d 12d2 da3d 39d7 b73d
000001f0: 2512 c1bd f643 4ebc 8bf1 0d3d c3e4 85bd
00000200: 29e2 e23d d4bf d23d 6fed b63d 2dd7 2d3d
00000210: 1050 8f3a 890f b53d 43b2 9fbd b8af 7f3d
00000220: 3a2e 8fbd 6cdf ebbc a047 b73d 9082 a7bd
00000230: f458 823b 15c0 d9bd 3e1d 14bd daae ffbb
00000240: b13d 5fbd 2122 dabd b89b 6f3d b9c7 d13d
00000250: cfa1 b7bd b730 53bc 6d7f 20bd 436e 1fbd
00000260: 7a31 803d 0cfa 183c 75c2 93bd 686a 6bbd
00000270: eae1 4ebd dcae 8c3d 9e18 a3bd b841 4a3d
00000280: 3b7d adbb 38ee a1bd 549d e1bc 4419 543c
00000290: 3fb0 86bd 4a47 923c ef0b abbd 1062 5bbd
000002a0: a3d8 48bd e71f 263d 41d7 aaba a5d8 08bd
000002b0: e85b 9b3d dd6d cb3d c17e 073d 3e14 8cbc
000002c0: 4ece d5bc 59e9 30bd 5c07 3bbd 276d dc3d
000002d0: a5d9 33bc 01c0 793c 6b50 b53d 503a 253d
000002e0: 0b06 b63d 2ce0 e9bb 94e3 30bd 3d7e fb3c
000002f0: 292f e83a 3d5d 15bd bb81 ebbc 91d0 88bc
00000300: 9c8f c93d f0c0 243b 0af8 0b3d 4858 ce3c
00000310: f114 8c3d 6d4f d1bd 95e1 6fbb 564f d0bd
00000320: 0302 afbd 466d b7bd 5259 943d 8202 d23c
00000330: aa16 a63d b2bc b23d 5ea1 8dbd 30a5 98bd
00000340: 2ebc 89bd 5adc b03d 1653 c03d c905 98bd
00000350: d9e2 e4bc d76c a73c 7992 833d 65c7 e23d
00000360: 3282 983d f024 82bc 31f1 b53d 6fd8 723d
00000370: 28cd 00bd f57d 7a3a 6e3d ce3d 3ee5 b53d
00000380: 94f3 5ebd 9fc0 633d 7063 303c eccf c0bd
00000390: 59bb 8a3d 319e 7dbc 0124 9abb ff00 593d
000003a0: a9fe bcbd 7d28 c3bd e15a 263d 5386 15bd
000003b0: 4689 ab3c 4817 1f3d 1aa1 d93d 87d7 bd3d
000003c0: f32e d23c 6c02 d5bd d893 84bd cce4 8d3d
000003d0: 79aa 8abd 1e1e b83d 3edc d13d e5ba 8ebd
000003e0: cbc4 043d 1a8e 943d 0eb6 d93d 9398 f0bc
000003f0: 2c0c 753d f371 3b3d bcb6 cd3d 0b82 fe3c
-0.059450332 -0.082305044 -0.04488977 0.053540178 -0.102464825 0.09632482 0.09268525 0.07550297
0.05274825 -0.049490888 0.08852135 -0.06441011 -0.004713675 -0.10867334 -0.088153906 -0.07512876
-0.010292791 0.07413385 -0.015039106 0.09395335 0.020317355 0.07698733 0.029812051 0.0679336
-0.10490195 -0.02732394 0.10389914 0.09269937 -0.036617145 0.03848065 -0.01802851 -0.07680816
0.07645942 -0.10098502 0.06648408 0.075665474 0.037331045 0.007129096 0.027541494 0.02618621
0.08412082 -0.08784958 -0.08777983 0.066223785 -0.022519248 0.0028356528 -0.09764045 -0.086843714
0.038621996 0.05238861 -0.072295316 -0.11027293 -0.08000519 -0.047056876 0.107106104 0.019904654
0.057963382 0.009277344 0.07735439 -0.032062232 0.099452965 0.012926924 0.082610354 0.004145289
-0.04604003 -0.093560696 -0.08457786 -0.06856425 0.0835933 0.0070990147 -0.10499023 0.10230273
-0.056640737 -0.0060107163 -0.076295465 0.0069471286 0.065958075 -0.05876229 -0.005460616 -0.10817611
-0.0065626022 -0.015794564 0.005714315 0.054647002 0.09305331 -0.109751135 -0.0017713583 0.0020737841
-0.015620713 -0.09305264 0.0022522327 -0.035633724 0.09188655 0.06784409 0.03663127 0.09801025
0.024304707 0.0038849132 -0.027568841 0.104492 0.09218773 -0.06373499 0.02746751 -0.038969364
0.060825396 0.03192746 0.05683158 -0.046353478 -0.0049841003 0.07554888 0.058370683 -0.041345533
0.040565006 0.10536845 0.09750689 -0.005547968 -0.04227527 -0.020918714 -0.062567204 0.09769367
0.060543083 0.06991432 0.10684599 0.08976597 -0.09427289 -0.012589445 0.03465418 -0.065377735
0.11078293 0.102904946 0.089320056 0.042441536 0.0010933895 0.08840854 -0.077976726 0.062423438
-0.06991239 -0.02879306 0.08949208 -0.081792 0.003977889 -0.1063234 -0.0361607 -0.0078028264
-0.054502193 -0.10651041 0.058498114 0.10243172 -0.089664094 -0.0128900325 -0.039184023 -0.038923513
0.06259437 0.00933696 -0.07214824 -0.057474524 -0.050508417 0.06869289 -0.0796368 0.04937908
-0.0052944697 -0.07906765 -0.02754084 0.012945477 -0.06576585 0.017856259 -0.083518855 -0.053560317
-0.049034726 0.04055777 -0.0013034121 -0.033409733 0.07585889 0.09933064 0.033079866 -0.017099496
-0.02609935 -0.043191288 -0.045661315 0.10763007 -0.0109771835 0.015243531 0.08853229 0.040338814
0.08887871 -0.007137319 -0.043185785 0.030699844 0.001771425 -0.036465872 -0.028748384 -0.016701015
0.098418444 0.0025139414 0.034172095 0.02518858 0.06839932 -0.102202274 -0.0036602963 -0.10171382
-0.085453056 -0.08956389 0.07243599 0.025635961 0.081097916 0.08727397 -0.06915544 -0.07453382
-0.067253456 0.08635779 0.093908474 -0.074229784 -0.0279402 0.020437641 0.06424422 0.11073188
0.07446708 -0.015886754 0.08883894 0.05928844 -0.031445652 0.0009555512 0.100703105 0.08881615
-0.054431513 0.05560362 0.010765895 -0.09414658 0.06774015 -0.01547961 -0.004703999 0.052979466
-0.0922826 -0.09529207 0.040614013 -0.036505055 0.02093948 0.038840562 0.10626431 0.09269624
0.025657153 -0.104008526 -0.064735115 0.06928405 -0.06770796 0.089901194 0.10247086 -0.06969241
0.03241424 0.07253666 0.10630427 -0.029369628 0.05982606 0.045762967 0.100446194 0.031067869

net.0.bias f4 [128]
00000000: 67bb 0dbd b235 2a3c 0429 bdbc b5f1 5fbc
00000010: 4dc7 aabd 9735 df3d ce65 0dbc 03a8 46bc
00000020: bfb7 d43d e435 8a3c 4177 93bd 72d9 b0bd
00000030: a0b7 7d3c ca5e 4b3d aa1c 563d 5765 9f3d
00000040: f676 cfbd 2f72 843d a36b 74bd d3da babd
00000050: ad79 babc 3b1a 9f3d 7748 13bc fa69 dbbd
00000060: 6d18 d13d 86d9 db3d 82fb acbd 5360 a03d
00000070: 0332 e9bc a6e2 71bd 73e0 a7bd 5134 d23c
00000080: 05c6 663d 4778 a0bd 86dd a0bc 8b0a 493d
00000090: 6abb 68bd c83a 303d 7ddb aebd e5dc 3f3d
000000a0: f77c 55bd 3bb7 ac3d c1fc 96bc 1a9e 4c3d
000000b0: e11d 37bd 1ec9 d03d 26ca 153d b742 e03d
000000c0: 1f92 c3bd 2cf3 b8bb 0ae7 b63d 3704 e3bc
000000d0: 1f4f 4b3d d613 503c d1c4 ad3d 1f71 d9bc
000000e0: 37e9 a4bc bad6 ad3d d4ba d9bc aab3 17bd
000000f0: 618c 843d 5b8c 82bc 8c96 763d 244d b53d
00000100: 8c17 3fbd bfd2 27bd 3e9f 7fbd 9d68 06bc
00000110: 2db5 743c fb64 bfbd 9f9c ac3d f624 ad3c
00000120: a1da 4d3d c77f 463d e81f 5ebd 08ad a83d
00000130: 2a35 dabd df7c 993d 11e0 a3bd da78 14bc
00000140: 50c4 c23d 1d7a 2e3d faea b1bd 2894 b13a
00000150: d098 673d 35b6 62bd cd7c 6d3d 97a1 05bd
00000160: a78c bd3d 2712 7bbc 29bb 293d f490 a1bd
00000170: 6856 9b3d 6992 93bd eb43 f33c 699d 7f3c
00000180: b2f7 963d 36a2 ec3a 02d0 08bd 8c98 1bbd
00000190: 11ab 2d3b 0f5e 9abc 5036 49bd 2240 d6bd
000001a0: af30 b0bd dc03 bd3d 770d c63d 716e de3d
000001b0: 425d cb3d 6b07 bd3b 2112 87bd 9b23 c5bc
000001c0: da4e c83b d809 593d b705 013d 304b 8abd
000001d0: 9437 ae3c 85ec cdbd 6e7c f03c 9ee9 97bd
000001e0: c585 18bc 14bb 8c3b e12e abbc bdfc 98bd
000001f0: d121 8e3d e2a3 bbbc e49c 87bd b054 ccbd
-0.03460255 0.0103887785 -0.023090847 -0.013668467 -0.08338795 0.10898893 -0.008630229 -0.012125018
0.10386609 0.0168714 -0.0720048 -0.086352244 0.015485674 0.049650945 0.05227343 0.07783001
-0.10130112 0.06467091 -0.059672963 -0.09123769 -0.022763098 0.07768675 -0.008989445 -0.10713573
0.10209737 0.10734849 -0.08446409 0.078308724 -0.02846623 -0.05905404 -0.08197107 0.025659712
0.05634119 -0.07835441 -0.01963688 0.04908232 -0.056819357 0.04302481 -0.08537958 0.04684152
-0.05212113 0.08433386 -0.01843107 0.049955465 -0.04470623 0.1019461 0.036569737 0.10950225
-0.09549355 -0.0056442227 0.08930786 -0.02771197 0.049636003 0.012700042 0.084848054 -0.026543198
-0.020130737 0.084882215 -0.026578344 -0.037036575 0.06472088 -0.015936067 0.060202166 0.08852604
-0.046653315 -0.040972468 -0.062407725 -0.008203653 0.014935774 -0.09345432 0.084283106 0.021135788
0.05025733 0.0484617 -0.054229647 0.08236128 -0.106546715 0.074945204 -0.08001722 -0.009062016
0.095101 0.042596925 -0.08687396 0.0013548182 0.056542218 -0.055349547 0.057980347 -0.032624807
0.09255343 -0.015324152 0.041438255 -0.07888976 0.0758484 -0.0720566 0.029695472 0.015601494
0.07371463 0.0018053714 -0.033401497 -0.037987277 0.0026499669 -0.018843679 -0.049124062 -0.10461451
-0.08603036 0.09229252 0.09670537 0.10860909 0.09929897 0.0057687066 -0.06595255 -0.02406483
0.0061129155 0.052987903 0.03149959 -0.06752622 0.021266736 -0.10054878 0.029356208 -0.07417606
-0.009309237 0.0042947624 -0.020896377 -0.07470081 0.06940044 -0.022905294 -0.066217214 -0.0997709

net.2.weight f4 [64, 128]
00000000: f40c 5abb 97ea fb3c bfab b1bd f9df 97bd
00000010: 2922 5b3d f45c 2e3d 8efc 60bd ba2e e9bc
00000020: c8af 903d 75be 41bc 59a6 b4bd 6658 243d
00000030: 1f99 92bd f797 acbd dfe5 03bd c3b5 e13b
00000040: 7d9a 53bd a86f 8f3d 783a a7bd f33b 07b9
00000050: 25e1 883d 39f8 b43c 39d1 86bd 801b 95bd
00000060: 5597 50bd 143e 2fbd 0b69 10bd de64 9dbc
00000070: 2620 3e3c dd93 82bd 441d 2bbd db5c 6f3d
00000080: 509e 313d 3778 2bbc 5a84 113d 9fe0 75bd
00000090: a93b 703d 3a5a 993d 8106 7f3c 17a2 7bbc
000000a0: c88c 28bd 5d7c c1bc e891 44bd 0999 95bc
000000b0: 7bdd 563c 4814 66bd 2a0e 93bc e047 9c3d
000000c0: 2ddf 8b3d 1d58 bf3c f8c1 743d 6591 f93b
000000d0: b2a4 aabd ba60 85bc 7d6a b9bc 2143 a03c
000000e0: 5b1a 9e3d 68da b13c 8b79 a93d a8b5 94bb
000000f0: 8797 6ebd b110 a73d f093 6cbd ca0e 143d
00000100: 63b5 47bd 5149 443d 962e 9c3d f468 8bbd
00000110: 5967 20bd 0f70 c9bb 2e09 72bd 5531 2abd
00000120: 8c88 d5bc 4590 6cbd 54c1 763d 24c6 253d
00000130: c139 80bc a06c 0ebd 08fa aabd bf26 89bd
00000140: 2a76 59bd d86e debc 1aa0 7bbc 85c1 8dbd
00000150: 2d3f 5d3d feae 873d 5e9c acbd 64ec a93c
00000160: acb3 24bd 36db b23d f0c5 713d 6d48 45bd
00000170: 5535 b4bd 69fc 66bd c2c4 23bc 432d 843d
00000180: 43b6 23bc d55b 29bd 643d 62bc 9bcf ac3b
00000190: b130 4abd c38d b1bd e7bc 603c d87a 8cbd
000001a0: 395a 803d 91e3 903d 4896 243d 7e17 f8bc
000001b0: fb21 3a3c 5d41 61bd 0290 2a3d 8299 a73d
000001c0: 4206 7ebd 22ed d93c 808a 553d 482e 98bd
000001d0: 6c54 b3bc b0c9 8f3d b065 87bc a49b 4c3b
000001e0: a7a5 063d 1d35 b4bd f5d9 17bd 20e5 4e3c
000001f0: 6e97 07bd bf4d 1cbd 79fe 933d cf14 36bd
00000200: d703 8b3d b6c3 073b 70e3 00bd 2e14 123d
00000210: 3fcf 2dbd fd47 983c c9b0 2bbd 6345 2e3d
00000220: 7fff 9b3d cdaa 41bd 03c1 193c 94e4 4f3d
00000230: e0e1 9fbd 5aff 18ba 410c b4bd d4f3 16bd
00000240: 1940 0ebd 4f4f c13c 57ed 943b dbc4 8bbd
00000250: b3b4 0fbd ca3c 0fbb b8ee abbd 24e4 0fbd
00000260: d0a7 6c3d 4c0c 093d 6654 053b 5983 d6bc
00000270: 3d73 abbd 89a5 533d 66bc 9c3c 65cf b2bd
00000280: cb26 84bc 61eb 5fbb 1359 633d 0234 a5bd
00000290: ed22 80bc 761a e13b ed5a fdbc eeb4 0fbd
000002a0: 3983 b33c 1036 3b3d 99cd 49bd 284d 0abd
000002b0: 9138 51bd 0a37 a33d 5977 acbd 9779 52bd
000002c0: 13bf 95bd 9f29 4c3b 45ce 5a3d dc19 da3c
000002d0: 6bbc 753d 4294 9f3d 03af 983d 10cd a7bd
000002e0: db51 18bd 0efb a43d 33eb 703d ffd5 91bd
000002f0: 1726 ba3c 64ea b8bc ab54 5cbb 7d34 553d
00000300: c144 8cbd 4f51 aebc 8cde a83d eae4 a03d
00000310: cca2 1c3d fcc0 873d 472a 1fbc 74d0 4cbc
00000320: c9da aabd a77a f63c 3962 023d 11fb 4a3d
00000330: 2fc4 ef3c 3aa6 633d bc79 2abd 9181 89bc
00000340: 82d6 0d3c 7d35 113d 6ea0 1bbc 5484 e13c
00000350: dca3 6ebd c528 11bd 386d 69bd dc03 9d3c
00000360: 7b51 64bd e8b7 2a3d 89d7 203d 4646 47bd
00000370: ab0e b6bc c0b6 ab3d 322d 033d 7edd 083b
00000380: 4ebc 6dbd 5c8b ed3b b8eb 5d3d 3b2b 9a3c
00000390: 0526 a7bd 259f 8d3d 7315 a4bd 883e aabd
000003a0: d36f 803d d4be 9cbc e8c5 8c3d 04f7 aa3d
000003b0: faba fa3c 2a56 aabd 4d54 93bc c476 1b3d
000003c0: 5616 163d ee5a 70bd e7ed f7b8 c4ed b53b
000003d0: 8b1f afbb 7b55 1cbd 52b8 ae3d f8e6 e1bc
000003e0: 3cb2 8c3d c2ec b3bd a2a6 483d 910e c1bc
000003f0: 4672 7dbd 0673 1cbd a201 8cbd 3413 93bd
-0.003327188 0.03075151 -0.08675336 -0.07415766 0.053499375 0.042569116 -0.054928355 -0.028464664
0.070647776 -0.011825194 -0.08820791 0.040123366 -0.07158112 -0.084274225 -0.032201644 0.0068881228
-0.051661003 0.070037186 -0.08165449 -0.00012896936 0.06683568 0.022091018 -0.06582875 -0.07280636
-0.05092557 -0.04278381 -0.035256427 -0.019213136 0.0116043445 -0.06375859 -0.041775957 0.058438163
0.04336387 -0.010465673 0.03552661 -0.06002867 0.058650646 0.074879125 0.0155655155 -0.015358469
-0.041149884 -0.023618871 -0.04799071 -0.01826145 0.0131143285 -0.056171685 -0.01795109 0.076308966
0.06829677 0.023357445 0.059755296 0.0076162093 -0.083321944 -0.016281474 -0.022633785 0.01956326
0.07719871 0.02171059 0.082751356 -0.0045382567 -0.058249976 0.081574805 -0.05775827 0.036146916
-0.04875697 0.047921482 0.07626073 -0.068071276 -0.03916106 -0.0061473916 -0.059090786 -0.041550953
-0.026066087 -0.057754774 0.060242966 0.040472165 -0.01565254 -0.03477156 -0.08348471 -0.06696843
-0.053091206 -0.027152464 -0.015357995 -0.069216765 0.054015327 0.06625174 -0.08428262 0.020742603
-0.04021041 0.087332174 0.05902666 -0.048164774 -0.08799235 -0.05639306 -0.009995641 0.064539455
-0.009992185 -0.041347343 -0.013808582 0.005273772 -0.049362842 -0.08669617 0.013716913 -0.06859368
0.062672086 0.07074655 0.040182382 -0.03028464 0.011360641 -0.054993976 0.041641243 0.08183576
-0.062017687 0.026602332 0.052134037 -0.074307024 -0.021890841 0.07020891 -0.01652798 0.0031220699
0.032872822 -0.08799193 -0.037073094 0.01262787 -0.0331034 -0.038160082 0.07226271 -0.04445344
0.06787842 0.0020716018 -0.0314669 0.035663776 -0.042433973 0.018589014 -0.041916642 0.04254664
0.076170914 -0.04728203 0.0093843965 0.0507551 -0.07806754 -0.000583639 -0.087914 -0.036853626
-0.034729097 0.023597388 0.0045448947 -0.068246566 -0.035084438 -0.0021856301 -0.08395141 -0.03512968
0.057777226 0.033458993 0.0020344495 -0.026185678 -0.08371589 0.05167154 0.019132804 -0.087309636
-0.01613178 -0.0034167396 0.05550487 -0.0806656 -0.015641654 0.0068696095 -0.030927146 -0.035084657
0.021913158 0.045705855 -0.04926834 -0.03376499 -0.051079337 0.07969482 -0.08421201 -0.05138549
-0.07311835 0.0031152738 0.05341937 0.026623659 0.059994143 0.0779195 0.07455256 -0.081934094
-0.03718744 0.080556974 0.058818053 -0.07120895 0.02272324 -0.022572704 -0.0033619802 0.05205201
-0.06849051 -0.021279005 0.082455724 0.07856162 0.038241193 0.06628606 -0.00971467 -0.012500871
-0.08342511 0.030087782 0.031831954 0.04955584 0.029268352 0.055578448 -0.04162 -0.016785415
0.0086571 0.0354514 -0.009498699 0.02752892 -0.058261737 -0.03543927 -0.056988925 0.01916688
-0.05574177 0.041679293 0.03926805 -0.048651002 -0.022223791 0.08384466 0.032025523 0.0020883973
-0.05804091 0.007249279 0.054179877 0.018819442 -0.081615485 0.0691512 -0.080119036 -0.08312708
0.06271329 -0.019133963 0.06873685 0.08347896 0.030606735 -0.08317216 -0.017984534 0.03795506
0.036642395 -0.058680467 -0.000118221906 0.0055520255 -0.0053443364 -0.038167458 0.0853125 -0.027575955
0.06869933 -0.08785392 0.04898704 -0.023566516 -0.061876558 -0.038195632 -0.06836249 -0.07181397

net.2.bias f4 [64]
00000000: c1e5 6cbd 195c 88bd ceab 22bd eb5a 443d
00000010: 2150 1b3d f72d 7a3d c2ee 72bd ef0f 023d
00000020: 1903 6fbc 0bdd 793d ef98 22bd 1d4b a73d
00000030: 651f 29bc 21ce 183d 6ea8 5ebd 9569 a63d
00000040: 0156 a93d e198 f63c 5fc1 a3bd ed68 9e3c
00000050: 551e 36bc 8ff1 083d b5d8 353d 49c6 c03c
00000060: 3535 573d 6647 94bd aa91 b53b 083e 123c
00000070: 5418 b93c 8756 c73c ed35 d13c 0063 9b3d
00000080: 1ca1 a43c b42c 65bd f8f6 48bb 0281 f73c
00000090: 6eb9 2cbd 3f08 023d 7c16 20bd 1f89 57bd
000000a0: 53cd a1bd 0c03 89bd 5b12 963d 9031 9c3b
000000b0: d3e4 0dbd e557 f13c c8b0 a23d 039a 83bd
000000c0: 97b3 f33c 910d b1bd 7ae6 5a3d cc7f 6e3c
000000d0: 3152 a23d 8db6 cdbc b4fe 8e3d 08ea b4bd
000000e0: 784a 843d faa8 9c3c dbe3 95b9 96ba 9b3d
000000f0: eaf7 a63d 46a3 b4bd 28da 06bd 3c16 08bd
-0.057836298 -0.06658191 -0.039714627 0.04793827 0.037918214 0.06107899 -0.05930973 0.031753477
-0.014588141 0.06100182 -0.03969663 0.081686236 -0.010322426 0.037305955 -0.054359846 0.08125607
0.08268357 0.030102195 -0.07995867 0.019337142 -0.01111563 0.033433493 0.04439612 0.02353205
0.052540977 -0.07240181 0.005541046 0.008925922 0.022594608 0.024333252 0.02553841 0.07587242
0.020096354 -0.055950835 -0.0030664783 0.030212883 -0.042169027 0.031746145 -0.039083943 -0.052621003
-0.079004906 -0.06690034 0.0732772 0.0047666505 -0.034642052 0.029460857 0.079438746 -0.0642586
0.029748721 -0.08645166 0.053442456 0.014556836 0.07925833 -0.025111461 0.069821745 -0.088337004
0.06459516 0.019123543 -0.0002858926 0.07603948 0.081527546 -0.088202044 -0.032922894 -0.03322433

net.4.weight f4 [12, 64]
00000000: 701c 83bd d0ea 6ebd 6c9e aa3d 505d febc
00000010: 903b 47bc 1c59 dbbd e4d4 ac3d 503c ce3c
00000020: 8890 2d3d 8c51 fabd c4ac c8bd 806d cebc
00000030: 5046 eebd 8228 d53d 3082 e4bc 047e 5dbd
00000040: ac87 e23d f4d2 5b3d d0a0 a73c d608 d9bd
00000050: 62df b23d 2eb9 a5bd a4f7 dcbd 1cb7 3c3d
00000060: 626b 843d bc2e fbbd 8c6d e8bd d2c0 f8bd
00000070: 2025 4cbd 92ca dabd 588c 78bd 2027 d4bc
00000080: 181a ae3d 169e e7bd 3445 cebd 40a3 9f3c
00000090: 924a c2bd 9031 b8bd 8024 dc3d 3e42 95bd
000000a0: 6e4a e3bd 1260 9abd f011 87bd a0f1 883c
000000b0: 883f b43c 601b a43b 40cf a13b ec8e ecbd
000000c0: 50c3 8ebd 90ff 70bc e243 89bd c077 b5bd
000000d0: a2f5 b03d f467 5bbd ec0f 883d 6ccc 4d3d
000000e0: 4461 743d 64a8 ae3d fc2e 18bd ca46 c43d
000000f0: f4c0 cfbd 9a75 c03d d026 4dbc 5acb e83d
00000100: 14bc c03d f072 92bd 408e 6abb c0e6 33bd
00000110: bc00 ef3d 5e5f da3d 40ff 86bb 7049 8d3c
00000120: d6c4 98bd e06f 683d d4bb aabd 0e17 8a3d
00000130: 6452 32bd d40a fabd 0488 a8bd 7258 b23d
00000140: d00a a33d 4066 27bb 0c94 65bd c21e c0bd
00000150: 3008 01bc 88be 883d d047 a43d a084 a3bc
00000160: c07c adbb e8c0 ec3d b62f d1bd 4c90 eb3d
00000170: 1049 dc3c 606c ec3d 82ff e5bd 0048 57bb
00000180: 546e b93d 08ad f5bd 7ea6 efbd a83e cdbd
00000190: 26f2 d0bd 3aea babd ac8d ddbd 2e27 8bbd
000001a0: 8006 edbc 6898 ca3c 1420 f33d 2cc7 9cbd
000001b0: 988e 7b3d 2a4b f73d 2cfb 913d acc1 1bbd
000001c0: de27 b3bd 3cca f0bd 02a0 d93d 2056 ea3b
000001d0: 2078 fd3d 0a97 f63d 4059 22bd a0ac f0bd
000001e0: de99 8fbd ece6 a33d 68ad ed3d 2045 70bd
000001f0: 1af3 fc3d 0029 26bd 9cf0 84bd 4071 023b
00000200: 6075 42bc 3868 c6bd e0de eabd 54f0 98bd
00000210: a025 8d3b 5019 103d 7a89 cebd 221e dd3d
00000220: 9623 e63d 4838 fcbd 86a9 893d 34da 81bd
00000230: 0ee9 eebd 0867 203d 2860 70bd b28f c83d
00000240: d26b edbd a818 723d 96ad 95bd 8832 bdbc
00000250: a68d e0bd e0be 2f3c fca6 e8bd 08a1 ed3d
00000260: b833 393d e88a 923c a8a4 633d 5c6b 503d
00000270: 963a c23d e86d d4bd 16bc a8bd c041 95bb
00000280: 3ac3 f03d 889c fa3c 0c97 a53d a0a9 3abd
00000290: 20e0 3d3c 3cac 363d 484d ec3d d44a f83d
000002a0: 5067 d63d f69f f73d 0085 043b c4ad 53bd
000002b0: 5ab3 debd 9c23 b33d 206e 993c 2c2d ac3d
000002c0: 2052 04bd 4a0c 8e3d c469 71bd 104d d13c
000002d0: 24fb c83d 7891 8e3d 40b4 6abc 8088 f3bb
000002e0: 5ea5 cfbd 6062 c6bc 2281 8b3d 101e f9bc
000002f0: b05c f23c 600f ef3d 6088 c4bc acba 253d
00000300: 46eb 83bd 9053 d3bd 6c30 0f3d 36ed e2bd
00000310: d284 8c3d a87d 9c3c daaf a03d e067 6cbd
00000320: 2ed3 bbbd 22e3 b6bd 407b b9bd 78a7 d03d
00000330: 5ca2 5b3d d093 41bd 821d b73d e858 14bd
00000340: dc1b 20bd b0ca cabc 2090 a53c b04b 4f3c
00000350: fcad 6c3d c82b 0fbd acda 58bd 60f8 e33c
00000360: 045b 6a3d a02b e63c d845 0b3d e066 84bb
00000370: a268 f63d 56fb f93d 10b0 bd3c 6a52 fabd
00000380: 147f 0fbd 1063 5a3d 84ff 243d 5876 9f3d
00000390: 6014 bf3d e2c0 aa3d 2e76 89bd 2c6e d23d
000003a0: 7279 8e3d e83b 893c 8070 cbbc a024 313c
000003b0: 905f f03c f061 563d 9ae6 edbd b235 bb3d
000003c0: 30a6 7c3d e825 773d 7058 013c 3850 8dbd
000003d0: 2210 a93d f45b 113d b0dc 95bc 321c debd
000003e0: daac fbbd 58e6 1a3d 30fe d9bd 46dc febd
000003f0: 3cd5 43bd e4ed e03d e8a5 e83d ee11 83bd
-0.064019084 -0.058329403 0.08330998 -0.031050354 -0.012160197 -0.10710356 0.08439043 0.025175244
0.042374164 -0.12222585 -0.097985774 -0.025198698 -0.11634505 0.10408117 -0.02789411 -0.054075256
0.110610336 0.053667977 0.020462424 -0.105973884 0.08734013 -0.08091961 -0.10789421 0.046073064
0.06465794 -0.12264773 -0.113490194 -0.121461526 -0.049840093 -0.106831685 -0.060680717 -0.025897563
0.08501071 -0.113094494 -0.10071793 0.019487023 -0.094868794 -0.08993828 0.10749149 -0.07288025
-0.11098181 -0.07537855 -0.06595218 0.016716778 0.02200295 0.005008146 0.004938036 -0.11550698
-0.06970847 -0.014709368 -0.06702401 -0.08860731 0.08640601 -0.053565934 0.06643662 0.05024378
0.059663072 0.08528212 -0.037154183 0.095838144 -0.10144225 0.09397431 -0.012521461 0.11366911
0.09410873 -0.07150829 -0.0035790354 -0.043921232 0.11670062 0.10662721 -0.0041197836 0.017246932
-0.074594185 0.056747317 -0.083366066 0.067426786 -0.043535605 -0.122090966 -0.08229068 0.08708276
0.07961047 -0.0025543123 -0.05604939 -0.093808666 -0.007875487 0.06676966 0.0802151 -0.019960701
-0.0052944124 0.115602314 -0.10214178 0.11502132 0.026890308 0.115441084 -0.11230375 -0.0032849312
0.090542465 -0.11995894 -0.11701678 -0.10021716 -0.10202436 -0.091267064 -0.108180374 -0.06794582
-0.028933764 0.024730876 0.11871353 -0.076551765 0.061415285 0.12074883 0.07127985 -0.038026497
-0.087478384 -0.11757323 0.10626222 0.00715138 0.12376428 0.12040527 -0.039635897 -0.117516756
-0.0701177 0.08003029 0.1160534 -0.058659673 0.123510554 -0.040566444 -0.06491205 0.0019903928
-0.011868805 -0.09687847 -0.11468291 -0.07467714 0.0043074638 0.03518039 -0.10084815 0.10796763
0.11237256 -0.12315422 0.06721787 -0.06340447 -0.116655454 0.03916076 -0.05868545 0.09793033
-0.11592831 0.059105545 -0.073084995 -0.023095384 -0.10964517 0.0107266605 -0.11359975 0.1160298
0.04521534 0.017888501 0.05557695 0.050883636 0.09483831 -0.103725255 -0.082389995 -0.004554957
0.117559865 0.030592218 0.080854505 -0.045571923 0.01158908 0.04459785 0.11538178 0.12123647
0.10468924 0.12091057 0.0020220876 -0.051679388 -0.10874052 0.08747026 0.01872927 0.08407053
-0.032304883 0.06935938 -0.058938757 0.025549442 0.09813526 0.0696134 -0.0143252015 -0.0074320436
-0.10138963 -0.02421683 0.068117395 -0.030409843 0.029585212 0.116728544 -0.02399081 0.040461227
-0.06441359 -0.10318673 0.034958288 -0.11080401 0.06861271 0.019102886 0.07846041 -0.05771625
-0.09171139 -0.08930041 -0.09056711 0.10188192 0.053621635 -0.047260106 0.08941175 -0.0362176
-0.03908907 -0.024754852 0.020210326 0.012652323 0.057783112 -0.034953862 -0.052942917 0.027828395
0.057215706 0.028096974 0.034002155 -0.004040584 0.12031676 0.12206142 0.023155242 -0.122227505
-0.0350333 0.05331713 0.04028274 0.07786244 0.09330058 0.08337571 -0.06711994 0.1027492
0.069567576 0.016752198 -0.024833918 0.010811955 0.029342443 0.052339494 -0.116162494 0.09141101
0.061681926 0.060338885 0.00789462 -0.06900066 0.0825503 0.035488084 -0.018293709 -0.108452216
-0.12288828 0.03781733 -0.106441855 -0.124443576 -0.047810778 0.10982874 0.11359769 -0.06399904

net.4.bias f4 [12]
00000000: 0c14 f5bd b267 f83d 2c74 c9bd 583f 8dbc
00000010: c442 3dbd a00c 11bc 182f 213d e88e edbc
00000020: e8da 83bd 6058 83bd 00fe 9cbb cc99 813d
-0.11966714 0.12129153 -0.09836611 -0.017242119 -0.04620625 -0.008853108 0.039351553 -0.028998807
-0.064382374 -0.064133406 -0.0047910213 0.063281626
