models/actor_foundertest_ep0.pth (torch, 90748 bytes, 10 tensors)

lstm.weight_ih_l0 f4 [128, 32]
0.11146863 -0.16606845 0.027083352 0.1289636 -0.04082872 -0.11020493 -0.15385507 -0.028234318
-0.078843035 -0.120260864 0.06831519 -0.09006396 -0.09458246 -0.111115105 -0.01799652 -0.14377181
-0.10641042 0.15533791 0.08740057 0.14731936 -0.10668334 -0.17223136 0.015896231 0.05219716
0.1532964 -0.10824556 0.09323706 0.07978459 0.11797862 -0.07603945 -0.045184165 0.1755834
0.058691934 -0.13800947 -0.15845136 -0.09738419 0.08111073 -0.15371221 -0.05724425 0.091835484
-0.17650355 -0.059739023 0.120746896 0.04493551 -0.01231505 0.16923697 -0.09885444 0.06523192
0.069453076 0.034341708 0.044448197 0.03829077 0.072290406 0.121617034 -0.12179273 -0.06679755
-0.10059761 -0.05517623 -0.01615268 -0.05826298 -0.13998559 -0.10374811 -0.16775382 -0.10073276
-0.15731865 0.10592328 -0.14043427 0.018024817 -0.0945 -0.062114447 0.17640825 -0.055202655
-0.032411575 0.1722698 -0.10169048 0.14220946 0.05632098 0.037534922 -0.054547444 0.07412924
0.023252472 -0.14990601 0.009426251 -0.030465096 0.037178576 -0.04812576 0.097435996 -0.17251869
-0.011026442 0.06374197 0.1517392 0.032959297 -0.15695953 0.08927478 0.080834225 -0.08794117
-0.13449806 -0.058636382 0.15908976 0.029208973 0.04195352 -0.08131486 -0.06578756 0.1376359
-0.039284512 0.09089069 0.12943383 -0.033821583 -0.004032582 -0.09416704 -0.048603028 0.13682656
0.061027452 0.15564863 0.036712334 0.004151061 0.081253305 -0.0342125 0.16874965 0.130969
0.087371424 -0.1491617 0.109186664 -0.030982777 -0.15263426 0.14809994 -0.15833129 -0.12281656
0.095343694 0.074921176 -0.13020852 -0.051821508 -0.02543579 0.023705155 0.037956417 0.09781204
-0.07344952 -0.099977426 -0.09704468 0.08751942 0.1181943 -0.062083296 0.00935854 -0.15081526
0.12931077 -0.00487034 0.04054995 0.10284822 0.12752117 -0.082656905 0.1006421 0.16963394
0.030195892 -0.13379751 0.04619102 0.039277107 0.060023963 -0.08198919 -0.1370412 -0.07393771
0.076499775 -0.13145727 0.08699633 0.12738694 0.047108695 -0.077962436 -0.012681752 -0.041129544
0.12635954 -0.0003170669 -0.039236084 0.14180084 -0.031287625 0.16453408 -0.15510565 -0.10665007
0.12473659 0.03999555 -0.14516842 0.061848268 0.098910436 0.11574276 0.12208219 0.13674475
0.070020586 0.16603903 -0.1361289 -0.13184465 -0.0076073557 -0.11208288 -0.103493564 -0.16535194
0.083977535 -0.091595724 0.012329698 -0.06596081 0.14659919 -0.08560735 -0.16316076 0.0794421
0.09848301 -0.121606976 -0.13219887 0.16062494 -0.1652746 0.03876701 -0.0394641 -0.09300431
0.024096623 -0.06515734 -0.020475283 0.16115086 -0.10011706 -0.13393249 0.002847761 -0.0984261
-0.052440055 -0.071173236 0.17118807 0.108892664 -0.09732124 0.06628734 -0.06603591 0.05944985
-0.1618739 0.021449372 0.13908769 0.08494373 0.1124026 -0.086653285 -0.07566461 0.0184941
0.15676357 -0.13324505 -0.06394962 -0.17255183 -0.16557015 -0.018835992 -0.04509592 0.17004581
-0.0011719614 0.13476296 0.10036771 -0.14771557 0.16268711 0.060697734 -0.16398917 -0.045035377
-0.050904334 -0.10184485 -0.09005979 -0.08395119 0.129043 -0.08600212 0.058153436 -0.14463188
00000000: aa49 e43d d90d 2abe e8dd dd3c 090f 043e
00000010: 043c 27bd 1fb3 e1bd 2f8c 1dbe a84b e7bc
00000020: 7578 a1bd 544b f6bd d6e8 8b3d 7473 b8bd
00000030: 73b4 c1bd 5190 e3bd 706d 93bc eb38 13be
00000040: b5ed d9bd e710 1f3e 12ff b23d e3da 163e
00000050: cc7c dabd 6b5d 30be d038 823c b0cc 553d
00000060: bbf9 1c3e d9af ddbd 12f3 be3d 1a66 a33d
00000070: c69e f13d 92ba 9bbd 0813 39bd 23cc 333e
00000080: f466 703d 5b52 0dbe 1341 22be 5d71 c7bd
00000090: 621d a63d bc66 1dbe f278 6abd 3e14 bc3d
000000a0: 59bd 34be e8b0 74bd 264a f73d 4c0e 383d
000000b0: 10c5 49bc 754c 2d3e 3274 cabd 5098 853d
000000c0: 6a3d 8e3d e4a9 0c3d 500f 363d c8d6 1c3d
000000d0: fe0c 943d 5a12 f93d 786e f9bd 27cd 88bd
000000e0: 1f06 cebd 7800 62bd a052 84bc 2aa5 6ebd
000000f0: 6258 0fbe e479 d4bd a8c7 2bbe fa4c cebd
00000100: 2418 21be 4eee d83d 00ce 0fbe c8a8 933c
00000110: 3789 c1bd b86b 7ebd 5da4 343e 2e1c 62bd
00000120: 00c2 04bd 7f67 303e 1943 d0bd 5b9f 113e
00000130: d4b0 663d 38be 193d 246d 5fbd 12d1 973d
00000140: f87b be3c f680 19be 9070 1a3c f091 f9bc
00000150: 9048 183d 841f 45bd 868c c73d bda8 30be
00000160: 40a8 34bc 268b 823d 8561 1b3e 5400 073d
00000170: 00ba 20be b2d5 b63d 6a8c a53d 801a b4bd
00000180: dcb9 09be b42c 70bd 6de8 223e a847 ef3c
00000190: 74d7 2b3d 6888 a6bd a1bb 86bd 6df0 0c3e
000001a0: cce8 20bd e624 ba3d 4d8a 043e 8088 0abd
000001b0: c023 84bb a6da c0bd f813 47bd 431c 0c3e
000001c0: ecf7 793d 5b62 1f3e ac5f 163d a005 883b
000001d0: 2268 a63d 6822 0cbd b5cc 2c3e bd1c 063e
000001e0: caef b23d d8bd 18be 429d df3d 98cf fdbc
000001f0: 284c 1cbe 83a7 173e 9921 22be 4087 fbbd
00000200: 8e43 c33d 4670 993d 6255 05be ca42 54bd
00000210: b85e d0bc 5031 c23c 3078 1b3d ae51 c83d
00000220: b46c 96bd f7c0 ccbd 5cbf c6bd 623d b33d
00000230: da0f f23d 0e4b 7ebd 9054 193c 516f 1abe
00000240: 0b6a 043e 6097 9fbb b417 263d 16a2 d23d
00000250: e994 023e 0648 a9bd 721d ce3d 85b4 2d3e
00000260: 605d f73c 3702 09be cc32 3d3d 08e1 203d
00000270: b0db 753d f3e9 a7bd 8754 0cbe a76c 97bd
00000280: eaab 9c3d bc9c 06be 222b b23d b971 023e
00000290: 0cf5 403d c5aa 9fbd 20c7 4fbc 7477 28bd
000002a0: 6564 013e 003c a6b9 04b6 20bd 3d34 113e
000002b0: 7427 00bd 9f7b 283e 04d4 1ebe 5a6b dabd
000002c0: e675 ff3d 60d2 233d 08a7 14be 9c54 7d3d
000002d0: 8e91 ca3d 8a0a ed3d 3a06 fa3d d106 0c3e
000002e0: f466 8f3d 2306 2a3e 6065 0bbe 4902 07be
000002f0: 2047 f9bb b68b e5bd 6ff4 d3bd 0552 29be
00000300: 6afc ab3d 8a96 bbbd 8002 4a3c 7616 87bd
00000310: 191e 163e e852 afbd 9d13 27be 8ab2 a23d
00000320: 76b1 c93d 140d f9bd 245f 07be dd7a 243e
00000330: bf3d 29be 28ca 1e3d 1ca5 21bd 0b79 bebd
00000340: 4866 c53c 3671 85bd c8bb a7bc bb04 253e
00000350: 2c0a cdbd 9925 09be 80a1 3a3b a093 c9bd
00000360: 62cb 56bd 46c3 91bd ed4b 2f3e 1e03 df3d
00000370: 5c50 c7bd a8c1 873d d63d 87bd b081 733d
00000380: 46c2 25be 98b6 af3c 016d 0e3e faf6 ad3d
00000390: 5633 e63d 4777 b1bd 0cf6 9abd f080 973c
000003a0: a186 203e 6471 08be 05f8 82bd 6db1 30be
000003b0: 398b 29be f04d 9abc 80b6 38bd 7d20 2e3e
000003c0: 809c 99ba 4dff 093e 968d cd3d c042 17be
000003d0: 7397 263e 309e 783d c7ec 27be 0477 38bd
000003e0: 1081 50bd 0894 d0bd 4471 b8bd 9aee abbd
000003f0: d923 043e e121 b0bd 4c32 6e3d 611a 14be

lstm.weight_hh_l0 f4 [128, 32]
-0.16070987 -0.115860984 0.17486666 -0.01885128 -0.09374108 -0.09912334 0.16595323 0.025220498
0.013088435 -0.14016183 -0.11510852 -0.17132974 -0.051031083 -0.16672826 0.007886037 -0.13255078
0.15159626 -0.021794662 -0.03030634 -0.13004836 -0.05660764 0.05863668 0.14791106 0.1536742
-0.04741843 -0.08492912 -0.09795159 0.08700897 0.03859125 -0.023543581 0.040805593 -0.14878452
0.031043261 0.02991718 -0.07710998 -0.023194954 0.0020284504 -0.12070194 -0.11037204 -0.0039984435
-0.087039985 -0.10959624 -0.05794806 -0.086325444 0.043210104 0.10544063 0.105539575 0.11689089
0.07513814 -0.12405642 -0.07386347 0.12758832 0.14552544 -0.083827026 -0.15671283 0.009036705
0.13616408 0.013696462 -0.07844127 0.0840254 0.08387531 -0.13782887 0.027942777 0.16556741
-0.08828106 -0.014996633 -0.07874116 0.16457514 0.12858446 -0.11642361 0.005728543 -0.08820003
-0.09527025 0.0029771626 0.12936072 -0.14353912 -0.10826965 -0.095000766 0.108318225 -0.13770945
-0.14885162 0.059101507 -0.086588316 0.12337743 0.11058049 -0.17444058 -0.1600641 -0.028153405
0.08565085 0.13683318 0.13001858 0.0005347729 0.13895793 -0.14799665 -0.08838904 0.007980689
0.12620835 -0.09122898 0.06796318 0.058583662 -0.054505862 0.10420106 0.16193505 0.14028387
0.071771935 -0.031514972 0.07030231 0.079451725 -0.032793894 -0.16016462 -0.118913114 -0.14765683
0.12983273 -0.03702888 -0.007969692 -0.04325451 -0.14587986 0.16697358 -0.09123372 0.018256918
0.08759461 0.12816943 0.16651545 -0.040646613 -0.021660388 0.06494798 0.10710724 -0.08763885
-0.11419273 0.011709496 -0.16960432 -0.084119864 -0.14360607 -0.13394833 0.12896164 0.11854853
-0.019476563 -0.006039202 0.1540872 0.1347395 0.1684746 -0.120171204 0.12164281 -0.13071069
0.13681825 -0.12051101 0.096199855 -0.13959914 0.015967205 -0.1446344 -0.10927447 0.043101385
0.1312214 0.010775879 -0.05767657 -0.01169683 0.12483673 0.08215313 -0.010000408 0.087998286
-0.16322702 0.15165566 -0.034014136 0.11694749 -0.001818046 -0.017902523 0.09736185 0.16552831
0.0442701 -0.03180203 -0.0935314 0.13325231 -0.092963636 -0.09285395 -0.16496232 -0.1565791
-0.09810612 0.11332674 -0.106889464 0.04845828 -0.12761644 -0.10338959 0.042453915 0.034016684
0.11660154 -0.09732744 0.03244275 -0.006956637 0.048947826 -0.12104741 -0.16549498 -0.12464756
-0.0546299 0.059220076 0.042475313 -0.0776512 0.15377025 -0.042578354 -0.1763834 -0.16515978
0.071537614 0.028549299 0.09887634 -0.16196188 -0.1587937 0.0028158873 -0.070301235 -0.16843069
-0.011175826 -0.032497346 -0.094295055 0.014774829 -0.14671233 0.09381388 -0.1508091 0.005285904
-0.13805975 -0.1725254 -0.057845496 -0.07452351 0.15987863 0.16803123 0.03116791 0.1446441
0.060509518 -0.058607318 -0.14218892 -0.11508336 0.076721445 -0.041030586 0.030469447 0.17095323
-0.075272754 0.07184847 0.12042789 0.13186513 0.1054364 -0.10915043 0.021908417 0.1043991
0.038458034 0.07585393 -0.14834589 0.12630464 0.03775774 0.13719235 -0.112468675 0.12393089
-0.080272846 0.0919369 0.047666445 -0.080677055 0.12112285 0.08234979 -0.12207173 -0.12149902
00000000: 2191 24be 8648 edbd 3f10 333e 006e 9abc
00000010: 53fb bfbd 2d01 cbbd a5ef 293e 389b ce3c
00000020: e070 563c 9586 0fbe 04be ebbd 1071 2fbe
00000030: f805 51bd d0ba 2abe 7034 013c 64bb 07be
00000040: 0d3c 1b3e b88a b2bc 0045 f8bc 662b 05be
00000050: 6add 67bd 042d 703d ff75 173e c55c 1d3e
00000060: d439 42bd 52ef adbd d89a c8bd c231 b23d
00000070: dc11 1e3d 78de c0bc c423 273d f85a 18be
00000080: 704e fe3c e014 f53c d6eb 9dbd 5803 bebc
00000090: c0ef 043b 9432 f7bd bc0a e2bd 6005 83bb
000000a0: 0542 b2bd fe73 e0bd f25a 6dbd 65cb b0bd
000000b0: 14fd 303d 42f1 d73d 2225 d83d 7e64 ef3d
000000c0: 06e2 993d 4b11 febd bb45 97bd 83a6 023e
000000d0: 9f04 153e 81ad abbd 5479 20be b00e 143c
000000e0: 996e 0b3e 2067 603c d1a5 a0bd 8215 ac3d
000000f0: d2c6 ab3d 0323 0dbe 40e8 e43c 818a 293e
00000100: b3cc b4bd 70b4 75bc 0c43 a1bd 6386 283e
00000110: a5ab 033e 806f eebd 80b6 bb3b 38a2 b4bd
00000120: 0d1d c3bd 801c 433b 2377 043e ebfb 12be
00000130: 7abc ddbd c38f c2bd f2d5 dd3d b503 0dbe
00000140: 8f6c 18be 6c14 723d 3755 b1bd 4ead fc3d
00000150: 0678 e23d 8da0 32be d8e7 23be f8a1 e6bc
00000160: b669 af3d ff1d 0c3e 9723 053e 0030 0c3a
00000170: fd4a 0e3e 6f8c 17be 5005 b5bd 70c1 023c
00000180: c33c 013e 42d6 babd 4830 8b3d 6cf5 6f3d
00000190: 8a41 5fbd 5e67 d53d 4dd2 253e 93a6 0f3e
000001a0: 2afd 923d d815 01bd a8fa 8f3d 96b7 a23d
000001b0: e452 06bd 3202 24be b888 f3bd 5a33 17be
000001c0: dff2 043e 98ab 17bd 5093 02bc a42b 31bd
000001d0: 8861 15be 1ffb 2a3e bfd8 babd 888f 953c
000001e0: ce64 b33d d93e 033e 0783 2a3e 107d 26bd
000001f0: 2071 b1bc 7203 853d 0a5b db3d ff7b b3bd
00000200: e1dd e9bd 30d9 3f3c c1ac 2dbe 0947 acbd
00000210: 780d 13be c029 09be 850e 043e 92c9 f23d
00000220: 508d 9fbc 80e4 c5bb 09c9 1d3e 27f9 093e
00000230: 9b84 2c3e 521c f6bd de1f f93d 06d9 05be
00000240: 151a 0c3e 7ace f6bd 6e04 c53d 14f3 0ebe
00000250: a8cd 823c 0a1b 14be 4bcb dfbd 148b 303d
00000260: e75e 063e 508d 303c 443e 6cbd 10a4 3fbc
00000270: 66aa ff3d e63f a83d c0d8 23bc 7238 b43d
00000280: fc24 27be 9f4b 1b3e 6852 0bbd 2a82 ef3d
00000290: 804b eeba 50a8 92bc a665 c73d 4180 293e
000002a0: 9054 353d d842 02bd 648d bfbd 4b73 083e
000002b0: b863 bebd 362a bebd e2eb 28be 4656 20be
000002c0: ddeb c8bd da17 e83d dde8 dabd 307c 463d
000002d0: e2ad 02be ecbd d3bd 28e4 2d3d 1455 0b3d
000002e0: cacc ee3d 9c53 c7bd b0e2 043d 80f4 e3bb
000002f0: 847d 483d b4e7 f7bd 8477 29be 3847 ffbd
00000300: 9ac3 5fbd c090 723d 98fa 2d3d 9807 9fbd
00000310: f375 1d3e a466 2ebd da9d 34be a51f 29be
00000320: 5082 923d 38e0 e93c ae7f ca3d 56d9 25be
00000330: d19a 22be c08a 383b 18fa 8fbd 1879 2cbe
00000340: d01a 37bc f01b 05bd c41d c1bd 2012 723c
00000350: c23b 16be 7e21 c03d b36d 1abe 6035 ad3b
00000360: 895f 0dbe 80aa 30be 66ef 6cbd c89f 98bd
00000370: 39b7 233e 6110 2c3e d853 ff3c 951d 143e
00000380: d4d8 773d 3a0e 70bd f999 11be d3b0 ebbd
00000390: 2220 9d3d b00f 28bd 109b f93c 5d0e 2f3e
000003a0: 9a28 9abd 4a25 933d e6a2 f63d a707 073e
000003b0: 0aef d73d 438a dfbd 4879 b33c 32cf d53d
000003c0: 2c86 1d3d 4e59 9b3d fce7 17be 0156 013e
000003d0: dca7 1a3d 277c 0c3e fa55 e6bd 7acf fd3d
000003e0: 1766 a4bd 6a49 bc3d e43d 433d 033a a5bd
000003f0: 420f f83d 02a7 a83d be00 fabd 7ad4 f8bd

lstm.bias_ih_l0 f4 [128]
0.15565781 -0.060203165 -0.099337064 -0.14936331 -0.1604208 -0.064649895 0.09727283 0.001971379
0.17650028 -0.007441461 0.0037834197 -0.17510515 0.17009027 0.12413071 -0.002252221 -0.15037084
-0.15662359 -0.12155172 -0.09288748 -0.0796979 -0.10384602 -0.12924878 0.028037071 -0.0063050985
0.16326128 0.0861152 -0.022308677 0.15982132 -0.0105629265 0.08595084 0.071305886 -0.13710237
-0.13839959 0.1501302 -0.075331755 -0.14921096 -0.1734738 0.016046986 -0.05148767 -0.011361271
0.019175172 -0.15177265 0.13244607 -0.04473865 0.07297924 -0.15829062 -0.054894395 -0.013364077
-0.14973685 -0.12725773 0.09847872 0.17377774 -0.10878963 -0.04948008 0.16921695 -0.112547465
-0.022567123 -0.09755379 0.059829235 0.06624319 -0.17401977 -0.1098919 0.14019899 0.15073957
0.17279361 -0.03332597 0.03304562 0.06849697 0.015403867 0.10827707 0.15477173 -0.034257323
-0.16616122 -0.09345084 0.043088317 0.14610763 -0.14164552 0.110309675 -0.13471109 0.1561458
0.15561698 -0.08966112 -0.015364289 -0.15848428 -0.09802455 0.12369354 0.024727106 0.051218227
0.11983155 0.0655859 -0.06946439 -0.07996778 -0.016447991 0.122198746 -0.102857634 0.028024763
0.007895112 -0.093488075 0.171802 0.039483488 -0.046552345 -0.12727235 -0.016212717 -0.06332402
0.09097858 0.000654459 -0.12977843 0.1342691 -0.12125547 0.07368694 -0.02550733 0.16069536
0.16371085 -0.16238129 0.030560642 0.14279665 0.08627619 0.007996902 -0.013714105 -0.08117902
0.10903393 -0.17109625 -0.16526021 0.0977623 -0.025271475 -0.13081351 -0.0013777018 -0.16677997
00000000: c364 1f3e 9897 76bd 3b71 cbbd b2f2 18be
00000010: 5a45 24be 2a67 84bd fa36 c73d 4032 013b
00000020: 7dbc 343e 80d7 f3bb 40f3 773b c44e 33be
00000030: 252c 2e3e 3e38 fe3d 009a 13bb d0fa 19be
00000040: ef61 20be 1cf0 f8bd cb3b bebd a738 a3bd
00000050: 39ad d4bd cb59 04be 00ae e53c 009b cebb
00000060: f72d 273e 2a5d b03d b0c0 b6bc 33a8 233e
00000070: 2010 2dbc fe06 b03d d208 923d 9064 0cbe
00000080: 9fb8 0dbe bbbb 193e 8947 9abd c2ca 18be
00000090: 1ea3 31be f874 833c bce4 52bd a024 3abc
000000a0: 4015 9d3c 4a6a 1bbe f19f 073e e03f 37bd
000000b0: 2476 953d f016 22be f2d8 60bd 00f5 5abc
000000c0: 9e54 19be da4f 02be 36af c93d cbf2 313e
000000d0: 19cd debd a0ab 4abd 3547 2d3e 497f e6bd
000000e0: b0de b8bc 48ca c7bd 800f 753d 82aa 873d
000000f0: 3d32 32be 010f e1bd 5390 0f3e 795b 1a3e
00000100: cff0 303e d080 08bd d85a 073d 2448 8c3d
00000110: 8060 7c3c 5ec0 dd3d 7b7c 1e3e 6851 0cbd
00000120: 2b26 2abe 2763 bfbd 607d 303d 3d9d 153e
00000130: 860b 11be 0aea e13d b4f1 09be afe4 1f3e
00000140: 0f5a 1f3e 40a0 b7bd 80ba 7bbc b449 22be
00000150: 18c1 c8bd 0a53 fd3d 8090 ca3c 34ca 513d
00000160: 3e6a f53d e651 863d 5943 8ebd 26c6 a3bd
00000170: f0bd 86bc 5643 fa3d 06a7 d2bd 3094 e53c
00000180: 805a 013c ad76 bfbd ddec 2f3e 70b9 213d
00000190: acad 3ebd af53 02be 88d0 84bc 06b0 81bd
000001a0: fa52 ba3d 0090 2b3a a3e4 04be d77d 093e
000001b0: ca54 f8bd 2ee9 963d c0f4 d0bc 538d 243e
000001c0: d1a3 273e 4847 26be 505a fa3c 4939 123e
000001d0: 92b1 b03d 7005 033c 20b1 60bc 3041 a6bd
000001e0: 2e4d df3d db33 2fbe f939 29be 9a37 c83d
000001f0: 2006 cfbc faf3 05be 0094 b4ba 5ec8 2abe

lstm.bias_hh_l0 f4 [128]
0.15495388 -0.07816754 -0.029959396 -0.17513128 -0.16799326 0.019858956 -0.115096636 -0.07889348
0.11725266 0.022874638 -0.10192939 0.00037433207 0.06421603 0.086629674 -0.1470812 -0.1670998
0.15866236 0.035816967 0.11858876 -0.07100751 0.08453913 0.012159318 0.12906797 -0.07630297
-0.12309446 -0.07808066 0.17641677 -0.0073543936 0.08008613 0.17270635 0.07810305 -0.04490456
-0.035459176 0.035906285 0.01896675 0.16225998 0.112729296 0.039357036 -0.018021047 -0.05402585
-0.08050771 -0.066775635 -0.12541404 0.025816545 0.10519387 0.16589989 -0.07989194 0.048959598
-0.14315198 -0.074165285 0.0089172125 0.048910275 0.056178868 0.13537477 -0.077782616 0.08848308
0.15688528 -0.029558241 0.051991314 -0.044205263 -0.03229645 0.031083345 -0.1376695 0.052244976
0.032534584 0.03052628 -0.005920574 0.044115618 0.050365 -0.15438049 0.03928405 0.12222509
-0.049079224 -0.0062960386 -0.16550007 -0.14847207 -0.0121130645 0.056571692 0.11259021 0.06604847
-0.15022422 0.037301064 -0.12258074 0.14975058 -0.06457405 0.15121956 0.14673375 -0.059272103
0.15633906 -0.007135719 -0.14408785 -0.05308035 -0.040449053 -0.11261747 -0.06891985 -0.03890322
-0.16782719 0.04940331 0.10760458 0.114601776 0.13743182 0.009441555 -0.118431546 -0.14376527
0.034853518 -0.14690837 0.023072973 0.15308656 -0.12481635 0.0844657 0.13372178 -0.149264
-0.022238925 0.03812979 -0.10945075 -0.06606491 0.04489562 0.036261022 -0.04345706 0.06726849
-0.019440576 0.0042153746 -0.09636609 0.041803285 -0.14147326 -0.0067911595 0.10209982 0.021392643
00000000: 3bac 1e3e 4e16 a0bd 686d f5bc 9d55 33be
00000010: 6d06 2cbe 40af a23c c9b7 ebbd e892 a1bd
00000020: 2a22 f03d 9863 bb3c 5bc0 d0bd 0042 c439
00000030: b283 833d e66a b13d 749c 16be 361c 2bbe
00000040: 6378 223e d0b4 123d aade f23d 636c 91bd
00000050: da22 ad3d e037 473c 652a 043e bb44 9cbd
00000060: f318 fcbd c1e8 9fbd 99a6 343e 20fd f0bb
00000070: 3204 a43d efd9 303e 7ef4 9f3d d8ed 37bd
00000080: a43d 11bd 7812 133d 2860 9b3c 7b27 263e
00000090: 9ede e63d d834 213d e0a0 93bc 364a 5dbd
000000a0: 3ae1 a4bd aac1 88bd 8a6c 00be 387d d33c
000000b0: e26f d73d a9e1 293e 639e a3bd dc89 483d
000000c0: 6f96 12be f8e3 97bd 8019 123c 2456 483d
000000d0: d01b 663d af9f 0a3e 7e4c 9fbd 9e36 b53d
000000e0: 89a6 203e 2024 f2bc d8f4 543d 9410 35bd
000000f0: 4849 04bd 80a2 fe3c 3cf9 0cbe d4fe 553d
00000100: fc42 053d 4012 fa3c 6001 c2bb 94b2 343d
00000110: 884b 4e3d eb15 1ebe 50e8 203d 2651 fa3d
00000120: 4c07 49bd 004f cebb da78 29be 1009 18be
00000130: e075 46bc b8b7 673d b295 e63d 6c44 873d
00000140: 61d4 19be 00c9 183d 9c0b fbbd 3758 193e
00000150: 663f 84bd 4dd9 1a3e 5f41 163e 4ec7 72bd
00000160: 5917 203e c0d2 e9bb c48b 13be c86a 59bd
00000170: e8ad 25bd fda3 e6bd da25 8dbd fc58 1fbd
00000180: e4da 2bbe 205b 4a3d ca5f dc3d 56b4 ea3d
00000190: edba 0c3e c0b0 1a3c 3d8c f2bd 3437 13be
000001a0: 90c2 0e3d 266f 16be 8803 bd3c b9c2 1c3e
000001b0: b79f ffbd 5afc ac3d 5dee 083e a9d8 18be
000001c0: 682e b6bc fc2d 1c3d b727 e0bd 0a4d 87bd
000001d0: 78e4 373d 7086 143d 0800 32bd 10c4 893d
000001e0: d841 9fbc 2021 8a3b 965b c5bd ec39 2b3d
000001f0: 5ede 10be 6088 debb b619 d13d a03f af3c

net.0.weight f4 [128, 32]
-0.099319026 0.001139015 -0.09232926 0.009542927 -0.035844475 0.03037639 -0.057581045 0.12547474
0.11286925 0.15167223 0.072966605 0.10028379 -0.16612835 -0.16864458 0.16223292 -0.06592199
0.16662784 0.17053644 -0.13443668 0.09630267 0.00806804 0.05425243 0.030371279 -0.0067469925
0.009981409 -0.039010108 0.11706515 -0.093519576 -0.042223305 -0.12124969 0.09138809 0.12189005
0.13749091 0.15266646 0.11110096 0.093449965 0.018947303 0.091703966 0.090792015 -0.0071464777
-0.048456416 0.07741059 -0.07401425 -0.06297949 0.07313694 -0.019805968 0.0066429824 0.16441895
0.14169453 -0.032943875 0.118015006 -0.04607579 0.03568159 0.041056007 0.086873576 -0.101305954
0.07924439 0.095803544 -0.11745966 -0.0398387 0.10163765 -0.16537152 0.10190551 0.15468134
-0.12605697 -0.021586373 -0.04543142 0.007873118 0.1477095 -0.031248376 0.15183641 0.122750714
0.14926945 0.14612795 0.088933066 -0.005624503 0.042444587 0.00016406178 -0.14220005 -0.046023563
0.0034250915 0.021802917 -0.15285632 -0.16395606 0.067038015 0.048664704 0.13434254 -0.10280554
0.13711469 -0.016870186 0.09157242 -0.16436474 0.14878662 0.15729927 0.0035849214 0.16623192
-0.0601146 -0.07041636 0.09477596 -0.0034303963 0.15168165 -0.026820362 0.16719337 0.09643988
-0.025396526 0.022335768 -0.11875041 -0.05031459 -0.13274881 0.10046683 -0.120766714 -0.0019663423
0.02031739 -0.03903003 0.16732685 -0.13714983 -0.061612748 0.02966091 0.09234993 -0.12759295
0.14554678 -0.034712717 -0.17369305 0.0012813509 0.012592554 -0.17157206 -0.10493008 -0.11160801
0.0472136 0.04220687 -0.10062602 0.10374047 0.09823258 0.023754507 0.029930577 -0.15584046
-0.033603907 -0.14012301 0.07113598 0.13153128 -0.08759053 0.058248416 -0.094849646 0.0585403
0.15983899 0.04239638 -0.05127299 -0.03270395 0.11742835 -0.006598398 -0.12890017 0.051900193
0.16012152 0.07239188 -0.009631798 0.10504635 -0.063124135 0.10551159 0.08815114 0.06558694
0.024883732 0.13848846 0.08574273 -0.053905837 -0.11963534 -0.16109566 -0.046384394 0.1649503
-0.02169922 0.047288567 0.11042793 0.06672095 -0.033871457 0.07498635 0.016936943 -0.0069732666
0.15402953 0.08298637 -0.026013076 0.12344922 -0.022007316 -0.080023415 0.0617591 0.15492092
0.13532372 -0.15841237 -0.016866788 0.13677128 -0.15488449 -0.025375053 -0.16090915 0.07106452
0.058029592 0.07999231 0.041723877 0.13369672 -0.079760805 -0.07356882 -0.09268513 0.08036773
-0.06729134 0.10074027 0.03514503 0.1507823 0.052274868 -0.13124065 -0.03729309 -0.1755218
-0.10748321 -0.17055714 0.00711827 0.13045283 0.04288581 0.14346953 0.15738885 0.12519802
-0.06471853 0.08593546 0.03807275 0.11281596 -0.07777225 0.13622583 -0.032399774 -0.17130095
0.038309693 -0.050259605 -0.09940551 -0.09144258 0.15568171 -0.10057658 -0.104336336 0.13911833
0.17293854 0.062003583 0.109326825 0.12853266 -0.16519 -0.03526452 0.16639401 -0.06608683
-0.12024152 0.17667095 0.082088545 -0.015099928 0.1637239 -0.12454851 0.12514798 -0.046110064
0.08212699 -0.08502292 -0.112004444 -0.06034752 -0.10428943 0.041763753 0.029436216 -0.07573165
00000000: c667 cbbd 004b 953a 2017 bdbd f059 1c3c
00000010: a8d1 12bd e8d7 f83c 1ada 6bbd 737c 003e
00000020: fe27 e73d f74f 1b3e 846f 953d 9661 cd3d
00000030: 8d1d 2abe 2ab1 2cbe 6320 263e 1c02 87bd
00000040: 7da0 2a3e 1ba1 2e3e c5a9 09be 563a c53d
00000050: d02f 043c cc37 5e3d 30cd f83c e015 ddbb
00000060: 1089 233c 10c9 1fbd dabf ef3d 3187 bfbd
00000070: 58f2 2cbd c251 f8bd ae29 bb3d 7ea1 f93d
00000080: 6bca 0c3e 9954 1c3e e688 e33d b262 bf3d
00000090: 6037 9b3c 4acf bb3d 2af1 b93d 002d eabb
000000a0: 3c7a 46bd 7289 9e3d c894 97bd 64fb 80bd
000000b0: d2c8 953d 2040 a2bc 60ad d93b 715d 283e
000000c0: 5f18 113e 28f0 06bd dab1 f13d f8b9 3cbd
000000d0: dc26 123d 582a 283d c6ea b13d 7f79 cfbd
000000e0: e24a a23d a634 c43d b18e f0bd e82d 23bd
000000f0: 6627 d03d 2757 29be d6b3 d03d c964 1e3e
00000100: 1415 01be e8d5 b0bc 4c16 3abd 40fe 003c
00000110: 2941 173e 98fc ffbc 017b 1b3e ba64 fb3d
00000120: 17da 183e 91a2 153e 8a22 b63d c04d b8bb
00000130: 60da 2d3d 0008 2c39 e49c 11be 3483 3cbd
00000140: 8077 603b 089c b23c 5e86 1cbe 19e4 27be
00000150: 3a4b 893d a454 473d 1791 093e b68b d2bd
00000160: cb67 0c3e 5833 8abc 528a bb3d 3b4f 28be
00000170: 855b 183e 0f13 213e 00f1 6a3b b338 2a3e
00000180: ba3a 76bd 7436 90bd e619 c23d 80d0 60bb
00000190: 6f52 1b3e 60b6 dbbc bd34 2b3e 4682 c53d
000001a0: 600c d0bc 80f9 b63c 6a33 f3bd ac16 4ebd
000001b0: 4eef 07be 8ec1 cd3d 8a54 f7bd c0dd 00bb
000001c0: a870 a63c f4dd 1fbd bb57 2b3e 0171 0cbe
000001d0: a65d 7cbd 70fb f23c f621 bd3d baa7 02be
000001e0: 370a 153e ec2e 0ebd 97dc 31be 00f3 a73a
000001f0: 0051 4e3c 96b0 2fbe 95e5 d6bd be92 e4bd
00000200: 0c63 413d 1ce1 2c3d 0415 cebd e275 d43d
00000210: 2a2e c93d d098 c23c f830 f53c a494 1fbe
00000220: 40a4 09bd 687c 0fbe beaf 913d 23b0 063e
00000230: aa62 b3bd e495 6e3d 8840 c2bd f4c7 6f3d
00000240: d5ac 233e d4a7 2d3d a003 52bd 94f4 05bd
00000250: 467e f03d 6037 d8bb 68fe 03be 4c95 543d
00000260: e5f6 233e 3242 943d b0ce 1dbc 8a22 d73d
00000270: 3a47 81bd 7616 d83d 9688 b43d 7252 863d
00000280: f8d8 cb3c ebcf 0d3e e299 af3d 5ecc 5cbd
00000290: 6003 f5bd 43f6 24be 90fd 3dbd bbe8 283e
000002a0: 90c2 b1bc a8b1 413d 0a28 e23d fea4 883d
000002b0: ccbc 0abd 7292 993d 58bf 8a3c 0080 e4bb
000002c0: ebb9 1d3e c2f4 a93d 6019 d5bc f2d2 fc3d
000002d0: b048 b4bc 51e3 a3bd 1cf7 7c3d 97a3 1e3e
000002e0: 4d92 0a3e da36 22be 382c 8abc c50d 0c3e
000002f0: 0a9a 1ebe 58df cfbc 5ec5 24be 468a 913d
00000300: 70b0 6d3d 02d3 a33d a8e6 2a3d cbe7 083e
00000310: a259 a3bd 40ab 96bd b4d1 bdbd d697 a43d
00000320: 0bd0 89bd ea50 ce3d 3cf4 0f3d ad66 1a3e
00000330: 2c1e 563d f363 06be a4c0 18bd fdbb 33be
00000340: 2820 dcbd 88a6 2ebe 6040 e93b 6d95 053e
00000350: 08a9 2f3d ade9 123e 8b2a 213e e933 003e
00000360: 268b 84bd eefe af3d 2cf2 1b3d 0e0c e73d
00000370: 0f47 9fbd c97e 0b3e a0b5 04bd 8469 2fbe
00000380: a0ea 1c3d 04dd 4dbd 1e95 cbbd 3f46 bbbd
00000390: 076b 1f3e 18fb cdbd 4aae d5bd 0975 0e3e
000003a0: cd16 313e 78f7 7d3d bee6 df3d 119e 033e
000003b0: 9127 29be 8871 10bd 3163 2a3e 8858 87bd
000003c0: 3041 f6bd 3be9 343e 0a1e a83d b065 77bc
000003d0: 3da7 273e 4a13 ffbd cb26 003e e8dd 3cbd
000003e0: 3232 a83d 7f20 aebd 9662 e5bd f62e 77bd
000003f0: b295 d5bd 7810 2b3d 3824 f13c 3219 9bbd

net.0.bias f4 [128]
-0.066755906 0.05015637 -0.0987178 -0.10130517 -0.06525487 -0.15202501 0.15006821 0.15393408
0.13794829 0.11699338 0.00529474 0.063775405 0.10562478 0.16465725 -0.11724014 -0.011859849
0.04793504 0.072567895 0.008727938 -0.05132112 -0.1655298 0.010980904 -0.036574945 -0.052832462
0.036692813 -0.09831924 -0.16746882 -0.08918684 0.04530497 0.07533808 -0.050528824 0.029208064
-0.1332825 0.1023183 -0.1417432 0.17191167 0.12844409 -0.03557965 -0.038661703 0.17565702
-0.0036040992 -0.112766884 -0.02576439 -0.13782188 0.10294135 0.024817586 -0.16360462 -0.084132
-0.06700114 0.029197171 0.10974406 0.04382077 -0.06724085 -0.12520742 0.008797854 -0.09068683
-0.0053773224 -0.15620194 -0.048045114 0.017047256 0.041305363 -0.021185994 0.11072542 -0.14902647
-0.009812951 -0.020669907 -0.12051965 -0.16084428 -0.07006441 0.14708488 0.031629667 -0.17180064
-0.16999626 -0.067891344 -0.1319423 -0.10710159 0.14085703 0.1059417 -0.17673594 0.08209975
-0.05687087 -0.0025751293 -0.1689841 -0.079204924 0.0096010715 -0.035372213 0.03634101 0.044968173
0.079160765 0.13684078 -0.13897422 -0.124910966 0.05601318 -0.1685985 0.07063623 -0.17031834
-0.05590777 -0.045094445 -0.07788995 -0.09241626 0.04157439 -0.14772248 -0.15787213 -0.013807729
0.08263816 0.0075328797 -0.040326312 0.10667996 0.103184685 0.1595432 0.066473335 0.039216563
-0.1431294 0.005714625 -0.029437661 0.009638965 -0.12515038 0.018623471 -0.1573885 0.016622424
-0.17016783 -0.0016177446 0.011701778 -0.15594073 0.16104893 -0.07610804 0.16782089 0.03547059
00000000: 52b7 88bd c470 4d3d 8f2c cabd 1679 cfbd
00000010: 58a4 85bd 72ac 1bbe 7bab 193e e5a0 1d3e
00000020: 5142 0d3e 3a9a ef3d 807f ad3b ae9c 823d
00000030: ce51 d83d e99b 283e 991b f0bd d04f 42bc
00000040: 8857 443d 7a9e 943d a0ff 0e3c 1836 52bd
00000050: a580 29be 40e9 333c 9ccf 15bd da66 58bd
00000060: 344b 163d 995b c9bd f27c 2bbe 97a7 b6bd
00000070: b491 393d da4a 9a3d 50f7 4ebd c045 ef3c
00000080: 357b 08be 428c d13d 2125 11be 9d09 303e
00000090: d986 033e f8bb 11bd bc5b 1ebd 6fdf 333e
000000a0: c032 6cbb 53f2 e6bd d80f d3bc 2e21 0dbe
000000b0: ead2 d23d 404e cb3c f887 27be 664d acbd
000000c0: e537 89bd e82e ef3c 7ec1 e03d 687d 333d
000000d0: 92b5 89bd 6036 00be e024 103c 04ba b9bd
000000e0: 4034 b0bb 67f3 1fbe f4ca 44bd b0a6 8b3c
000000f0: d02f 293d 408e adbc 02c4 e23d 659a 18be
00000100: 80c6 20bc f053 a9bc 02d3 f6bd 5db4 24be
00000110: ee7d 8fbd 6b9d 163e 1c8e 013d 82ec 2fbe
00000120: 8013 2ebe 9e0a 8bbd e21b 07be 1458 dbbd
00000130: d33c 103e f6f7 d83d 44fa 34be ea23 a83d
00000140: 6ef1 68bd 80c3 28bb 2b0a 2dbe 3136 a2bd
00000150: d04d 1d3c 74e2 10bd 50da 143d 8c30 383d
00000160: 0a1f a23d fd1f 0c3e 424f 0ebe 52d1 ffbd
00000170: 146e 653d 16a5 2cbe baa9 903d ee67 2ebe
00000180: 8cff 64bd f4b4 38bd c484 9fbd bc44 bdbd
00000190: e849 2a3d 9044 17be 3ba9 21be d039 62bc
000001a0: 323e a93d 60d6 f63b 342d 25bd 067b da3d
000001b0: 7e52 d33d 4b5f 233e 2c23 883d 8ca1 203d
000001c0: 8390 12be c041 bb3b 4027 f1bc c0ec 1d3c
000001d0: 6c27 00be 4090 983c 732a 21be c02b 883c
000001e0: 7a40 2ebe 800a d4ba d0b8 3f3c edae 1fbe
000001f0: 03ea 243e 88de 9bbd 3dd9 2b3e 9c49 113d

net.2.weight f4 [64, 128]
-0.027088422 0.008549266 -0.06571867 0.044118218 -0.056827787 -0.024823472 -0.07860062 0.08259679
0.0334438 -0.0523233 -0.030935332 -0.057810158 0.07294928 -0.045256086 0.0847731 0.0163946
0.028606005 -0.070972845 -0.06151267 -0.08524887 -0.06577608 0.055404447 -0.07492635 -0.041054286
0.03584402 -0.034776006 -0.01885394 0.00494536 -0.08328446 -0.060102016 0.06495235 -0.0386607
0.02761311 -0.084464684 0.08642339 -0.020264491 0.063426785 -0.05968041 0.032489806 0.05543869
0.032892235 -0.07175618 -0.031569052 -0.05206904 -0.06974179 0.074108295 -0.087330826 -0.08020587
0.011397764 -0.08600222 0.036835246 0.006794557 -0.054072563 -0.08184098 0.017701678 -0.029685974
-0.08812038 -0.050834186 -0.05008294 -0.013962157 -0.035691805 0.07268853 -0.0876713 -0.06536229
0.02409885 0.08007086 -0.049239594 0.022791423 0.05334509 -0.04176878 -0.007930711 0.0011197776
0.087694414 0.039437063 -0.045405693 -0.059271313 -0.047699433 0.018340677 0.084180586 -0.077953525
-0.07321481 -0.08834839 -0.07384544 0.019360289 0.07596976 -0.03662506 -0.058861066 -0.05680075
0.018667914 -0.024175316 -0.018086739 -0.05481208 -0.0076931342 0.009879991 0.04786446 0.005130954
0.03736744 0.061865292 -0.05034873 -0.080811724 0.052226238 0.037591152 0.048096053 0.06872406
-0.0469422 -0.07108991 -0.049139094 0.011213668 0.07981362 -0.07171193 -0.0060398728 0.0014374182
-0.026853696 -0.07449726 0.007369384 -0.05536628 -0.056602795 -0.047173828 0.005334221 -0.028969131
0.084392674 0.06657206 -0.053576916 0.030046307 -0.023582436 0.011630274 -0.0155300945 0.010197841
-0.020027258 0.036232293 0.014719695 -0.01899293 -0.07180552 -0.055049643 -0.07593099 -0.017986208
-0.030448947 0.08603934 -0.03424583 0.05875177 0.02856899 0.05699522 0.021527134 -0.061901204
0.046472333 -0.012456171 -0.04464647 -0.06133378 0.08347667 -0.03941961 0.054510884 0.00039794296
0.065912135 -0.05849424 0.01463563 0.05697859 0.04274004 0.069798045 0.028176568 0.057105906
-0.08188856 0.08781601 0.080608614 0.077269204 -0.02845104 0.0071572736 0.06718419 -0.07521992
-0.022723213 0.076329894 0.072008915 -0.050332893 -0.06671846 -0.058732834 0.07247607 -0.014753655
-0.044017516 -0.07516605 -0.040789098 -0.0792709 -0.011872001 0.06107766 -0.036649194 -0.026243355
0.05522003 0.055113293 -0.024687946 0.035000093 -0.07589814 0.04596793 -0.022549279 0.050250433
0.016197205 0.017489448 0.08098864 0.07051354 -0.07822437 -0.077771775 0.016387492 0.04121653
0.035136476 0.049267404 -0.012209386 -0.06363272 0.04695814 0.08223333 -0.0792534 0.060099043
0.035935953 0.083917074 0.020082563 0.08490386 0.07934768 0.06024673 -0.053979356 -0.074838765
0.053601734 0.064328544 0.071407385 0.017551035 0.045280375 -0.00797686 0.014983587 0.03975468
0.05152092 -0.015141942 0.024360344 0.005693607 0.010820098 -0.068635054 -0.041283313 0.007677406
-0.047635444 -0.033046354 -0.05362058 0.028404362 -0.04829485 0.08506391 -0.08645783 -0.053287663
-0.06441285 0.026013844 0.034256198 0.0017179027 -0.029823467 -0.07012787 0.05448448 -0.048792098
-0.013192795 -0.06725554 0.029212274 -0.062364534 -0.048652034 0.010402262 -0.0768658 0.014555626
00000000: 8ae8 ddbc 3812 0c3c 8397 86bd 4eb5 343d
00000010: 41c4 68bd 985a cbbc 5df9 a0bd 8128 a93d
00000020: 5efc 083d f550 56bd 186c fdbc 58ca 6cbd
00000030: 6f66 953d 725e 39bd 859d ad3d f84d 863c
00000040: 2457 ea3c 365a 91bd b6f4 7bbd f696 aebd
00000050: 9cb5 86bd c6ef 623d fc72 99bd 8a28 28bd
00000060: 2ed1 123d 4971 0ebd 9473 9abc b00c a23b
00000070: 0b91 aabd 882d 76bd bd05 853d af5a 1ebd
00000080: e434 e23c d2fb acbd bffe b03d b801 a6bc
00000090: e7e5 813d 7273 74bd 0814 053d ae13 633d
000000a0: 02ba 063d e7f4 92bd 8d4e 01bd 5846 55bd
000000b0: c9d4 8ebd 17c6 973d 81da b2bd fa42 a4bd
000000c0: b0bd 3a3c ef21 b0bd 8ee0 163d e0a4 de3b
000000d0: 317b 5dbd 3e9c a7bd 1c03 913c 0030 f3bc
000000e0: 7578 b4bd 8237 50bd c523 4dbd 88c1 64bc
000000f0: 9231 12bd b9dd 943d 038d b3bd aadc 85bd
00000100: f46a c53c 31fc a33d 75af 49bd 14b5 ba3c
00000110: 6280 5a3d be15 2bbd d0ef 01bc 80c5 923a
00000120: 2199 b33d c288 213d 52fb 39bd 7ac6 72bd
00000130: 7b60 43bd 303f 963c df66 ac3d 19a6 9fbd
00000140: a5f1 95bd 00f0 b4bd 473c 97bd 7899 9e3c
00000150: 0996 9b3d 2904 16bd 4d18 71bd e7a7 68bd
00000160: 74ed 983c 500b c6bc a42a 94bc a282 60bd
00000170: b016 fcbb b0df 213c 860d 443d 9021 a83b
00000180: 9a0e 193d 7666 7d3d 783a 4ebd 9e80 a5bd
00000190: 2eeb 553d 2ef9 193d 5e00 453d 33bf 8c3d
000001a0: 7746 40bd 9697 91bd 1346 49bd 88b9 373c
000001b0: 5375 a33d b4dd 92bd 20ea c5bb c067 bc3a
000001c0: 48fc dbbc 0592 98bd e07a f13b c1c7 62bd
000001d0: 55d8 67bd 5839 41bd b0ca ae3b ac50 edbc
000001e0: 11d6 ac3d ef56 883d 7873 5bbd ac23 f63c
000001f0: f42f c1bc e88c 3e3c f071 7ebc d814 273c
00000200: 3410 a4bc 5068 143d e02a 713c 1097 9bbc
00000210: c60e 93bd bc7b 61bd b581 9bbd d057 93bc
00000220: 1270 f9bc 6535 b03d 5b45 0cbd b2a5 703d
00000230: 8409 ea3c d273 693d ac59 b03c 1e8c 7dbd
00000240: c659 3e3d f814 4cbc 38df 36bd 2139 7bbd
00000250: d1f5 aa3d 7576 21bd ce46 5f3d 00a3 d039
00000260: f1fc 863d a897 6fbd 48ca 6f3c 6262 693d
00000270: 2e10 2f3d 47f2 8e3d 8cd2 e63c e2e7 693d
00000280: 30b5 a7bd e1d8 b33d 2116 a53d 513f 9e3d
00000290: 2812 e9bc 9087 ea3b dd97 893d e70c 9abd
000002a0: 0826 babc d952 9c3d 6979 933d dd29 4ebd
000002b0: b0a3 88bd d791 70bd 556e 943d 50b9 71bc
000002c0: b64b 34bd a8f0 99bd 7812 27bd c858 a2bd
000002d0: c882 42bc 922c 7a3d 771d 16bd 4efc d6bc
000002e0: 662e 623d 7abe 613d 603e cabc 425c 0f3d
000002f0: 7c70 9bbd de48 3c3d 44b9 b8bc 66d3 4d3d
00000300: 00b0 843c 0846 8f3c 5fdd a53d 6769 903d
00000310: 1934 a0bd cf46 9fbd 103f 863c aad2 283d
00000320: 44eb 0f3d 9ecc 493d e009 48bc df51 82bd
00000330: 2e57 403d f369 a83d 9b4f a2bd 6a2a 763d
00000340: 9431 133d b7dc ab3d 3084 a43c 13e2 ad3d
00000350: 0981 a23d 46c5 763d 7519 5dbd 1145 99bd
00000360: 7e8d 5b3d afbe 833d 093e 923d 30c7 8f3c
00000370: ea77 393d 60b1 02bc b87d 753c ced5 223d
00000380: 9a07 533d e815 78bc 588f c73c 7091 ba3b
00000390: c846 313c 8990 8cbd b118 29bd c092 fb3b
000003a0: 621d 43bd 9d5b 07bd 41a1 5bbd 44b0 e83c
000003b0: d2d0 45bd fd35 ae3d ce10 b1bd 2a44 5abd
000003c0: e2ea 83bd fc1a d53c 3a50 0c3d 402b e13a
000003d0: 5850 f4bc 339f 8fbd 1e2b 5f3d 39da 47bd
000003e0: 9826 58bc 46bd 89bd 944e ef3c f471 7fbd
000003f0: 5b47 47bd 406e 2a3c d16b 9dbd b87a 6e3c

net.2.bias f4 [64]
0.0011832863 0.045547314 0.08747939 0.06029772 0.025864542 0.015179664 0.073372684 0.030349195
0.06688865 -0.020506635 -0.019212082 -0.06780861 0.07245537 0.055157162 0.056755446 -0.0002438724
0.0033364892 0.033663265 -0.005153604 -0.08302543 0.07089735 0.036556266 -0.021045394 -0.08602891
0.08165627 0.038827352 -0.083177276 0.06583788 -0.074266806 0.06014677 -0.010973245 -0.023077264
-0.052070744 -0.075733356 -0.002990201 -0.009574197 0.03728301 -0.010668211 0.018522613 0.022412032
-0.08745551 0.07826886 -0.08008009 -0.050561816 -0.016542807 0.0133417025 0.0021748617 0.05531975
-0.047595423 0.06382797 -0.06371395 0.062298052 0.024658456 -0.03916636 -0.06479539 -0.06563814
-0.053677984 0.0148655325 -0.07164475 -0.031142116 -0.025747374 -0.024402529 -0.069690116 -0.013335019
00000000: 8018 9b3a d28f 3a3d 6528 b33d befa 763d
00000010: e0e1 d33c 20b4 783c 6b44 963d e09e f83c
00000020: ebfc 883d 88fd a7bc a862 9dbc 3edf 8abd
00000030: 7b63 943d 7aec 613d 6678 683d 00b8 7fb9
00000040: 00a9 5a3b 7ee2 093d 90df a8bb 3d09 aabd
00000050: a132 913d 06bc 153d 6467 acbc ed2f b0bd
00000060: 673b a73d 6e09 1f3d d958 aabd 03d6 863d
00000070: 3219 98bd 765c 763d 20c9 33bc 880c bdbc
00000080: 2248 55bd 171a 9bbd 40f7 43bb 18dd 1cbc
00000090: 12b6 183d b8c9 2ebc bcbc 973c 7099 b73c
000000a0: e01b b3bd 6d4b a03d 0801 a4bd e819 4fbd
000000b0: c884 87bc 2897 5a3c 2088 0e3b f696 623d
000000c0: 6bf3 42bd 3db8 823d 767c 82bd 3e2c 7f3d
000000d0: 8800 ca3c e86c 20bd 72b3 84bd 4a6d 86bd
000000e0: 72dd 5bbd 908e 733c 7cba 92bd c01d ffbc
000000f0: 28ec d2bc d0e7 c7bc b1b9 8ebd 207b 5abc

net.4.weight f4 [12, 64]
-0.017309576 -0.10629997 -0.08655581 0.124910325 0.08744767 -0.09485912 0.11933966 0.10383077
0.07833327 0.032574534 -0.0048086345 -0.07732168 -0.012057275 -0.0632503 -0.07692668 -0.026042238
0.08751544 -0.106089786 -0.0003695637 -0.0005084127 -0.12305239 0.11948672 -0.0135437995 0.11645654
-0.070782945 -0.054685608 0.10197808 -0.11558856 0.023063228 -0.087946534 0.03758709 0.12242545
-0.107824996 0.057902157 0.067982465 -0.10865319 0.075048536 -0.07952596 -0.02459222 0.070280954
0.101443455 0.05220382 -0.08915171 -0.11752236 -0.05190085 0.033268496 0.007903308 -0.051054284
0.11790472 -0.10501796 -0.021162793 0.12110293 -0.02337046 0.09661287 0.07921752 -0.050736845
0.012749746 -0.058534667 0.12485604 -0.078970686 -0.09499049 -0.052101657 -0.10461609 -0.0059459955
-0.062121272 0.08809368 -0.084082514 0.048128814 -0.09573911 -0.09715305 0.05721377 -0.06595798
0.0141402185 0.06765732 -0.059577942 -0.112105265 -0.009837985 -0.11124182 0.07394336 -0.080299124
-0.009241283 0.00076949596 0.089514285 0.008930072 0.02638024 0.021262065 -0.015794918 0.047818318
0.0090280175 0.09036593 0.12147614 0.07964124 -0.09857683 0.01379019 -0.09158519 -0.05968809
-0.098373935 -0.11607392 0.099420846 0.03718306 0.07430297 0.031937554 0.11407493 0.0001821369
-0.0077714324 -0.04982212 0.0031816512 -0.096646756 0.09399767 -0.077406734 0.05892843 -0.010759726
0.01562734 -0.07952112 0.084480226 -0.123380765 -0.09183565 -0.123356685 0.12150803 -0.000101938844
-0.124597415 -0.024641499 -0.06842412 0.049224526 0.07669403 -0.04704556 0.031120554 -0.069039464
0.044749558 -0.061739847 -0.0975942 0.0633775 0.022867814 -0.06811416 -0.04875046 0.012928218
-0.010766134 -0.023565054 -0.05856806 0.12269445 0.020930663 -0.012726784 -0.020400852 0.08681084
0.04258752 0.08113073 -0.063784 -0.10678363 0.037497446 -0.10174674 0.06835294 -0.049381644
0.042275116 0.010475904 -0.058613285 -0.011920333 0.09057668 0.058807984 -0.043865576 -0.014479876
-0.041889936 0.028798148 -0.026339173 -0.0536339 0.02470845 0.018558368 0.091196895 0.09903428
0.038891256 0.039515376 -0.03992018 -0.045314252 0.0735403 -0.0484581 0.037222967 -0.09872502
0.08509275 -0.041037038 0.096511215 -0.0112876 0.03344336 -0.036794573 0.051385596 0.057907388
0.120691076 -0.052155018 0.034433603 -0.05173506 -0.0808783 0.021979466 -0.11222257 -0.022730127
-0.036990777 0.10409452 -0.06695527 0.09683329 -0.010135353 -0.11219533 0.0073740333 0.05371967
0.08001363 0.006826684 0.0061864704 0.10590178 -0.10932964 -0.122822374 -0.05687803 0.07700744
-0.066590354 0.018975139 -0.12477428 -0.10710329 0.11611655 -0.11182737 -0.106826976 -0.09774116
-0.08476511 0.056917503 -0.11462708 0.017229676 0.07960279 -0.049816757 0.028390601 0.068929076
-0.04841779 -0.059466332 0.013934389 -0.024012536 -0.030900091 -0.12441537 0.05222003 0.11208558
0.060315073 0.081750005 0.017432868 -0.1016106 0.021969467 0.029814437 0.008693755 0.05444491
-0.016741768 0.04582365 -0.021105543 0.07147552 0.032534316 -0.053424373 -0.04247926 -0.09123172
-0.096151754 0.107798934 0.03189835 0.10168086 0.11360231 -0.031002462 -0.0010405928 0.024453267
00000000: d0cc 8dbc ccb3 d9bd 2c44 b1bd fcd0 ff3d
00000010: c417 b33d 8045 c2bd 5a68 f43d 3aa5 d43d
00000020: 326d a03d e06c 053d c091 9dbb d45a 9ebd
00000030: e08b 45bc 6089 81bd bc8b 9dbd 8856 d5bc
00000040: 4c3b b33d 9a45 d9bd 00c2 c1b9 0047 05ba
00000050: e402 fcbd 74b5 f43d d0e6 5dbc c480 ee3d
00000060: a6f6 90bd 04fe 5fbd e2d9 d03d b2b9 ecbd
00000070: 18ef bc3c 501d b4bd ecf4 193d 32ba fa3d
00000080: 5ad3 dcbd d02a 6d3d 643a 8b3d 9085 debd
00000090: 0cb3 993d 82de a2bd a075 c9bc 76ef 8f3d
000000a0: 96c1 cf3d acd3 553d 2c95 b6bd 90af f0bd
000000b0: fc95 54bd 8c44 083d e07c 013c 4c1e 51bd
000000c0: 0878 f13d a813 d7bd 985d adbc d004 f83d
000000d0: 6873 bfbc f8dc c53d cc3c a23d 70d1 4fbd
000000e0: 50e4 503c 0cc2 6fbd 86b4 ff3d 62bb a1bd
000000f0: 608a c2bd 8c68 55bd f640 d6bd a0d6 c2bb
00000100: e072 7ebd 766a b43d 7433 acbd b822 453d
00000110: de12 c4bd 2ef8 c6bd fc58 6a3d fa14 87bd
00000120: 60ac 673c ec8f 8a3d 0008 74bd 7297 e5bd
00000130: 802f 21bc c0d2 e3bd 9e6f 973d de73 a4bd
00000140: c068 17bc 00b8 493a 4453 b73d 704f 123c
00000150: 601b d83c c82d ae3c 5864 81bc 24dd 433d
00000160: 40ea 133c c611 b93d 7cc8 f83d f21a a33d
00000170: a6e2 c9bd 40f0 613c 0491 bbbd 807b 74bd
00000180: 4678 c9bd 2ab8 edbd 289d cb3d 444d 183d
00000190: 282c 983d f4d0 023d 1ea0 e93d 00fc 3e39
000001a0: 80a7 febb 4812 4cbd 4083 503b bcee c5bd
000001b0: da81 c03d 6c87 9ebd f05e 713d 9049 30bc
000001c0: e804 803c f8db a2bd f803 ad3d 0eaf fcbd
000001d0: 5414 bcbd 6ea2 fcbd 34d9 f83d 00c8 d5b8
000001e0: ee2c ffbd f8dc c9bc f221 8cbd a89f 493d
000001f0: c211 9d3d d8b2 40bd 88f0 fe3c 9064 8dbd
00000200: 504b 373d ece2 7cbd 78df c7bd 10cc 813d
00000210: 4855 bb3c 707f 8bbd 90ae 47bd e0d0 533c
00000220: 7064 30bc 800b c1bc 10e5 6fbd 3a47 fb3d
00000230: c876 ab3c 0084 50bc b01f a7bc e2c9 b13d
00000240: 4070 2e3d de27 a63d 30a1 82bd 60b1 dabd
00000250: ec96 193d 9860 d0bd a0fc 8b3d 6844 4abd
00000260: ac28 2d3d 20a3 2b3c 7c14 70bd 804d 43bc
00000270: 4480 b93d a4e0 703d 64ac 33bd 003d 6dbc
00000280: c894 2bbd 18ea eb3c 40c5 d7bc 38af 5bbd
00000290: 6069 ca3c b807 983c 70c5 ba3d 7cd2 ca3d
000002a0: 704c 1f3d e0da 213d 5883 23bd 709b 39bd
000002b0: 4c9c 963d 007c 46bd 1c77 183d 5830 cabd
000002c0: 1c45 ae3d 7416 28bd aca7 c53d a0ef 38bc
000002d0: e8fb 083d e8b5 16bd b479 523d 4c30 6d3d
000002e0: e22c f73d 80a0 55bd 400a 0d3d 24e8 53bd
000002f0: 86a3 a5bd 480e b43c f2d4 e5bd 8834 babc
00000300: a483 17bd 822f d53d d81f 89bd 8850 c63d
00000310: c00e 26bc aac6 e5bd e0a1 f13b 2809 5c3d
00000320: 30de a33d 60b2 df3b e0b7 ca3b 08e3 d83d
00000330: 38e8 dfbd 4c8a fbbd f0f8 68bd 14b6 9d3d
00000340: 8660 88bd c071 9b3c a889 ffbd f858 dbbd
00000350: 84ce ed3d c005 e5bd 1ac8 dabd 842c c8bd
00000360: 5499 adbd 5422 693d 9ac1 eabd 4025 8d3c
00000370: ca06 a33d a80c 4cbd 6893 e83c b02a 8d3d
00000380: bc51 46bd f892 73bd 104d 643c f0b5 c4bc
00000390: 3022 fdbc 7ccd febd ace4 553d 208d e53d
000003a0: f00c 773d 8c6c a73d 60cf 8e3c 3819 d0bd
000003b0: 50f9 b33c 683d f43c 4070 0e3c a001 5f3d
000003c0: 0826 89bc 94b1 3b3d 88e5 acbc c261 923d
000003d0: b442 053d 84d3 5abd bcfe 2dbd b2d7 babd
000003e0: 36eb c4bd b0c5 dc3d d8a7 023d 0e3e d03d
000003f0: 54a8 e83d e0f8 fdbc 8064 88ba 3852 c83c

net.4.bias f4 [12]
0.083390936 0.06826943 -0.10478525 0.041957363 -0.11162028 -0.078580335 -0.020557076 -0.028360903
0.028938085 0.0024285913 -0.0014075786 -0.11761923
00000000: dec8 aa3d d8d0 8b3d a699 d6bd 7cdb 2b3d
00000010: 2c99 e4bd baee a0bd 5067 a8bc 2055 e8bc
00000020: 900f ed3c 0029 1f3b 807e b8ba 5ae2 f0bd
