models/actor_servertest5v5_ep0.pth (torch, 289048 bytes, 10 tensors)

lstm.weight_ih_l0 f4 [320, 80]
-0.068657145 0.070168525 0.021616383 -0.01234609 -0.04174652 0.015825232 -0.04468016 -0.086946055
-0.0247752 0.09352432 -0.0749609 -0.058334086 -0.06968721 0.01583744 0.029968882 -0.052962888
0.10746604 -0.044347692 0.052499484 0.08745992 -0.08112557 -0.03910484 -0.10788094 -0.021493271
-0.035767175 -0.02466435 0.051095262 -0.025608214 0.08075905 0.05045485 -0.055210695 -0.044776972
0.10939944 0.10826359 -0.0024511532 0.09561161 0.0049472884 0.050684333 0.07299306 -0.06546574
-0.025164656 -0.07987673 -0.024850689 -0.10078434 -0.06800439 -0.025392845 0.062314842 -0.03176559
-0.09897522 -0.043593872 -0.009329283 0.0008159137 0.08259998 -0.020012798 0.028389474 0.07788019
-0.06664135 -0.075565025 -0.09516647 0.0027068243 -0.041828673 -0.0069450894 -0.09037639 0.08888676
-0.017586062 -0.09276758 0.021946184 0.11140433 0.005295429 -0.08633319 0.016356833 -0.06341619
-0.011163776 0.011632668 0.031111598 -0.046347905 -0.09666073 0.06623715 0.0051504737 0.10504751
0.074471444 0.10295971 -0.038686957 0.1024811 -0.055842284 -0.01267865 -0.061438926 0.032272507
-0.04600443 0.029005228 -0.018975478 -0.061749734 0.11131134 -0.069670595 0.08279163 -0.031303216
0.09189509 0.08030451 -0.10180136 0.0025760098 0.06111543 -0.068199754 0.0060348 -0.07895168
-0.01339519 0.09197745 0.09624384 -0.11001507 0.06871916 0.063037455 0.06696806 0.032951996
0.026367908 0.104585975 -0.048769604 -0.073962994 0.018913837 -0.0041917106 -0.021292072 -0.09981803
-0.08704731 -0.0012782355 -0.08361244 -0.05212477 -0.033510625 0.058007803 -0.07523704 0.03528894
0.031879533 0.08638724 -0.044407416 -0.05627884 0.082004525 -0.068306364 0.039820995 0.07108118
0.0664049 0.027793672 0.023189833 0.054754503 0.02408417 0.011264309 0.045511305 0.009584674
0.047777746 0.092242435 0.009813849 0.06841581 0.047406204 -0.008841238 0.016018635 -0.05618104
-0.036359474 0.026860831 -0.04901191 -0.04898196 0.064282455 0.10326224 0.08295918 -0.0025441425
0.037792314 0.0027275893 0.08718 -0.1044342 -0.022386821 -0.10214221 -0.087280564 0.027853368
-0.109670594 0.09484723 -0.09231615 0.05012394 -0.11105955 0.081473835 -0.09039917 0.067743964
-0.084810674 0.07292641 0.07376097 -0.10037987 0.013133495 0.067776 -0.09761742 0.088417746
-0.08939073 -0.06654823 0.040671628 -0.05952136 0.07915483 -0.07450726 0.07485464 -0.039396074
0.05692594 0.07089585 0.08141743 -0.10244286 0.07304047 -0.022739014 0.09006496 -0.09634817
0.038647465 -0.09001206 0.022742933 0.026669335 0.09043122 0.04173243 -0.046360727 -0.044984613
-0.08284323 0.105222166 -0.08259296 -0.05578332 0.09618791 -0.024166137 0.028686674 0.10186489
-0.038021035 -0.009391538 0.08096392 -0.0932002 -0.088005476 -0.04479494 0.032975454 -0.0775683
0.047403898 -0.025795165 0.010171693 -0.010917914 0.04124388 -0.06479947 -0.0057138884 0.09050798
-0.050999686 -0.11172111 -0.105057575 0.03948133 0.1029517 0.04910214 0.044652212 0.027273666
-0.091775715 -0.041870978 0.04636158 0.07130837 0.08960438 -0.015531509 0.07484625 0.10117922
0.00917685 -0.040832978 -0.020204455 -0.10545955 -0.06581448 0.069822185 -0.071056716 0.03413159
00000000: 1e9c 8cbd 84b4 8f3d d714 b13c 4147 4abc
00000010: 66fe 2abd eba3 813c 8b02 37bd c610 b2bd
00000020: 5cf5 cabc ae89 bf3d 1a85 99bd b9ef 6ebd
00000030: 2bb8 8ebd 85bd 813c 4d81 f53c 9def 58bd
00000040: 2817 dc3d eda5 35bd b309 573d 301e b33d
00000050: 2a25 a6bd 662c 20bd aff0 dcbd a812 b0bc
00000060: 9a80 12bd e40c cabc 4449 513d 51c8 d1bc
00000070: 0065 a53d bfa9 4e3d 9c24 62bd 0f68 37bd
00000080: d00c e03d 4db9 dd3d 87a3 20bb 05d0 c33d
00000090: dd1c a23b 609a 4f3d 637d 953d e712 86bd
000000a0: 1c26 cebc 6996 a3bd ac93 cbbc 0568 cebd
000000b0: e345 8bbd a804 d0bc d93d 7f3d a31c 02bd
000000c0: 85b3 cabd 7d8f 32bd d9d9 18bc 0be3 553a
000000d0: 2e2a a93d e1f1 a3bc 0b91 e83c a67f 9f3d
000000e0: 437b 88bd d6c1 9abd a3e6 c2bd fa64 313b
000000f0: 8b54 2bbd a293 e3bb 4217 b9bd 430a b63d
00000100: a510 90bc eefc bdbd 7cc8 b33c f427 e43d
00000110: 4785 ad3b 75cf b0bd c4fe 853c 59e0 81bd
00000120: 45e8 36bc f296 3e3c c0dd fe3c 4dd7 3dbd
00000130: 10f6 c5bd 58a7 873d 4ec5 a83b 2623 d73d
00000140: 7c84 983d 8adc d23d 3776 1ebd 9ce1 d13d
00000150: e1ba 64bd 1dba 4fbc 62a7 7bbd 2d30 043d
00000160: 246f 3cbd 5f9c ed3c 7672 9bbc 4aed 7cbd
00000170: 33f7 e33d 75af 8ebd a88e a93d cd37 00bd
00000180: 7e33 bc3d b176 a43d 3b7d d0bd 46d2 283b
00000190: 2c54 7a3d 50ac 8bbd 92bf c53b 6bb1 a1bd
000001a0: 8077 5bbc ac5e bc3d 7e1b c53d 954f e1bd
000001b0: a2bc 8c3d c819 813d 8d26 893d acf8 063d
000001c0: 8301 d83c 2c31 d63d a3c2 47bd e979 97bd
000001d0: 31f1 9a3c 9e5a 89bb b66c aebc 656d ccbd
000001e0: dc45 b2bd 778a a7ba 003d abbd c880 55bd
000001f0: 7042 09bd 9799 6d3d e115 9abd 238b 103d
00000200: 1d94 023d cbeb b03d 8de4 35bd a484 66bd
00000210: fdf1 a73d 35e4 8bbd 571b 233d 0293 913d
00000220: 4bff 873d 8eaf e33c 9bf8 bd3c 4246 603d
00000230: 2a4c c53c f08d 383c 106a 3a3d 0909 1d3c
00000240: 99b2 433d 9ae9 bc3d 44ca 203c 971d 8c3d
00000250: 022d 423d d7da 10bc 8339 833c 171e 66bd
00000260: aced 14bd 3f0b dc3c b6c0 48bd 4fa1 48bd
00000270: 85a6 833d 277b d33d 81e6 a93d a1bb 26bb
00000280: 1dcc 1a3d 5bc1 323b 6e8b b23d 99e1 d5bd
00000290: 9164 b7bc ef2f d1bd 27c0 b2bd bf2c e43c
000002a0: fa9a e0bd 443f c23d 4010 bdbd c34e 4d3d
000002b0: 3073 e3bd c1db a63d 3323 b9bd 59bd 8a3d
000002c0: 38b1 adbd 715a 953d fe0f 973d f693 cdbd
000002d0: df2d 573c 25ce 8a3d a4eb c7bd 5d14 b53d
000002e0: 7d12 b7bd 704a 88bd 4b97 263d abcc 73bd
000002f0: ed1b a23d 4397 98bd 644d 993d c75d 21bd
00000300: 2d2b 693d d831 913d 2ebe a63d 90cd d1bd
00000310: 3e96 953d 2b47 babc fa73 b83d 3052 c5bd
00000320: ce4c 1e3d 3e58 b8bd 634f ba3c a679 da3c
00000330: 0134 b93d a0ef 2a3d bfe4 3dbd c941 38bd
00000340: b6a9 a9bd b87e d73d 7f26 a9bd 0d7d 64bd
00000350: 2bfe c43d 10f8 c5bc 5100 eb3c 8a9e d03d
00000360: f2bb 1bbd f7de 19bc 69d0 a53d bfdf bebd
00000370: 373c b4bd e67a 37bd 4511 073d 21dc 9ebd
00000380: 972a 423d 6250 d3bc 2ca7 263c 0de1 32bc
00000390: 58ef 283d 96b5 84bd 923b bbbb 3f5c b93d
000003a0: 0ce5 50bd 0ace e4bd 6d28 d7bd 2db7 213d
000003b0: 57d8 d23d 531f 493d 3de5 363d 066d df3c
000003c0: e8f4 bbbd e780 2bbd a4e5 3d3d 1f0a 923d
000003d0: 8082 b73d df77 7ebc fe48 993d 0d37 cf3d
000003e0: 805a 163c 7b40 27bd d083 a5bc 2dfb d7bd
000003f0: bec9 86bd effe 8e3d 2f86 91bd 91cd 0b3d

lstm.weight_hh_l0 f4 [320, 80]
-0.055600606 0.056993876 0.08218964 -0.105725706 0.08150602 -0.08452692 0.014650755 0.009571386
0.049452253 -0.09095092 0.07683598 -0.05311977 0.0058437963 -0.054912787 0.06510624 -0.054343697
0.02074317 0.010496349 -0.11064691 0.012856859 0.09143806 -0.054578416 0.08058328 -0.10006848
-0.09618273 -0.012513982 0.09866451 0.06918923 -0.0962986 -1.38877795e-05 -0.0011926431 0.04270287
-0.092796825 0.06710505 -0.02366383 -0.07560193 0.08187774 -0.04053458 -0.03492138 -0.00023333335
-0.057589144 0.010370906 0.0680875 0.0322223 0.03137705 0.10439485 -0.05776635 0.030086301
-0.079384856 -0.07034599 0.10018263 -0.10550954 0.08881443 -0.10591302 -0.043584477 0.09792476
-0.04762217 0.106468014 0.09199697 0.00025884315 0.05542981 -0.07308749 0.0072439164 -0.030751063
-0.059211187 -0.10175804 -0.012160164 0.01720412 0.044302244 0.04231505 -0.098072425 -0.044981614
0.06381687 -0.006395789 -0.06952155 -0.07390137 0.0072640954 -0.0021018127 0.07604302 0.015757086
0.023122434 0.10762115 0.081923276 -0.102243766 -0.07093105 -0.048263993 0.06229554 0.0717325
0.108130746 -0.094707474 -0.048211895 0.11087385 0.05998152 -0.09866388 -0.068347804 0.08617967
-0.019282462 0.06181804 0.10019126 0.032069415 -0.050779335 0.038326114 0.09870425 0.089037046
0.06379249 0.08277374 -0.09717733 0.0089686 -0.047702126 -0.07110299 0.058376722 -0.0312587
0.03302762 -0.04585589 -0.025829751 -0.031564657 0.040277746 0.06280509 0.024301456 0.079956666
-0.01573804 -0.09302832 0.030807907 -0.06974307 -0.017442651 -0.09252028 -0.027153222 0.079177834
0.07321083 0.07958996 0.088538125 -0.06754472 -0.0770111 -0.0097716125 -0.014479596 0.08850333
-0.05645797 -0.09552132 -0.03138722 0.040790167 -0.024017049 0.029963817 0.033356503 -0.060751148
0.08221427 -0.019118968 -0.08717862 0.059034526 0.090191826 0.07083979 -0.08356054 -0.0019244438
0.08286658 0.059356023 -0.08502089 -0.042605404 0.049392395 0.094888546 -0.09034228 -0.07299019
0.103610046 0.057359114 0.005408797 0.03140836 -0.10287097 0.085998915 0.010608278 0.004167187
-0.025097523 0.049153116 0.10522611 0.063997835 -0.061394155 -0.026336469 0.10361447 -0.00070861
-0.06847299 0.010404919 0.026509346 -0.011404772 0.033551797 0.096488655 -0.004687019 -0.043268763
0.016926605 0.07031492 -0.08643753 -0.101750016 0.08125367 -0.06321679 -0.10559664 -0.03724272
0.075766385 -0.09918888 -0.07642305 -0.0908473 -0.014122339 0.099830516 -0.10303269 -0.04323507
-0.06517847 -0.019694844 -0.089502566 0.028278599 0.045060206 0.040996324 0.037716825 0.009006758
-0.09600164 0.0071488214 -0.07831279 -0.010471479 -0.07534899 0.08434673 -0.004608464 0.09191924
-0.054527875 0.053307295 0.065584466 0.01712995 0.05896561 0.054330155 -0.030902376 -0.05434836
-0.03076587 0.03713194 0.070922025 0.11164184 0.06161892 0.021472573 0.087165184 0.088343196
-0.033965338 -0.05313017 0.053292993 0.07517804 0.110428564 0.03659386 -0.07647314 -0.0892038
0.023094418 -0.093802944 -0.06939747 0.046384357 0.08896542 0.019755926 0.017557979 -0.042263377
-0.06128023 0.10335776 0.015120727 0.10423149 -0.044538137 -0.02464653 -0.02732566 -0.05740391
00000000: 76bd 63bd 6972 693d 0b53 a83d b886 d8bd
00000010: a1ec a63d 731c adbd b809 703c 4dd1 1c3c
00000020: 728e 4a3d 7a44 babd 2f5c 9d3d 1e94 59bd
00000030: 517d bf3b 3bec 60bd 6c56 853d 7f97 5ebd
00000040: 95ed a93c e1f8 2b3c d99a e2bd 93a5 523c
00000050: e143 bb3d 9e8d 5fbd d908 a53d b4f0 ccbd
00000060: 73fb c4bd 7207 4dbc 9e10 ca3d 15b3 8d3d
00000070: 3338 c5bd 8fff 68b7 7652 9cba 34e9 2e3d
00000080: 430c bebd 5f6e 893d a6da c1bc 2fd5 9abd
00000090: 84af a73d 9607 26bd b909 0fbd f2aa 74b9
000000a0: 98e2 6bbd bcea 293c 7671 8b3d 88fb 033d
000000b0: 3985 003d f8cc d53d 699c 6cbd 8c77 f63c
000000c0: 8794 a2bd 8f11 90bd 8d2c cd3d 6315 d8bd
000000d0: 57e4 b53d ede8 d8bd a385 32bd c78c c83d
000000e0: 770f 43bd e70b da3d e868 bc3d 57b5 8739
000000f0: 5e0a 633d e5ae 95bd 605e ed3b a7e9 fbbc
00000100: 6e87 72bd 8566 d0bd 6d3b 47bc a8ef 8c3c
00000110: 4576 353d 8c52 2d3d 32da c8bd a43e 38bd
00000120: 6bb2 823d c493 d1bb 5061 8ebd 9a59 97bd
00000130: a607 ee3b 91be 09bb 71bc 9b3d 0115 813c
00000140: 426b bd3c 7a68 dc3d 64c7 a73d 2e65 d1bd
00000150: 4c44 91bd 77b0 45bd 9c29 7f3d 7de8 923d
00000160: a773 dd3d fef5 c1bd d679 45bd d411 e33d
00000170: 2faf 753d 4a10 cabd eff9 8bbd f87e b03d
00000180: 41f6 9dbc ea34 7d3d 1331 cd3d 385b 033d
00000190: fefd 4fbd d8fb 1c3d 7425 ca3d 0e59 b63d
000001a0: a3a5 823d 4785 a93d e804 c7bd 09f1 123c
000001b0: 4e63 43bd 729e 91bd 6e1c 6f3d 1f09 00bd
000001c0: f847 073d 63d3 3bbd ea98 d3bc f149 01bd
000001d0: 47fa 243d f49f 803d d913 c73c 52c0 a33d
000001e0: 10ed 80bc a285 bebd dd60 fc3c 74d5 8ebd
000001f0: e4e3 8ebc 467b bdbd 6f70 debc fd27 a23d
00000200: 8fef 953d 1000 a33d 7a53 b53d e354 8abd
00000210: ffb7 9dbd 1d19 20bc d43b 6dbc 3c41 b53d
00000220: 7940 67bd afa0 c3bd e38f 00bd 9713 273d
00000230: 67bf c4bc ae76 f53c d4a0 083d 32d6 78bd
00000240: f55f a83d 629f 9cbc b48a b2bd 30ce 713d
00000250: 7eb6 b83d 7414 913d ca21 abbd 9e3d fcba
00000260: f4b5 a93d 4d1f 733d 6f1f aebd 0183 2ebd
00000270: ae4f 4a3d ed54 c23d 6005 b9bd e17b 95bd
00000280: 8131 d43d 64f1 6a3d 473c b13b 0da6 003d
00000290: 04ae d2bd 3320 b03d 58ce 2d3c e68c 883b
000002a0: 5299 cdbc c754 493d c980 d73d 4c11 833d
000002b0: 7078 7bbd 94bf d7bc d333 d43d 03c2 39ba
000002c0: 913b 8cbd 6579 2a3c 212a d93c 15db 3abc
000002d0: 9c6d 093d d89b c53d 9195 99bb 963a 31bd
000002e0: aaa9 8a3c 4501 903d 2906 b1bd 5062 d0bd
000002f0: 5368 a63d ce77 81bd 0d43 d8bd d38b 18bd
00000300: 682b 9b3d 8a23 cbbd b083 9cbd 260e babd
00000310: 6261 67bc f173 cc3d ce02 d3bd 4217 31bd
00000320: 4a7c 85bd 1557 a1bc 1f4d b7bd 85a8 e73c
00000330: 0d91 383d c3eb 273d f57c 1a3d 1591 133c
00000340: 829c c4bd a940 ea3b 7562 a0bd 9190 2bbc
00000350: 9250 9abd fabd ac3d 9902 97bb 2840 bc3d
00000360: 9f58 5fbd c058 5a3d 2651 863d 1c54 8c3c
00000370: ec85 713d 4c89 5e3d fb26 fdbc 639c 5ebd
00000380: b508 fcbc a917 183d 913f 913d 7aa4 e43d
00000390: 1f64 7c3d 40e7 af3c a983 b23d 47ed b43d
000003a0: 3d1f 0bbd 059f 59bd c149 5a3d f2f6 993d
000003b0: 5f28 e23d 71e3 153d f39d 9cbd 7bb0 b6bd
000003c0: 8130 bd3c c21b c0bd 4320 8ebd 86fd 3d3d
000003d0: 8133 b63d 2ed7 a13c c0d5 8f3c 5d1c 2dbd
000003e0: fa00 7bbd 3cad d33d edbc 773c 5277 d53d
000003f0: 9f6d 36bd 85e7 c9bc 10da dfbc 5d20 6bbd

lstm.bias_ih_l0 f4 [320]
0.10383837 0.01651998 0.09772999 0.08074955 0.08685324 -0.104073405 0.0910332 0.05095761
0.08608255 -0.05258505 0.027231844 0.04693283 0.08293652 0.09531187 0.043204136 -0.02557752
-0.082996584 -0.043703403 -0.08266706 -0.101207264 0.036808535 -0.08612475 -0.09073991 -0.012972519
-0.061413616 -0.05421944 0.06384272 0.071670994 0.001705678 -0.045901738 -0.002852606 0.07886602
0.09608623 0.010450301 0.030108426 0.078984804 0.051150747 0.08916298 -0.009001081 0.034223713
0.036901217 0.07421159 -0.08739592 0.03676042 -0.06748776 -0.043485943 -0.024545545 0.061548427
-0.10446313 0.05595316 0.0058679204 0.08480322 0.03643346 -0.035525408 0.029202202 0.032397497
-0.058576923 0.012737053 -0.035745826 0.053987492 0.084133066 0.057395488 -0.062245667 -0.07451954
0.08567099 0.07516954 -0.01884248 -0.068385735 0.055899724 0.0375438 -0.028396644 -0.103309035
0.05731195 0.09159328 -0.034690566 0.020921446 -0.025422728 -0.017693872 0.033057675 0.017214036
-0.10031333 0.070980646 0.09242508 0.04490675 0.05476882 0.09503354 -0.05999498 0.0981086
0.07735641 0.06836674 0.105534315 0.009402013 -0.03247115 0.0650455 -0.022821607 0.03721429
-0.010309678 0.019979611 -0.03206355 -0.036668923 0.048947867 0.08807678 0.006040398 0.080927454
-0.082767755 -0.05907443 0.07674075 0.0043816213 -0.041866764 -0.0296247 0.01086123 0.08961911
-0.03663519 -0.06302181 -0.061631076 0.04009482 -0.026277546 -0.09384851 0.05831513 -0.03819863
0.06414936 0.08145297 0.08376104 -0.038165804 -0.0030098096 -0.04255353 0.07496822 0.021517942
-0.032696232 -0.012027923 -0.06905476 0.016524086 0.004539678 0.09848903 0.05096294 0.08632925
-0.0819205 0.07669724 0.01986635 -0.10240961 0.0042030527 -0.06202906 -0.10247766 0.07269862
-0.027095098 -0.044817597 0.035105787 -0.09653461 0.099013604 -0.031813852 -0.054265566 0.10623661
0.101276316 0.10463841 -0.005403226 -0.018344903 0.07440133 0.11142383 -0.059519038 0.008896056
0.01116952 0.089431874 0.08180799 0.050217424 -0.07082234 -0.08620133 0.07445377 0.014455926
-0.021446677 0.09522991 -0.081762 -0.09324846 0.09787605 -0.080607995 0.025291286 0.08461331
0.040657863 0.0932789 -0.08270826 -0.105829336 -0.01726235 -0.09490373 -0.039290596 -0.0976655
0.057002727 0.07332669 0.09494915 -0.025049077 0.07158527 -0.05691752 0.08308579 -0.09597878
0.10606925 -0.019031469 -0.076847136 0.011428829 0.06203534 0.10789779 0.034654584 -0.09515574
0.02073868 -0.104226105 0.100098744 0.027797084 -0.07336535 0.10254869 -0.039113745 -0.08207376
0.048203897 0.019654406 0.083149016 0.08037126 0.017167654 -0.044767603 -0.08467884 -0.024766536
-0.017606638 0.03356322 -0.04818081 -0.10931531 0.014574278 0.07844385 0.03704981 0.058922663
0.010925671 0.049223557 -0.062279068 0.089182734 0.0012044517 -0.07802937 -0.041476894 0.030524367
-0.020239307 0.05629189 0.048816107 0.009206411 -0.07155474 -0.043102138 -0.07534556 -0.10110035
-0.09497778 0.042278893 0.033160474 -0.085505724 -0.0120787835 0.059502844 0.06671127 -0.018502295
-0.11058772 0.05919374 0.05745544 -0.031360753 -0.04781613 0.107813165 -0.058027234 -0.04241828
00000000: 36a9 d43d e954 873c a926 c83d 0560 a53d
00000010: 1de0 b13d 7024 d5bd 9d6f ba3d edb8 503d
00000020: 0c4c b03d 6c63 57bd 5115 df3c a43c 403d
00000030: 9fda a93d df32 c33d d2f6 303d f287 d1bc
00000040: 1dfa a9bd 5702 33bd 594d a9bd c145 cfbd
00000050: 8cc4 163d 2c62 b0bd d9d5 b9bd b08a 54bc
00000060: d88c 7bbd 3415 5ebd f9bf 823d 3ec8 923d
00000070: 0e91 df3a 7603 3cbd c9f2 3abb 8284 a13d
00000080: dbc8 c43d bd37 2b3c f2a5 f63c c9c2 a13d
00000090: 7283 513d 159b b63d 4579 13bc 2a2e 0c3d
000000a0: bb25 173d 3ffc 973d a2fc b2bd 1892 163d
000000b0: 0637 8abd 511e 32bd bd13 c9bc 341a 7c3d
000000c0: c4f0 d5bd 242f 653d af47 c03b 50ad ad3d
000000d0: 403b 153d 1783 11bd 7539 ef3c 3db3 043d
000000e0: 5bee 6fbd 13af 503c 376a 12bd fd21 5d3d
000000f0: f54d ac3d 8817 6b3d 50f5 7ebd b39d 98bd
00000100: 4674 af3d 7df2 993d 8b5b 9abc d20d 8cbd
00000110: 1cf7 643d 87c7 193d 14a0 e8bc b093 d3bd
00000120: efbf 6a3d 4295 bb3d b217 0ebd 7463 ab3c
00000130: 5343 d0bc bdf2 90bc 7c67 073d 7304 8d3c
00000140: 1371 cdbd 4d5e 913d 5c49 bd3d 24f0 373d
00000150: 4555 603d f2a0 c23d 4cbd 75bd 29ed c83d
00000160: 0a6d 9e3d dd03 8c3d 6022 d83d e70a 1a3c
00000170: 7800 05bd 9336 853d 61f4 babc 036e 183d
00000180: ece9 28bc 48ac a33c 1255 03bd 2732 16bd
00000190: 8f7d 483d 9961 b43d 88ee c53b 4bbd a53d
000001a0: 2482 a9bd 08f8 71bd 412a 9d3d b493 8f3b
000001b0: 7c7c 2bbd 80af f2bc 4df3 313c 398a b73d
000001c0: c80e 16bd 9411 81bd de70 7cbd 773a 243d
000001d0: 0244 d7bc a633 c0bd d9db 6e3d 2b76 1cbd
000001e0: bd60 833d d1d0 a63d e88a ab3d bf53 1cbd
000001f0: 3a40 45bb 9c4c 2ebd f088 993d 6546 b03c
00000200: 7cec 05bd c410 45bc 956c 8dbd 855d 873c
00000210: 94c1 943b 9eb4 c93d 84be 503d 64cd b03d
00000220: efc5 a7bd 7113 9d3d c1be a23c 21bc d1bd
00000230: c3b9 893b 2f12 7ebd cfdf d1bd 04e3 943d
00000240: 8af6 ddbc a892 37bd 16cb 0f3d f0b3 c5bd
00000250: a5c7 ca3d 3e4f 02bd 9245 5ebd 9492 d93d
00000260: f569 cf3d aa4c d63d 8b0d b1bb 0d48 96bc
00000270: b95f 983d 2d32 e43d 3cca 73bd c3c0 113c
00000280: 5d00 373c 0f28 b73d f38a a73d c9b0 4d3d
00000290: 4e0b 91bd 538a b0bd 387b 983d 8cd8 6c3c
000002a0: f1b0 afbc e607 c33d d672 a7bd 0cf9 bebd
000002b0: 3d73 c83d ce15 a5bd ac2f cf3c be49 ad3d
000002c0: dc88 263d 0209 bf3d f362 a9bd 0dbd d8bd
000002d0: c669 8dbc e35c c2bd 2def 20bd da04 c8bd
000002e0: b17b 693d 4e2c 963d b374 c23d b933 cdbc
000002f0: 4c9b 923d 5822 69bd e228 aa3d 8690 c4bd
00000300: d63a d93d e2e7 9bbc 0862 9dbd fc3f 3b3c
00000310: c518 7e3d 84f9 dc3d f7f1 0d3d 03e1 c2bd
00000320: 2ae4 a93c 7f74 d5bd 9200 cd3d b6b6 e33c
00000330: 9340 96bd 0c05 d23d bc35 20bd 4a16 a8bd
00000340: 7371 453d 4702 a13c 084a aa3d b099 a43d
00000350: 2ea3 8c3c 3c5e 37bd 1a6c adbd 31e3 cabc
00000360: cc3b 90bc 9679 093d 3e59 45bd b5e0 dfbd
00000370: f4c8 6e3c 2ba7 a03d 8bc1 173d e458 713d
00000380: 9601 333c a49e 493d 5618 7fbd 70a5 b63d
00000390: b1de 9d3a ddcd 9fbd ade3 29bd 3d0e fa3c
000003a0: e7cc a5bc 5392 663d 66f3 473d 7dd6 163c
000003b0: 4b8b 92bd de8b 30bd c64e 9abd b30d cfbd
000003c0: b683 c2bd a22c 2d3d 47d3 073d a01d afbd
000003d0: 17e6 45bc 41b9 733d eb9f 883d 2092 97bc
000003e0: d17b e2bd 2375 723d 6556 6b3d 2274 00bd
000003f0: d9da 43bd 26cd dc3d f7ad 6dbd cabe 2dbd

lstm.bias_hh_l0 f4 [320]
-0.07171136 -0.1114998 0.060604792 -0.06609283 0.027278878 -0.06671583 0.014139732 -0.10366116
0.100944914 -0.071082205 -0.10063997 -0.04101428 0.037523754 0.108273126 0.02539407 -0.0800055
0.06886149 0.05114728 -0.07041636 0.009791218 0.040543694 0.0756077 0.069359116 0.046842348
0.011827697 -0.006264348 -0.09132012 -0.05909498 0.11095115 0.04497095 -0.08079585 0.070242256
0.085274845 0.011108731 0.09934227 0.040858153 0.08462297 0.044302072 0.026407653 0.06506747
0.051056277 0.05561055 0.04935241 0.022298522 0.10255743 0.060411256 -0.08846289 -0.039592687
0.0014072639 0.092912845 0.07146256 0.08269397 0.07739718 -0.06777592 -0.035924874 -0.026251823
-0.006883194 -0.091568425 0.07324617 -0.06041368 -0.022840893 -0.034523275 0.036104854 -0.010598122
0.04639734 -0.082463704 0.092547044 0.08645648 0.08649724 -0.037864953 -0.05506301 0.03244488
0.004661176 0.023815703 0.009873145 0.101410516 0.036319625 -0.047071364 -0.049139004 -0.10809266
-0.04346943 0.111105904 0.017410545 0.059377484 0.06525683 -0.05407195 0.07712489 0.07065107
-0.064525835 0.021302601 -0.005052966 0.070548706 -0.0071691065 -0.06462006 -0.09942602 -0.10324223
-0.08392472 -0.019000681 -0.09438427 0.019242572 0.05982061 -0.024688767 0.11011862 -0.09061876
0.11031809 -0.00085239246 0.0693884 -0.0861047 0.06593663 -0.06888802 -0.06244191 0.08825056
-0.0011476477 0.0052353996 0.04975401 -0.06803965 -0.057709284 0.02683599 -0.0070517403 0.03181197
-0.0037497806 0.033220194 0.03641337 0.03322085 0.027082063 -0.0658897 0.0771708 0.03271645
-0.078164406 0.005075117 -0.08943297 0.083995394 -0.10008105 0.0637862 -0.007988325 0.028728992
0.07362093 0.061258197 -0.06665594 -0.034976266 -0.08054071 -0.040376507 -0.042788997 -0.037727647
0.042556863 -0.07867728 0.1004958 0.02820472 0.07764386 0.038203217 0.07548435 0.06926617
-0.068622276 0.052546788 -0.08345384 -0.01516207 0.018872267 0.020026911 -0.08700449 0.024444705
0.026914423 -0.094874606 -0.04861752 -0.10214619 -0.05067728 -0.051245507 0.031140573 0.038212664
-0.057152305 0.0826453 0.053620625 0.061786134 0.054077256 0.08027422 -0.064802356 0.0018249636
0.10769635 0.0888849 0.051773123 0.09032795 -0.02571381 -0.018857792 0.03409935 -0.027038109
-0.10016985 0.09878403 -0.0022874454 0.008282301 0.049757514 0.008308277 -0.015374052 -0.10680282
-0.050006296 0.011699575 0.08795677 -0.042134058 0.065069206 0.06299621 -0.033368178 -0.05502965
-0.042023275 0.04307792 -0.0485144 0.051750947 0.0765588 0.0090248445 -0.05107787 0.014331936
-0.105527095 0.049584825 0.08473845 0.09526771 -0.028100897 0.10247748 -0.09208399 -0.035399403
-0.015770348 -0.03103039 0.026777918 0.06643809 -0.07924696 0.10369784 -0.058388945 0.06906357
0.07168897 -0.04894491 -0.070541725 -0.05377102 -0.07646974 -0.01919663 0.018217342 0.11141518
-0.11004842 -0.071110696 -0.015800789 0.0971117 -0.06963722 0.07088876 -0.07870278 -0.07656558
0.018567482 0.040045798 0.02717588 -0.0681123 0.05705268 0.028420182 -0.00304233 0.099100694
-0.084555775 0.046651013 -0.0012140746 0.08490499 -0.0131966295 0.07172821 -0.01664621 -0.08620267
00000000: 68dd 92bd 025a e4bd bb3c 783d ad5b 87bd
00000010: f477 df3c 4fa2 88bd 56aa 673c 4d4c d4bd
00000020: 35bc ce3d 8c93 91bd 541c cebd 97fe 27bd
00000030: 82b2 193d 4dbe dd3d 3a07 d03c ecd9 a3bd
00000040: 4107 8d3d cf7f 513d 7436 90bd 586b 203c
00000050: 2511 263d 36d8 9a3d 270c 8e3d c3dd 3f3d
00000060: f5c8 413c 2945 cdbb 0b06 bbbd 940d 72bd
00000070: 5b3a e33d 7533 383d 4b78 a5bd 2cdb 8f3d
00000080: 94a4 ae3d 6501 363c f673 cb3d e15a 273d
00000090: cf4e ad3d 1776 353d dd54 d83c 1842 853d
000000a0: 6320 513d e3c7 633d c125 4a3d 64ab b63c
000000b0: a109 d23d cb71 773d 082c b5bd f12b 22bd
000000c0: f173 b83a 1749 be3d f65a 923d 755b a93d
000000d0: 6a82 9e3d 1ace 8abd f625 13bd 100e d7bc
000000e0: 6b8c e1bb 3a88 bbbd 1702 963d 5674 77bd
000000f0: d31c bbbc 4768 0dbd afe2 133d bfa3 2dbc
00000100: 230b 3e3d bbe2 a8bd 4e89 bd3d 1810 b13d
00000110: 7725 b13d 4818 1bbd c089 61bd ece4 043d
00000120: c7bc 983b 2619 c33c f9c2 213c 51b0 cf3d
00000130: e3c3 143d e7cd 40bd fb45 49bd af5f ddbd
00000140: 000d 32bd 7e8b e33d 8fa0 8e3c ce35 733d
00000150: 5fa5 853d 8d7a 5dbd a8f3 9d3d 82b1 903d
00000160: 1f26 84bd cb82 ae3c 5a93 a5bb d77b 903d
00000170: d3ea eabb 8657 84bd df9f cbbd aa70 d3bd
00000180: b9e0 abbd 51a7 9bbc 8a4c c1bd 99a2 9d3c
00000190: 7506 753d 1940 cabc df85 e13d 5496 b9bd
000001a0: 73ee e13d 1773 5fba 811b 8e3d a957 b0bd
000001b0: c909 873d 2a15 8dbd 17c3 7fbd b6bc b43d
000001c0: ab6c 96ba b78d ab3b dcca 4b3d 5f58 8bbd
000001d0: 9260 6cbd 26d7 db3c 4912 e7bb 454d 023d
000001e0: e1be 75bb e611 083d 3026 153d 9612 083d
000001f0: 34db dd3c 2ef1 86bd b90b 9e3d af01 063d
00000200: a914 a0bd 2b4d a63b a228 b7bd c705 ac3d
00000210: 4bf7 ccbd 57a2 823d 77e1 02bc 1059 eb3c
00000220: 92c6 963d e0e9 7a3d e982 88bd 4643 0fbd
00000230: 87f2 a4bd d661 25bd 8443 2fbd 4e88 1abd
00000240: 1b50 2e3d 8e21 a1bd bed0 cd3d 960d e73c
00000250: be03 9f3d fa7a 1c3d 8a97 9a3d 6cdb 8d3d
00000260: d689 8cbd 4d3b 573d d9e9 aabd 556a 78bc
00000270: 039a 9a3c 7a0f a43c 692f b2bd 4340 c83c
00000280: a37b dc3c 9e4d c2bd 2a23 47bd 0632 d1bd
00000290: fb92 4fbd cfe6 51bd 841a ff3c e284 1c3d
000002a0: 8918 6abd f041 a93d 4da1 5b3d 7513 7d3d
000002b0: 1d80 5d3d cf66 a43d 19b7 84bd 9e33 ef3a
000002c0: e78f dc3d 4909 b63d 0e10 543d dcfd b83d
000002d0: c5a5 d2bc a87b 9abc c3ab 0b3d 067f ddbc
000002e0: da25 cdbd 484f ca3d f7e8 15bb 7db2 073c
000002f0: 89ce 4b3d 711f 083c 73e3 7bbc 70bb dabd
00000300: 67d3 4cbd 93af 3f3c ae22 b43d c394 2cbd
00000310: 0143 853d 2804 813d 12ad 08bd c566 61bd
00000320: 9920 2cbd 7972 303d 09b7 46bd cdf8 533d
00000330: dcca 9c3d f1dc 133c 0737 51bd 7fd0 6a3c
00000340: 971e d8bd 7519 4b3d 5a8b ad3d b81b c33d
00000350: da33 e6bc b7df d13d 8896 bcbd f7fe 10bd
00000360: d130 81bc 7233 febc 5d5d db3c b110 883d
00000370: 3b4c a2bd 885f d43d 3f29 6fbd 3371 8d3d
00000380: abd1 923d 757a 48bd 2e78 90bd 003f 5cbd
00000390: 2b9c 9cbd 4042 9dbc 893c 953c a42d e43d
000003a0: 1161 e1bd 7ca2 91bd a870 81bc 80e2 c63d
000003b0: f59d 8ebd 202e 913d ec2e a1bd 6ace 9cbd
000003c0: d51a 983c 1007 243d f39f de3c 767e 8bbd
000003d0: 12b0 693d 71d1 e83c d461 47bb 4ef5 ca3d
000003e0: 942b adbd 2215 3f3d 9521 9fba abe2 ad3d
000003f0: ad36 58bc 3de6 923d a25d 88bc 078b b0bd

net.0.weight f4 [128, 80]
0.05393935 -0.025727898 0.11100786 0.0057752104 0.053046666 -0.0010308278 -0.078764446 -0.073738456
-0.043614037 0.053953636 -0.09610457 -0.071056426 -0.10539445 -0.05782433 0.036286075 0.080823705
-0.003577716 -0.1114457 -0.021042371 -0.019760538 -0.10021787 0.032498337 0.06560607 -0.016989833
0.012831362 -0.11014746 0.10171844 -0.092164755 0.041394927 0.007573558 -0.09732917 -0.043607097
0.077068806 0.072022304 -0.054572977 -0.0421927 -0.07284048 0.07593671 -0.09534675 0.019726178
-0.014613783 0.04598433 -0.068688065 0.076201275 0.092312075 -0.03295633 -0.08133543 -0.10809714
-0.012080969 -0.10828613 -0.11050577 -0.097052805 0.108639665 0.05084467 0.057333805 -0.011812543
0.06804423 0.06648899 0.018992512 -0.10581895 -0.031950716 0.10996613 -0.09964424 0.059549693
0.09770002 0.052056782 -0.054685306 0.030803468 -0.017791685 -0.08822415 -0.11062831 0.014574052
-0.008220766 0.085696556 -0.06741407 0.026729377 -0.056026343 -0.02861393 0.10354944 0.05152232
-0.0338289 -0.0274267 0.11142614 -0.11117604 0.014046343 -0.06434068 -0.078761436 0.094300665
-0.0049959756 -0.07527526 0.043908495 0.029363204 0.103720486 0.027778838 -0.04401476 -0.017457513
0.10224532 -0.079427876 0.10943654 0.081029266 -0.007295976 0.020976866 0.100937515 0.050537124
0.08175268 -0.076760955 -0.030972881 0.10829673 0.10019637 -0.07700883 -0.014198549 -0.0016961884
0.017598122 0.027895818 0.026286462 0.10577822 -0.07635784 -0.024591006 0.07667731 0.028826727
0.03631497 0.08186802 -0.07137061 -0.010278597 0.026857367 -0.10072984 -0.065722875 0.08895098
-0.08827364 -0.05497347 0.063476324 0.08843058 -0.012573639 0.06759213 -0.05500279 -0.019992871
-0.05472322 0.059063714 0.0660991 0.04717003 -0.06448136 -0.039811548 -0.1018793 -0.0947523
-0.078767285 -0.08451484 -0.10080266 0.087641045 0.047431752 -0.07272733 0.099386364 -0.033762485
0.076869205 -0.07226438 0.077879004 0.004466987 0.09580388 -0.011464242 0.03057728 -0.10249825
-0.065427944 0.066273004 0.09238022 -0.100130334 -0.08626635 -0.07298988 -0.036909122 -0.094325304
0.05547139 -0.055386677 -0.10506798 -0.096949175 -0.081575714 -0.077417694 -0.09181586 0.06568728
-0.06521471 -0.050755598 0.06176846 0.10207289 0.11019284 0.110331096 0.104154415 -0.010739959
-0.0010471146 -0.027786301 0.10348858 0.008113422 0.08599224 0.06678884 -0.08848409 0.006158684
0.062252905 0.03431433 0.041884717 0.11022963 0.050781358 0.08659748 0.10967654 0.035337575
-0.077890456 0.05861796 -0.072721064 0.029949557 0.056532286 0.018577492 0.076971956 -0.023299709
0.0441082 -0.04883066 -0.057362113 -0.024727311 0.11068703 -0.008681742 0.064993784 0.064114384
-0.02651537 0.01951457 0.035987943 0.021598576 0.08546941 0.10236301 0.08291292 0.08357911
0.002044889 0.0026117023 0.048345387 0.031126592 -0.018453967 -0.067674205 0.07931898 -0.07908311
-0.016509878 0.061892595 0.023687368 0.035198886 -0.08068413 -0.047579385 0.10624421 0.09704526
0.038180597 0.004724191 -0.08642422 0.006634134 0.0539591 0.061843123 -0.062086664 -0.009443837
-0.006029469 0.07014919 -0.048323154 -0.05649461 0.080750205 -0.03827717 -0.08392092 -0.019392418
00000000: 82ef 5c3d 50c3 d2bc 1758 e33d fa3d bd3b
00000010: 7647 593d d71c 87ba 414f a1bd 3004 97bd
00000020: a2a4 32bd 7dfe 5c3d 79d2 c4bd 0886 91bd
00000030: 0cd9 d7bd 34d9 6cbd b5a0 143d e686 a53d
00000040: 1d78 6abb a53d e4bd 0d61 acbc dae0 a1bc
00000050: 073f cdbd fa1c 053d 7a5c 863d 432e 8bbc
00000060: a23a 523c fe94 e1bd c251 d03d e0c0 bcbd
00000070: ba8d 293d 9c2b f83b 8454 c7bd 5b9d 32bd
00000080: 40d6 9d3d 6e80 933d ea87 5fbd 41d2 2cbd
00000090: 642d 95bd b584 9b3d 2845 c3bd cb98 a13c
000000a0: a66e 6fbc 115a 3c3d 54ac 8cbd 6a0f 9c3d
000000b0: 1d0e bd3d 37fd 06bd 3193 a6bd 0962 ddbd
000000c0: 42ef 45bc 1ec5 ddbd d950 e2bd 9fc3 c6bd
000000d0: 797e de3d 8042 503d dad6 6a3d 6589 41bc
000000e0: c65a 8b3d 612b 883d 2f96 9b3c 9bb7 d8bd
000000f0: c1de 02bd ec35 e13d 4812 ccbd 61ea 733d
00000100: f316 c83d 7e39 553d b3fd 5fbd 8e57 fc3c
00000110: debf 91bc ddae b4bd 1891 e2bd 01c8 6e3c
00000120: 64b0 06bc ad81 af3d 6310 8abd 91f7 da3c
00000130: e17b 65bd c367 eabc bb11 d43d 1109 533d
00000140: 2c90 0abd f5ad e0bc 6333 e43d 43b0 e3bd
00000150: a222 663c 0cc5 83bd ad4d a1bd b520 c13d
00000160: 48b5 a3bb ea29 9abd 65d9 333d 1a8b f03c
00000170: 686b d43d 7290 e33c d248 34bd 0f03 8fbc
00000180: ff65 d13d 15ab a2bd 4420 e03d acf2 a53d
00000190: 1513 efbb add7 ab3c 54b8 ce3d 0400 4f3d
000001a0: f36d a73d d934 9dbd d7ba fdbc adca dd3d
000001b0: c133 cd3d ceb6 9dbd 08a1 68bc a352 deba
000001c0: f029 903c c585 e43c b556 d73c 40a2 d83d
000001d0: 8061 9cbd 1473 c9bc fe08 9d3d 0726 ec3c
000001e0: 02bf 143d 6caa a73d c12a 92bd 8f67 28bc
000001f0: fb03 dc3c 724b cebd b799 86bd ee2b b63d
00000200: cfc8 b4bd dc2b 61bd e0ff 813d 181b b53d
00000210: aa01 4ebc be6d 8a3d 9b4a 61bd 17c8 a3bc
00000220: 7525 60bd cbec 713d f75e 873d 5d35 413d
00000230: ce0e 84bd 6f11 23bd 18a6 d0bd 7e0d c2bd
00000240: be50 a1bd 1e16 adbd a071 cebd 267d b33d
00000250: cc47 423d 11f2 94bd 148b cb3d 884a 0abd
00000260: 9a6d 9d3d 59ff 93bd 077f 9f3d ce5f 923b
00000270: d334 c43d 84d4 3bbc 347d fa3c 9aea d1bd
00000280: 16ff 85bd 24ba 873d d731 bd3d 2211 cdbd
00000290: 69ac b0bd b87b 95bd 052e 17bd a02d c1bd
000002a0: f835 633d 24dd 62bd e22d d7bd 4a8d c6bd
000002b0: 2b11 a7bd 2b8d 9ebd f409 bcbd 0d87 863d
000002c0: 4a8f 85bd 1ae5 4fbd ed00 7d3d 970b d13d
000002d0: c9ac e13d 45f5 e13d e94e d53d a7f6 2fbc
000002e0: 563f 89ba 19a0 e3bc d2f1 d33d 29ee 043c
000002f0: b31c b03d 96c8 883d 2637 b5bd c9ce c93b
00000300: e7fc 7e3d 2f8d 0c3d 4f8f 2b3d 12c0 e13d
00000310: 1d00 503d 055a b13d 189e e03d 22be 103d
00000320: 0885 9fbd 6319 703d c8ee 94bd c658 f53c
00000330: 668e 673d d32f 983c 79a3 9d3d 08df bebc
00000340: cdaa 343d a802 48bd 89f4 6abd ee90 cabc
00000350: e2af e23d dd3d 0ebc 761b 853d 674e 833d
00000360: c336 d9bc 05dd 9f3c 1868 133d 7fef b03c
00000370: 960a af3d b3a3 d13d 40ce a93d 862b ab3d
00000380: 8b03 063b 1829 2b3b d005 463d 32fd fe3c
00000390: c62c 97bc c698 8abd fd71 a23d 53f6 a1bd
000003a0: b93f 87bc 1783 7d3d 030c c23c b52c 103d
000003b0: b93d a5bd 9ae2 42bd 9096 d93d aabf c63d
000003c0: 4263 1c3d 63cd 9a3b 2eff b0bd 2663 d93b
000003d0: 3804 5d3d 374f 7d3d 964e 7ebd 53ba 1abc
000003e0: da92 c5bb 61aa 8f3d 80ee 45bd e466 67bd
000003f0: 5d60 a53d 86c8 1cbd bbde abbd d9dc 9ebc

net.0.bias f4 [128]
-0.009076184 -0.051935233 0.025279105 0.09749126 0.10122962 0.039313905 -0.0035006 0.10449984
0.0937971 0.06424164 -0.08388435 -0.084501445 0.10117579 0.060679883 0.015922032 -0.017191632
-0.11046557 -0.035150822 -0.052256398 0.073118694 0.10260566 0.032009747 -0.10873283 -0.065002404
-0.065883785 -0.052906338 -0.04791904 0.09110874 -0.06827678 -0.05313927 -0.021686794 0.0013948688
-0.02123728 -0.09545038 -0.10847285 -0.017167307 -0.09799708 0.0943795 -0.070519105 -0.07295316
0.10681625 -0.027870707 0.05157799 0.05215121 0.0010615622 0.013074185 0.08627838 -0.010744903
-0.055176657 -0.018502854 -0.010939825 0.07206414 -0.020991832 0.08375404 0.017316649 -0.031062566
0.04841704 0.089211695 -0.027555915 0.026254555 -0.020591179 0.03741821 -0.017322246 0.032341495
0.05270242 -0.1089621 0.09650553 -0.07213815 -0.048198834 0.10626636 -0.038331047 -0.09325119
0.07316911 -0.033026688 0.04539927 0.032636255 0.05685344 -0.038176186 0.004260563 -0.11084242
0.004191257 -0.10124294 -0.0776437 -0.09697813 0.030514345 0.001978329 0.109579325 0.02595878
0.041865963 0.02068205 0.090894386 -0.032787688 0.032590926 -0.09009147 -0.03951236 -0.05619217
0.058545336 -0.022600388 0.06003034 0.102676064 0.06932804 -0.10951485 0.07230434 0.10642123
-0.017307613 -0.09014022 0.016678331 -0.04724596 0.08079023 -0.10335156 -0.0035265498 -0.019455247
0.06731928 0.006222325 0.09823385 -0.06351863 -0.08003621 -0.03632489 -0.07518595 0.038930405
-0.07134228 -0.0578856 0.0016751968 -0.021882609 -0.10778739 -0.10919382 -0.019676011 -0.061803512
00000000: 46b4 14bc 0aba 54bd 2016 cf3c 7fa9 c73d
00000010: 7a51 cf3d 9e07 213d 536a 65bb 0304 d63d
00000020: b218 c03d 1f91 833d 8fcb abbd 180f adbd
00000030: 4135 cf3d 788b 783d ec6e 823c 77d5 8cbc
00000040: c63b e2bd 4ffa 0fbd ce0a 56bd 41bf 953d
00000050: eb22 d23d a71c 033d 51af debd fb1f 85bd
00000060: 14ee 86bd 51b4 58bd c146 44bd 3897 ba3d
00000070: b2d4 8bbd 90a8 59bd 81a8 b1bc 08d4 b63a
00000080: cef9 adbc 7d7b c3bd 0327 debd 74a2 8cbc
00000090: b1b2 c8bd 0a4a c13d 526c 90bd 7768 95bd
000000a0: 7ac2 da3d 1c51 e4bc 7143 533d 829c 553d
000000b0: 1e24 8b3a 1b35 563c b8b2 b03d 640b 30bc
000000c0: eb00 62bd 4c93 97bc f43c 33bc 5d96 933d
000000d0: 10f7 abbc 3d87 ab3d a5db 8d3c ec76 febc
000000e0: f250 463d 9fb4 b63d f1bc e1bc cb13 d73c
000000f0: d5ae a8bc d643 193d 62e7 8dbc 8478 043d
00000100: 7ede 573d 8627 dfbd b1a4 c53d 2bbd 93bd
00000110: 246c 45bd 2da2 d93d 0401 1dbd 7bfa bebd
00000120: b0d9 953d fe46 07bd 96f4 393d 98ad 053d
00000130: 27df 683d a25e 1cbd 319c 8b3b 5a01 e3bd
00000140: d056 893b 7558 cfbd a903 9fbd 789c c6bd
00000150: 38f9 f93c daa6 013b 206b e03d 82a7 d43c
00000160: a57b 2b3d 676d a93c d626 ba3d 624c 06bd
00000170: 107e 053d e081 b8bd b6d7 21bd c329 66bd
00000180: 3ccd 6f3d 7324 b9bc 60e2 753d d447 d23d
00000190: dcfb 8d3d 5249 e0bd 4c14 943d 60f3 d93d
000001a0: b2c8 8dbc 709b b8bd ffa0 883c fb84 41bd
000001b0: 5975 a53d fca9 d3bd b01d 67bb 9c60 9fbc
000001c0: b1de 893d a5e4 cb3b d42e c93d 0e16 82bd
000001d0: 06ea a3bd 68c9 14bd 17fb 99bd 7d75 1f3d
000001e0: e71b 92bd 7319 6dbd 4792 db3a 2843 b3bc
000001f0: a3bf dcbd 02a1 dfbd 962f a1bc ae25 7dbd

net.2.weight f4 [64, 128]
-0.04636482 -0.043876745 0.013039054 -0.03709267 -0.05416186 -0.06562145 -0.036029655 0.0302945
-0.015654888 0.026787419 0.028481344 -0.008376391 -0.0101473695 -0.034688827 0.08491294 -0.022152351
-0.014982847 0.066888936 0.07597709 0.02275855 0.061108295 0.07468391 -0.028285192 0.08323784
-0.03180326 0.08021721 0.0031142307 -0.034126934 -0.05615959 -0.06840868 -0.062299952 -0.006339086
0.014707796 0.086162336 0.058306623 -0.04860383 -0.066115096 -0.07218709 -0.0064393957 -0.0037401428
0.07267187 0.07235704 0.014639782 -0.07409809 0.023680681 -0.04096659 -0.052010167 -0.016979005
0.061942115 0.0023935616 0.08083549 0.086011134 0.022404063 -0.08741047 0.057377223 0.029948022
-0.061411086 0.06624404 -0.04361343 0.015360746 0.08270832 0.050180797 -0.035932876 -0.08094467
0.029950077 0.037553 0.06469328 0.034339704 0.084708065 0.04259998 0.014455178 0.060689427
0.054833714 -0.005403774 -0.035953443 -0.02878476 -0.049465027 0.023700321 0.05423665 -0.012745259
0.02062887 0.011670525 0.06523841 -0.044506375 0.03417081 -0.018729353 -0.028896384 -0.08753081
-0.080093 0.0068502324 0.042971905 0.04138911 -0.0661822 0.056033853 0.023586145 0.06462161
0.057882175 0.051661026 -0.08004675 -0.03921838 -0.06472528 0.08466369 -0.07077544 -0.05476768
-0.074101985 0.0025316137 -0.0052657113 -0.058778983 -0.027541058 0.0732609 -0.08145347 0.04179251
0.0643417 -0.042907737 0.087136276 0.047353406 -0.021158265 0.072818376 0.0460075 0.08101529
0.005046453 -0.048398584 -0.08035082 -0.0055486113 -0.013135518 -0.0387435 0.033654258 0.05436331
-0.08049755 0.03644871 -0.047109406 -0.058338486 0.006761018 -0.009738862 -0.05175536 0.07762357
-0.0038520638 -0.053077146 0.012618282 0.035514325 -0.05602198 0.07659988 0.03452301 -0.009686368
-0.011852832 -0.07859851 -0.038248844 0.06634665 0.08489862 0.04430186 0.031757724 -0.017657306
0.008397412 -0.028758807 -0.072575115 -0.076554544 -0.054294582 0.08233657 -0.028171586 0.051379263
-0.07515683 -0.029595116 -0.07628745 -0.03931659 -0.015175152 0.008332875 -0.038726177 -0.03920185
-0.0842567 -0.05691587 0.00686805 -0.08273221 0.068891644 0.07657187 -0.04034092 0.058061402
-0.05735385 -0.011691609 -0.057374746 0.08503135 0.046803948 0.022139223 -0.020255659 0.010491056
-0.024802124 0.03758801 0.057494897 -0.041399773 -0.07642331 0.048384793 0.01455829 -0.04185436
-0.039589398 -0.04577899 0.079716474 -0.008756439 0.038344253 0.068177566 -0.065136455 0.07047327
-0.06795713 -0.032547936 -0.059014205 -0.0045222305 -0.03145143 -0.0073579755 -0.004430329 -0.07263906
-0.064960375 -0.034533348 -0.050694514 0.08367029 0.048451543 0.03770394 -0.04098325 -0.0025368189
0.0019436968 0.0867971 -0.05514167 -0.08005265 -0.04857671 -0.03716547 0.057739127 0.07348946
0.06372009 0.04229278 -0.0065434454 -0.055364195 -0.05615351 -0.012162801 0.0469646 -0.051542792
-0.058067955 0.055330172 -0.004007649 0.02875669 -0.0032875068 -0.003288455 -0.036768887 0.08405076
-0.024273276 0.026448801 0.0705353 -0.003836048 0.07615769 0.08629025 0.07135298 -0.046162546
0.01276098 -0.07987951 0.020326339 0.010686428 0.05086406 0.07570049 0.058778636 0.08365099
00000000: 0ae9 3dbd 1ab8 33bd c2a1 553c 7cee 17bd
00000010: d4d8 5dbd 8a64 86bd d593 13bd 2c2c f83c
00000020: ae3e 80bc 4a71 db3c b551 e93c 213d 09bc
00000030: 2741 26bc df15 0ebd d6e6 ad3d d978 b5bc
00000040: 9d7a 75bc 11fd 883d e099 9b3d 2370 ba3c
00000050: b14c 7a3d e1f3 983d 59b6 e7bc 9a78 aa3d
00000060: 2344 02bd ec48 a43d 1f18 4c3b afc8 0bbd
00000070: 9907 66bd da19 8cbd 3c2e 7fbd 1cb8 cfbb
00000080: f8f8 703c e175 b03d edd2 6e3d cf14 47bd
00000090: 5a67 87bd d3d6 93bd 9101 d3bb 2f1d 75bb
000000a0: fdd4 943d ee2f 943d b2db 6f3c bdc0 97bd
000000b0: fdfd c13c 95cc 27bd 9d08 55bd 8e17 8bbc
000000c0: 04b7 7d3d 4ddd 1c3b 148d a53d 9b26 b03d
000000d0: ba88 b73c 4304 b3bd 6104 6b3d 8e55 f53c
000000e0: 318a 7bbd f5aa 873d ffa3 32bd a3ab 7b3c
000000f0: fb62 a93d 618a 4d3d 5a2e 13bd 52c6 a5bd
00000100: dd59 f53c 2dd1 193d e97d 843d caa7 0c3d
00000110: 6c7b ad3d 517d 2e3d 69d5 6c3c 7a95 783d
00000120: 5199 603d 2412 b1bb eb43 13bd 04ce ebbc
00000130: d79b 4abd 2d27 c23c 4027 5e3d 7ed1 50bc
00000140: e0fd a83c bb35 3f3c b79b 853d 514c 36bd
00000150: b1f6 0b3d 4d6e 99bc 1cb8 ecbc 5a43 b3bd
00000160: cc07 a4bd ea77 e03b 4f03 303d a187 293d
00000170: 898a 87bd c183 653d bb37 c13c 5658 843d
00000180: dc15 6d3d 839a 533d 8def a3bd 74a3 20bd
00000190: b08e 84bd 2864 ad3d b7f2 90bd 1354 60bd
000001a0: c8c2 97bd 6ee9 253b fd8b acbb 3bc2 70bd
000001b0: c99d e1bc d009 963d 14d1 a6bd 9f2e 2b3d
000001c0: 95c5 833d 06c0 2fbd 8174 b23d a5f5 413d
000001d0: 1954 adbc cd21 953d 5c72 3c3d 58eb a53d
000001e0: b75c a53b 983d 46bd f98e a4bd 20d1 b5bb
000001f0: 5b36 57bc 81b1 1ebd 0cd9 093d 10ac 5e3d
00000200: e6db a4bd 3e4b 153d cbf5 40bd 56f4 6ebd
00000210: 888b dd3b bf8f 1fbc 6efd 53bd 1bf9 9e3d
00000220: e872 7cbb 6c67 59bd e9bc 4e3c 7877 113d
00000230: 4e77 65bd 66e0 9c3d 0068 0d3d 92b3 1ebc
00000240: 6132 42bc 41f8 a0bd d2aa 1cbd c1e0 873d
00000250: 54df ad3d de75 353d 6314 023d 0ea6 90bc
00000260: 4c95 093c 9797 ebbc 43a2 94bd a1c8 9cbd
00000270: ff63 5ebd 13a0 a83d 19c8 e6bc 1073 523d
00000280: d3eb 99bd 7571 f2bc 983c 9cbd 6f0a 21bd
00000290: 33a1 78bc 9c86 083c 579f 1ebd 1e92 20bd
000002a0: c78e acbd 9e20 69bd 610d e13b 816f a9bd
000002b0: 1017 8d3d b6d1 9c3d 853c 25bd cbd1 6d3d
000002c0: dfeb 6abd 2a8e 3fbc c801 6bbd eb24 ae3d
000002d0: 7fb5 3f3d 515d b53c 32ef a5bc aee2 2b3c
000002e0: d32d cbbc e3f5 193d c57f 6b3d cf92 29bd
000002f0: d383 9cbd 222f 463d e585 6e3c 7a6f 2bbd
00000300: 7e28 22bd c082 3bbd 6442 a33d 2b77 0fbc
00000310: dd0e 1d3d aea0 8b3d 4366 85bd 4a54 903d
00000320: 1c2d 8bbd fc50 05bd e1b8 71bd 382f 94bb
00000330: 37d3 00bd 2c1b f1bb 4b2c 91bb cac3 94bd
00000340: f209 85bd d772 0dbd 0da5 4fbd 545b ab3d
00000350: 2075 463d 726f 1a3d 0dde 27bd c240 26bb
00000360: a4c3 fe3a aec2 b13d 3bdc 61bd a5f2 a3bd
00000370: 5ff8 46bd d23a 18bd dd7f 6c3d a481 963d
00000380: ae7f 823d 323b 2d3d 666a d6bb 91c5 62bd
00000390: 3901 66bd 7c46 47bc f45d 403d 891e 53bd
000003a0: aad8 6dbd e4a1 623d 9952 83bb 2693 eb3c
000003b0: 3673 57bb 1f83 57bb f99a 16bd ce22 ac3d
000003c0: c0d8 c6bc 28ab d83c d074 903d 3566 7bbb
000003d0: 90f8 9b3d f1b8 b03d 8321 923d f014 3dbd
000003e0: 6e13 513c de97 a3bd 6c83 a63c 2116 2f3c
000003f0: d556 503d dc08 9b3d dec1 703d 3651 ab3d

net.2.bias f4 [64]
-0.0052639516 0.08455061 0.0669924 0.05713792 0.062075406 0.07660324 -0.065445445 0.067290105
0.009056694 -0.06319893 0.027618703 -0.064811684 -0.008475341 0.014844647 0.07063227 0.01423023
-0.029392516 0.048300307 -0.042922687 0.034771666 0.08147695 -0.0038242997 -0.060020134 -0.0034921088
0.07978416 -0.06467219 0.00023349354 -0.06667529 -0.0136630805 0.011284123 0.035735734 0.03470618
0.020531975 -0.032963976 -0.06892058 -0.027195537 0.05968608 0.009165212 -0.022980526 -0.037747834
0.052235425 -0.08166764 0.042076852 -0.06779726 0.07048897 -0.033554222 0.028953714 -0.0043529263
-0.021034544 0.049163643 0.07618745 0.018393937 0.008993442 0.006650467 -0.0012714018 0.07277835
-0.08551474 0.050726037 -0.021808622 0.026336258 -0.07394316 0.071783744 -0.0260685 -0.027844293
00000000: 3a7d acbb df28 ad3d 5033 893d 7409 6a3d
00000010: c842 7e3d 29e2 9c3d 4308 86bd 65cf 893d
00000020: 8762 143c 716e 81bd 9e40 e23c fdbb 84bd
00000030: 28dc 0abc f636 733c a7a7 903d e925 693c
00000040: 93c8 f0bc 8bd6 453d b3cf 2fbd bc6c 0e3d
00000050: 63dd a63d 1aa1 7abb acd7 75bd dddb 64bb
00000060: e165 a33d da72 84bd f2d5 7439 0e8d 88bd
00000070: 1ddb 5fbc 0be1 383c a25f 123d 1128 0e3d
00000080: ac32 a83c 3c05 07bd 3c26 8dbd 2dc9 debc
00000090: 6479 743d af29 163c a841 bcbc 799d 1abd
000000a0: d0f4 553d 5d41 a7bd c758 2c3d 4ad9 8abd
000000b0: 855c 903d 2770 09bd 5730 ed3c fea2 8ebb
000000c0: a350 acbc d15f 493d 2a08 9c3d e2ae 963c
000000d0: 3b59 133c 29ec d93b 2aa5 a6ba d10c 953d
000000e0: 5a22 afbd 1bc6 4f3d ffa7 b2bc 23bf d73c
000000f0: 836f 97bd 5b03 933d 9b8d d5bc b719 e4bc

net.4.weight f4 [12, 64]
0.089716315 0.01626587 -0.1212365 -0.111661166 -0.02415502 -0.07967839 -0.1094954 -0.0043337345
-0.11857627 -0.11689405 -0.019406587 0.09801674 0.09711425 0.09971592 0.05488023 0.091314286
-0.04053493 -0.06876114 -0.008313954 0.077206016 -0.049624026 -0.0033352226 0.079467386 -0.02215223
0.04981692 -0.104092136 -0.059428558 0.04499635 0.07330307 -0.062001288 0.038705602 0.089127734
0.06277606 -0.09601976 0.022769436 -0.03046757 0.038413122 0.0379024 -0.04607247 0.100768626
0.122414604 -0.098547384 0.026377946 -0.12394193 -0.058195397 -0.10656795 0.12400302 -0.09866685
-0.07105951 0.085234165 -0.087160215 -0.051182643 0.020324811 -0.0661836 0.028850779 0.12181072
0.104358256 -0.048143417 0.03382872 0.068702936 -0.064409986 0.06337428 -0.0915764 -0.071266696
-0.0016414076 0.023194447 -0.12340599 0.053980008 -0.0009628087 0.07204889 0.048403278 0.095330894
-0.010632336 0.09300661 -0.0169449 -0.060220763 -0.09659958 -0.09574343 -0.020704433 0.12395196
0.07887064 0.09888384 0.040444 -0.05593787 -0.03694004 -0.034819037 -0.10002129 -0.09160139
0.022558913 0.11096421 -0.11782001 0.07245447 0.05948341 -0.06594668 0.10587314 -0.019216642
-0.049549684 -0.023654252 -0.03933759 -0.07317045 -0.030775383 -0.12475586 -0.10156873 0.0763049
-0.023887217 -0.069194764 0.103862256 -0.08860172 -0.11077879 -0.12286866 0.06923017 0.05154738
0.01562427 -0.11247173 -0.048315138 0.010046899 -0.026833132 -0.020804256 -0.048510924 0.08959183
0.01867956 0.08460572 -0.041619033 0.088554695 -0.053563297 -0.088250384 -0.015372172 -0.11184472
-0.0035978854 0.019291908 -0.00077961385 0.079369366 0.08761349 0.07144524 0.019595176 -0.02875787
-0.07172929 -0.051224858 -0.10260855 0.004332185 0.009680316 0.010657668 -0.11635351 -0.02708061
-0.0031954944 -0.039668456 0.026033714 0.03358151 0.0040794015 -0.1036046 -0.0064742267 -0.039506465
0.052731186 -0.10746725 0.10066424 0.11377531 -0.052133664 0.066648066 -0.100978106 0.0076601207
-0.10282844 0.06919888 -0.050128803 -0.031916186 0.08494501 -0.03799942 -0.102294266 -0.09310189
-0.087506995 0.1230811 0.026547626 0.013581336 0.07538907 -0.041252315 0.11173713 0.045968503
-0.050170437 -0.042431563 -0.016125485 0.08928475 -0.001487121 0.0060753375 0.104272366 -0.052648425
-0.091819525 -0.06096737 0.079478696 0.044432536 0.07537772 -0.028674752 -0.06588912 -0.12137289
-0.09699994 -0.0031301528 0.09031707 0.0023618937 0.060824797 -0.07180636 0.07119627 -0.066768646
0.072095886 -0.07286544 0.00834626 0.056389138 0.01177226 -0.10390538 0.013801008 -0.101799
0.046981066 -0.045224786 0.020688385 0.06519176 0.08167943 -0.103113845 -0.0495691 -0.061735094
0.088863835 -0.087363705 0.0015647262 0.11625053 0.00092355907 -0.020504132 -0.0019503981 -0.04868786
0.10777438 -0.02041836 0.06735949 -0.095838636 -0.10396588 0.028460145 0.08224809 0.032376245
-0.11039318 -0.12399869 0.104747236 0.057299033 0.09159006 0.081282094 -0.10809392 -0.062680826
0.10657486 -0.124253765 0.116202384 -0.06717551 0.097500786 0.052398726 -0.070003 -0.07247901
0.026323244 -0.080076456 -0.045581907 -0.11337234 -0.08368461 -0.09314188 -0.101323664 0.11477284
00000000: 30bd b73d 0040 853c d84a f8bd 9cae e4bd
00000010: c0e0 c5bc 6c2e a3bd 203f e0bd 0002 8ebb
00000020: 1ed8 f2bd 2666 efbd 90fa 9ebc 00bd c83d
00000030: d6e3 c63d dc37 cc3d 18ca 603d fc02 bb3d
00000040: f407 26bd a4d2 8cbd 4037 08bc 301e 9e3d
00000050: 9042 4bbd c093 5abb ccbf a23d 9878 b5bc
00000060: d40c 4c3d 422e d5bd 5c6b 73bd 184e 383d
00000070: ec1f 963d 10f5 7dbd c489 1e3d 9a88 b63d
00000080: bc90 803d 02a6 c4bd f886 ba3c 2097 f9bc
00000090: 1457 1d3d 8c3f 1b3d 7cb6 3cbd c85f ce3d
000000a0: 82b4 fa3d 36d3 c9bd 9016 d83c 44d5 fdbd
000000b0: 4c5e 6ebd 4c40 dabd 4cf5 fd3d d811 cabd
000000c0: a687 91bd 408f ae3d 0e81 b2bd e4a4 51bd
000000d0: 3880 a63c 448b 87bd 7858 ec3c e677 f93d
000000e0: c8b9 d53d 0832 45bd fc8f 0a3d 20b4 8c3d
000000f0: 62e9 83bd 60ca 813d 688c bbbd 46f4 91bd
00000100: 8024 d7ba 4802 be3c 48bc fcbd 241a 5d3d
00000110: 0065 7cba 5e8e 933d 8442 463d d83c c33d
00000120: 4033 2ebc 407a be3d 08d0 8abc 0caa 76bd
00000130: 00d6 c5bd 2215 c4bd 589c a9bc 86da fd3d
00000140: ee86 a13d 9c83 ca3d 9ca8 253d 1c1f 65bd
00000150: 704e 17bd 689e 0ebd f6d7 ccbd 8299 bbbd
00000160: 78cd b83c 3441 e33d 9e4b f1bd 0263 943d
00000170: e0a4 733d 0e0f 87bd 04d4 d83d 386c 9dbc
00000180: 9cf4 4abd 90c6 c1bc 7420 21bd 64da 95bd
00000190: a81c fcbc 0080 ffbd 4403 d0bd be45 9c3d
000001a0: 20af c3bc fcb5 8dbd bcb5 d43d d274 b5bd
000001b0: fedf e2bd 90a2 fbbd 8cc8 8d3d 5823 533d
000001c0: f0fc 7f3c 9457 e6bd 18e6 45bd c09b 243c
000001d0: 28d1 dbbc b06d aabc 64b3 46bd ec7b b73d
000001e0: e005 993c c445 ad3d b878 2abd 2a5c b53d
000001f0: 3065 5bbd 9ebc b4bd 90db 7bbc d80e e5bd
00000200: 80ca 6bbb 100a 9e3c 005f 4cba 688c a23d
00000210: b46e b33d e251 923d 1086 a03c a095 ebbc
00000220: cee6 92bd 28d1 51bd 6e24 d2bd 00f5 8d3b
00000230: 309a 1e3c 809d 2e3c c04a eebd 28d8 ddbc
00000240: 806b 51bb 647b 22bd a844 d53c c48c 093d
00000250: 80ac 853b a62e d4bd c025 d4bb 88d1 21bd
00000260: a8fc 573d ca17 dcbd 0e29 ce3d 0803 e93d
00000270: 1c8a 55bd c87e 883d 9ccd cebd c001 fb3b
00000280: b897 d2bd 24b8 8d3d dc53 4dbd 8cba 02bd
00000290: a6f7 ad3d 48a5 1bbd a87f d1bd 34ac bebd
000002a0: de36 b3bd f211 fc3d 687a d93c 4084 5e3c
000002b0: 9665 9a3d 30f8 28bd 70d6 e43d 7849 3c3d
000002c0: 847f 4dbd b8cc 2dbd 9819 84bc ecda b63d
000002d0: 80eb c2ba a013 c73b c08c d53d e0a5 57bd
000002e0: e00b bcbd ecb8 79bd bac5 a23d e4fe 353d
000002f0: a25f 9a3d 50e7 eabc e0f0 86bd 5a92 f8bd
00000300: e8a7 c6bd 4023 4dbb 28f8 b83d 00ca 1a3b
00000310: 6c23 793d 360f 93bd 5acf 913d 00be 88bd
00000320: 02a7 933d 7a3a 95bd c0be 083c 4cf8 663d
00000330: 70e0 403c 58cc d4bd a01d 623c fe7b d0bd
00000340: 386f 403d a03d 39bd b07a a93c 4283 853d
00000350: 8c47 a73d 5a2d d3bd f808 4bbd f0dd 7cbd
00000360: 3efe b53d beeb b2bd 8017 cd3a c214 ee3d
00000370: 001b 723a 48f8 a7bc 80a4 ffba ec6c 47bd
00000380: d0b8 dc3d 6844 a7bc c6f3 893d 0c47 c4bd
00000390: 10ec d4bd 4025 e93c b071 a83d f49c 043d
000003a0: d215 e2bd 06f3 fdbd b885 d63d 64b2 6a3d
000003b0: 9293 bb3d 3a77 a63d 5860 ddbd ce5e 80bd
000003c0: ec43 da3d c278 febd 84fb ed3d 5093 89bd
000003d0: 7eae c73d 0ca0 563d bc5d 8fbd e06f 94bd
000003e0: d8a3 d73c 20ff a3bd 18b4 3abd c22f e8bd
000003f0: d662 abbd 2cc1 bebd c882 cfbd 060e eb3d

net.4.bias f4 [12]
-0.09646392 -0.090006545 -0.110567495 0.0717185 0.05600719 -0.028305963 -0.11973508 0.09842974
0.049669072 0.03186938 0.032409176 -0.055868283
00000000: e08e c5bd 5a55 b8bd 3671 e2bd 26e1 923d
00000010: cc67 653d e8e1 e7bc aa37 f5bd 8895 c93d
00000020: cc71 4b3d 7889 023d 7cbf 043d 24d6 64bd
